deep_learning/trained_models/mlp/mlp_model_log3.pt (torch, 37831 bytes, 9 tensors)

layers.0.weight f4 [32, 10]
000000 80 45 d2 3d 97 b2 9f 3d f6 2a a8 be 20 44 51 3f
       0.10267162 0.07797735 -0.32845277 0.81744576
000010 33 1e 64 bd 15 c0 e6 3e 50 eb 57 3e df 1b 98 3e
       -0.055692863 0.45068422 0.21085858 0.29708764
000020 58 ab cd be 98 bf 11 3f 44 e2 e5 3c df b6 ae bb
       -0.40169787 0.56932974 0.028061993 -0.0053318585
000030 dc f1 5a be 40 cd e6 bd 51 95 69 3e 78 4f 0c bf
       -0.21381325 -0.11269617 0.22810866 -0.5480876
000040 61 d4 ad be 7a 32 5d bd b8 0a 2d bf 4c 53 e7 3f
       -0.33951095 -0.054003216 -0.6759448 1.8072295
000050 e0 2b 1f 3d 2f d7 be 3b 2f d4 ab bd 52 e8 7a 3e
       0.0388602 0.0058239917 -0.0839008 0.24502686
000060 06 e3 de 3e 21 67 cc be 46 c2 96 bd cd 84 2f 3e
       0.4353258 -0.3992243 -0.073612735 0.17140503
000070 ec 7a 18 bf 9c ac e9 3f ba 86 06 bd 5d 7c 52 3d
       -0.59562564 1.8255801 -0.03284333 0.051388133
000080 14 9f 05 bf 93 f1 20 3f 6d 0b 16 3d ce c8 59 be
       -0.5219586 0.62868613 0.03663199 -0.21268007
000090 e7 7f ca 3e e6 e2 96 be 21 e3 c8 be 17 2a a2 3f
       0.39550707 -0.29469985 -0.39235786 1.2669095
0000a0 f1 98 21 3b 95 79 14 3c db c2 37 3f 5c 03 8d bb
       0.002465781 0.009062191 0.717817 -0.004303379
0000b0 67 ee 7b 3e 2c 15 ca be d0 67 07 be 04 66 5c 3d
       0.24602662 -0.39469278 -0.13223195 0.053808227
0000c0 1c db 5d 3f 2e 1b 99 3f ba cc 5a 3b 33 fd 92 3c
       0.8666246 1.196142 0.0033386187 0.017943
0000d0 b1 fb 23 be 10 82 b7 3e 06 4a 6c 3f e8 90 b5 3e
       -0.16013981 0.35841417 0.9230045 0.35462117
0000e0 75 14 30 be 7a bc e2 3e 6a 34 0a bf bd 5b 79 bf
       -0.17195304 0.4428442 -0.5398623 -0.97405607
0000f0 5c 19 9b bc 30 17 8e bd 2b dc b9 be b4 69 5b 3f
       -0.01893299 -0.069380164 -0.36300787 0.85708165
000100 e9 7e 52 3f cd 11 de 3e 09 9f 76 3d 62 d6 38 3f
       0.822249 0.43372956 0.06021026 0.7220212
000110 b7 ee 90 be 60 1f 46 bf 25 cb 7a 3e 23 a9 fb bb
       -0.28307125 -0.77391624 0.24491556 -0.007680075
000120 ae c2 9e 3d 0a 23 9c bd 88 41 b5 3d 1f 46 45 be
       0.07751976 -0.07623871 0.0885039 -0.1926503
000130 93 15 88 be 33 27 05 bf a9 09 62 bf 92 84 28 bf
       -0.2657896 -0.5201294 -0.8829599 -0.65827286
000140 d9 eb 8a 3b e5 c3 97 3c 87 7e 5b be 55 19 50 3e
       0.004239541 0.018526027 -0.21434985 0.20322163
000150 d5 30 73 3e 2b 74 54 3f 26 a1 76 bd 9c cd b6 3e
       0.23749097 0.8298976 -0.060212277 0.35703743
000160 2d 42 2b 3f 6d 22 09 bf 5d 4b ca ba 2f d2 85 bd
       0.6689785 -0.53568155 -0.0015433837 -0.0653423
000170 c1 31 1e bf a1 12 20 3f 2d e3 00 3f 4e c0 4d bc
       -0.6179467 0.62528425 0.5034664 -0.012558056
000180 eb 6a ad be 2e b2 7e 3f f2 19 f8 3e b9 35 99 bf
       -0.33870634 0.9949063 0.48457295 -1.196952
000190 0d 53 1b 3d c4 2d 24 3c 0b 0b 2e be b8 0f 50 be
       0.037921 0.010020677 -0.169964 -0.20318496
0001a0 52 45 08 3e f0 07 1c bf a2 05 d0 be 5e 96 14 bd
       0.13307694 -0.6094961 -0.40629297 -0.036276214
0001b0 27 fc 15 bf ae fd e8 3f 80 f0 3c 3d 8e fa 25 3c
       -0.5858788 1.8202417 0.046127796 0.010130538
0001c0 52 c4 1d be ac c0 8c 3e 05 75 38 3f 8a f4 a2 3d
       -0.15406922 0.27490747 0.7205356 0.079567984
0001d0 09 77 ea be d6 cf 09 3e 22 1b 73 bf a7 06 25 bf
       -0.45793942 0.1345819 -0.94963276 -0.64463276
0001e0 84 2e be 3c 12 f4 0d 3d d2 09 af 3e 52 db f9 bd
       0.02321554 0.03465659 0.3418718 -0.12200035
0001f0 1d f2 92 bb 10 ca 5a be cc 34 aa 3e 94 d5 37 bf
       -0.0044844286 -0.21366143 0.33243406 -0.7181027
000200 7f 75 b4 be 12 18 96 3f a0 77 73 3e 75 0f 55 3d
       -0.35245892 1.1726096 0.23776102 0.052016694
000210 1c d8 74 3e 07 be 76 ba 10 11 8d 3e fc d3 1b be
       0.23910564 -0.00094124716 0.2755208 -0.15217584
000220 40 f7 4b be 08 5f 18 bf d2 f9 67 bf dc 0e 4e bf
       -0.19918537 -0.59520006 -0.9061557 -0.80491424
000230 eb 3a 94 3d 56 35 19 bc 00 77 27 bf 47 3a 26 3f
       0.072378 -0.009351095 -0.65415955 0.64932674
000240 18 55 e1 3e 19 97 81 3c 22 03 b1 be 50 18 73 3f
       0.44010234 0.01581912 -0.34572703 0.9495897
000250 ce a4 75 be bd c6 6f bf ba 88 01 3d e6 20 cf bd
       -0.23988649 -0.93662626 0.031624533 -0.10113697
000260 67 de 7f bd 88 e2 e7 3e ea a2 18 3f 7f 1d bd 3e
       -0.06246796 0.45290017 0.5962359 0.36936566
000270 aa 5e c3 be 8e e3 e6 3d d5 10 3c bf 1a 39 33 bf
       -0.3815816 0.11273871 -0.73463184 -0.70009005
000280 d8 14 12 3d 01 54 c0 bc b4 eb b8 3e c9 1f 97 3d
       0.03566441 -0.023477556 0.36117327 0.073791094
000290 83 19 04 3e 77 59 2e bd 13 e9 4c 3e 01 e5 28 bf
       0.12900357 -0.04256579 0.20010786 -0.6597443
0002a0 b8 ba 9f be f8 df 8d 3f 84 d5 b0 bb b4 c7 70 bc
       -0.31197143 1.1083975 -0.005396547 -0.01469605
0002b0 4c 21 0d bf 3c 1c 06 3e d1 b7 1c 3f 8d be 9a bd
       -0.5512893 0.13096708 0.6121798 -0.07555876
0002c0 b0 f8 f1 be 86 1e 07 3f 99 2f d2 3e 9c 01 96 bf
       -0.47260046 0.5278095 0.4105194 -1.1719241
0002d0 7c 4c 27 3e 1d 32 0b 3d d2 ef 92 3e 10 f3 1b 3d
       0.1633777 0.03398334 0.28698593 0.0380736
0002e0 34 2b 9a 3e e0 8d 7a bd c0 af 82 bd 8d 2e 1d bf
       0.30111086 -0.06117046 -0.06381178 -0.61399156
0002f0 67 6d 7b bf 41 ff 4e bf 55 e2 1a bd 90 34 c6 bb
       -0.9821381 -0.80858237 -0.037813503 -0.0060487464
000300 d9 1a cd be 1b 5d 7d 3e e9 cc 17 bf 2a 02 28 3f
       -0.40059546 0.24742548 -0.59297043 0.656283
000310 9f 8d 07 bf ac b8 54 3e 23 f1 36 bf 04 4f d9 be
       -0.5295047 0.20773572 -0.71461695 -0.42443097
000320 0d 05 72 3c 4c 2a df 3b 55 c6 e9 3e 68 a7 7f 3e
       0.014771712 0.006810462 0.45659128 0.24966204
000330 10 3c 91 bd 31 4d 7c be d7 28 ad 3e b7 b0 14 bf
       -0.07091534 -0.24638821 0.3382022 -0.58082145
000340 fb bc 53 be b6 4c a4 3f a4 d5 ad 3d 90 d1 41 bd
       -0.20677559 1.283591 0.08488014 -0.047318995
000350 15 c7 b9 3e a4 65 47 3e 9e ba b7 3e 88 a4 6e 3e
       0.362847 0.19472367 0.35884565 0.23304951
000360 c6 ec 1d 3e 25 de 19 bf ce 6a 48 bf 89 4c 49 bf
       0.15422353 -0.6010459 -0.7828797 -0.7863241
000370 1b db 5b 3d 4b 3b cf bc 82 87 2a 3f 40 86 04 3f
       0.053675752 -0.025296828 0.6661302 0.5176735
000380 f3 5f e5 3e 45 53 99 3e d2 af 1c 3f 10 3b 11 bf
       0.44799766 0.29946342 0.6120578 -0.5673075
000390 29 b1 a1 be 3e e9 9b 3f ca 71 04 bd 53 eb 99 3c
       -0.31580475 1.2180555 -0.03233508 0.01878897
0003a0 2d 07 48 bf ba bb 08 3f 92 21 cb 3e c0 02 c4 3d
       -0.7813595 0.5341145 0.3967405 0.09570837
0003b0 fc 37 d4 be 6b 30 56 3f cf 3c 6f be d3 46 86 bf
       -0.41448963 0.8366763 -0.2336304 -1.0490364
0003c0 3b 4b 71 bc 63 fb 18 bd 21 d6 0a bf d2 5f 0d 3f
       -0.014727409 -0.037349116 -0.54232985 0.55224335
0003d0 5d 6a 9f 3e b5 18 da bb 2e 28 b0 be 4a 4c 71 3f
       0.31135836 -0.0066557773 -0.34405655 0.9425703
0003e0 00 2c 53 3f 85 d2 77 bf af 44 a9 3b ef 12 af 3c
       0.82489014 -0.968056 0.0051656584 0.021371333
0003f0 b8 30 28 bf c2 18 fa 3e d2 55 d1 3e f8 1d cd 3d
       -0.6569934 0.48847014 0.40885788 0.10015482

layers.0.bias f4 [32]
000000 25 90 ec be 8f eb dc bf 14 c3 be bf 33 bd 9e bf
       -0.46203724 -1.7259387 -1.4903283 -1.2401489
000010 60 9f a6 bf 78 ea 30 bf 08 fe 59 bf 3f c6 ee bf
       -1.3017387 -0.6910777 -0.85153246 -1.865425
000020 29 91 6b bf c9 0d af bf cc 20 de bf fd 0d 12 bf
       -0.9201837 -1.3676082 -1.7353759 -0.57052594
000030 37 01 0a c0 40 ab f1 bf 73 41 74 bf 23 46 75 bf
       -2.1563241 -1.8880386 -0.9541237 -0.95810145
000040 a6 85 16 c0 ec 2f a1 bf 51 e8 ea bf ce 46 48 bf
       -2.3519073 -1.259275 -1.8352147 -0.7823304
000050 c0 fb e0 bf 36 3c dd bf 5c 79 1d c0 1e 7e 43 bf
       -1.7576828 -1.7284 -2.4605322 -0.76364315
000060 7b f3 bf bf 6d d9 5b bf c8 6c f0 bf 9f ff dc bf
       -1.4996179 -0.8587864 -1.8783197 -1.7265509
000070 18 da a7 bf 5d 95 02 bf eb 27 da bf e3 be ad be
       -1.3113432 -0.5100916 -1.7043432 -0.33934698

layers.3.weight f4 [64, 32]
000000 1d 5e 85 3d 2f c4 c8 c0 75 70 b7 c0 a4 77 dc bf
       0.06512091 -6.273948 -5.7324777 -1.7224011
000010 a4 81 7a c0 03 cc 3a 3d 3a 64 36 3e f2 6f 42 c0
       -3.9141626 0.045604717 0.17811671 -3.0380826
000020 92 2a 03 3c c5 ca 83 3e 19 b1 d8 c0 40 1f 31 3e
       0.008005755 0.25740638 -6.7716184 0.17297077
000030 24 ca 20 3f de 92 5d c0 fa 03 ae 3e 87 d7 17 3e
       0.6280844 -3.462089 0.3398741 0.14828311
000040 4e bc 3a be 31 6e d4 3c 5d 9e 89 c0 42 2b 0a be
       -0.18235895 0.02593145 -4.3005815 -0.13493064
000050 8c fa fa bd 35 86 10 c0 9a c9 55 bf 00 31 8f 3e
       -0.12254819 -2.2581913 -0.83510745 0.27967072
000060 7f 7b 1a 3e 4d 90 97 3e 56 56 73 c0 73 63 74 3e
       0.15086173 0.2960228 -3.8021445 0.23866062
000070 af ba c7 be b0 6c 00 bd b6 38 d0 c0 00 89 a8 3d
       -0.39009616 -0.031353652 -6.5069227 0.08229256
000080 86 d3 74 3d 8e e7 53 3e 1f d1 a7 bf d3 bf de 3d
       0.059772037 0.206938 -1.3110694 0.10876431
000090 c2 8e fd 3e 17 35 61 bf 80 29 ed 3c 4b ab ae bf
       0.49522978 -0.87971634 0.028950453 -1.3646024
0000a0 89 04 64 bf ae a2 e5 3d 3f b4 98 3e 7c 78 3d bf
       -0.8906942 0.11212669 0.29825017 -0.7401197
0000b0 18 4c ed bf 14 e2 ac bf 9d 08 bf bd 19 97 b2 bf
       -1.8538847 -1.3506494 -0.09327815 -1.3952361
0000c0 be b0 0e c0 84 ca 28 bf 8b 87 4a bf 66 f2 c8 3e
       -2.2295375 -0.65934014 -0.7911307 0.39247435
0000d0 42 37 d1 be f5 ee 16 bf 42 9c 9a 3f 1c 70 32 be
       -0.4086247 -0.5895837 1.2078936 -0.17425579
0000e0 c6 d5 df be be 60 9a be 8d 56 bb 3d 4a 5f d5 3e
       -0.43717784 -0.30151933 0.091473676 0.41674262
0000f0 47 2c e4 bf da 18 3d be 34 d3 8f 3e 60 f7 08 3d
       -1.7826012 -0.18466511 0.28090823 0.03343904
000100 0d a9 bd bd 36 ce 59 3f 3a 61 a1 3e 5c e2 47 3d
       -0.092607595 0.8508028 0.3151949 0.048799857
000110 41 b1 a8 bd 26 47 d7 be a9 01 0c bf 2e 1b 65 c0
       -0.082369335 -0.4204647 -0.54690033 -3.579784
000120 52 5b 61 bf 67 d6 7b 3f 5a fb 04 3f df 7c a1 be
       -0.8802997 0.98374027 0.5194603 -0.31540582
000130 09 e0 d3 bf 0a ac d1 bf 1e e1 dd bf dd 19 c2 be
       -1.6552745 -1.6380627 -1.7334325 -0.37910357
000140 75 42 65 c0 cd 92 b6 be bc 1a 9c bf 58 b1 81 bf
       -3.5821812 -0.35658875 -1.2195659 -1.0132246
000150 1d 27 da bf fb 77 ee 3e 55 37 68 c0 10 03 f6 bd
       -1.7043186 0.46575913 -3.6283772 -0.12012303
000160 cf 0c 5f 3f 4e 73 08 bf 45 48 1c c0 7b ab 85 3f
       0.8712892 -0.5330094 -2.441911 1.0442957
000170 11 c4 ea bd 48 73 ef bd 19 af e5 3e 10 bd 78 bc
       -0.11463178 -0.1169191 0.4486015 -0.015181795
000180 2c b2 97 bf 7d 6a 9f 3d e9 0c 9a bb 2b 2d 02 bf
       -1.1851249 0.07783983 -0.004701246 -0.5085017
000190 db af 27 3f 61 cc b1 be db d4 1e bd 45 7d ba bd
       0.6550271 -0.3472624 -0.038777214 -0.091059245
0001a0 7d 04 38 bf 2e 3e 8a 3d 31 c2 81 bd 7c 78 fc bd
       -0.7188185 0.06750141 -0.06335867 -0.12327668
0001b0 60 38 0f 3f 63 50 21 3e fc e8 0d 3f e8 3f 2a bf
       0.55945396 0.15753321 0.5543363 -0.66503763
0001c0 a2 48 29 bf 48 44 a4 be d2 e2 b7 3d da df 62 bf
       -0.66126454 -0.32083344 0.089788094 -0.8862282
0001d0 c0 65 1c bf 70 db aa 3e 83 76 bd 3c 66 23 b5 3e
       -0.6109276 0.33370543 0.0231278 0.3537857
0001e0 3b 38 9c bf 10 a6 4f bf 6e a1 8f 3b 26 31 85 be
       -1.220466 -0.81112766 0.0043832576 -0.2601406
0001f0 b2 f9 2d bf c7 06 29 bf d6 30 74 bd 58 c9 41 bf
       -0.6795913 -0.66025966 -0.059616886 -0.7569785
000200 48 0b fd be 8e da 88 bf 79 a6 23 bf 17 a7 61 bf
       -0.4942267 -1.0691698 -0.6392589 -0.88145584
000210 b2 c2 10 c0 db 55 47 c0 f6 87 19 bf e7 83 31 bf
       -2.2618833 -3.1146152 -0.59973085 -0.6934189
000220 c0 71 25 bf ec 46 32 bf b8 bb 97 bf 89 8c 91 c0
       -0.64626694 -0.6963947 -1.1854162 -4.548405
000230 8b 36 fa bf fb 94 b4 be c9 65 28 bf 6a fb 8f bf
       -1.9547895 -0.35269913 -0.6578031 -1.12486
000240 66 ed be bf b8 b0 11 c0 e9 89 2b bf f8 66 1a bf
       -1.4916198 -2.276411 -0.6700731 -0.6031337
000250 cc cd 15 c0 c9 4d 2a bf ea 63 9b bf 12 66 81 bf
       -2.3406858 -0.6652494 -1.2139866 -1.0109274
000260 7c db 51 bf fa 85 d5 be 4f b0 9a bf 23 1b 2b bf
       -0.8197553 -0.41703779 -1.2085055 -0.6683828
000270 ce 0a 3a 3e e6 78 3f bf 40 20 9d bf 90 5e 9f be
       0.18168184 -0.7479385 -1.2275467 -0.31126833
000280 04 22 4d 3e 59 74 8b 3e 93 6b b8 3e ca 3b 8b 3e
       0.20032507 0.27237204 0.36019573 0.27194053
000290 93 14 92 3e 07 eb 88 3e 65 00 9b be 54 44 c1 3e
       0.28531322 0.26741812 -0.30273739 0.37747443
0002a0 ad 90 19 bf 69 34 05 bf 88 4c a0 3d 79 77 7f bd
       -0.5998638 -0.52033097 0.07827097 -0.062369797
0002b0 ce 5c 7b bf 07 07 8a 3e e3 65 0e bf 01 0c 5c 3e
       -0.98188484 0.26958486 -0.55624217 0.21488954
0002c0 a1 53 ea bf c6 aa 71 bf 64 c2 94 3e 64 7f 29 3f
       -1.8306772 -0.94401205 0.29054558 0.6621001
0002d0 ae d6 20 bf 90 f6 9e 3e a2 4e 31 c0 11 a1 ea be
       -0.62827575 0.31047487 -2.7704244 -0.4582601
0002e0 e9 83 cd 3f ca d9 5f be 32 3f 9b 3d 8c f2 be 3f
       1.6055881 -0.21860424 0.07580413 1.491777
0002f0 bf 3b f9 3d 88 67 5d bd 23 b9 29 3e 8c 70 34 3e
       0.12169599 -0.054053813 0.1657453 0.17621058
000300 86 1b b2 be 9e a9 c7 bc ab 29 d2 3d a6 79 e2 be
       -0.34786624 -0.024372872 0.10261854 -0.44233435
000310 8b 1c 6f bf 4c 3e 8d bf 96 da 5b be 78 78 51 3e
       -0.9340293 -1.1034636 -0.21470103 0.20456111
000320 ad c7 d9 bf ef 88 24 3f bb 86 48 3f 1b a7 4a c0
       -1.7014061 0.64271444 0.7833058 -3.1664493
000330 17 a0 35 3e 17 c2 c7 3e ff 1e c9 3d ad 1b 16 3f
       0.1773685 0.39015266 0.09820365 0.5863598
000340 92 74 7b 3f ab 40 9e bf c5 85 52 bd d5 68 a9 be
       0.9822475 -1.2363485 -0.051397104 -0.33087793
000350 30 b0 67 c0 9e 6b c4 be a8 5f b3 bf 70 ad 6f 3e
       -3.6201286 -0.38363355 -1.4013567 0.23406005
000360 24 14 29 bf f8 0a 28 bf 9e a4 ef 3d 6e d9 ac 3c
       -0.6604636 -0.65641737 0.1170132 0.021099772
000370 7b db 05 3e 5f 95 87 bf e9 e4 96 3e 9f 80 bb bf
       0.13072006 -1.059246 0.2947152 -1.4648627
000380 00 3f a4 bd 84 9d af bd aa 61 9a 3e fc fb 39 be
       -0.08019829 -0.085749656 0.30152637 -0.1816253
000390 83 ff b0 bd e3 d7 8f 3e d3 bd 7e 3d f4 a0 de 3e
       -0.08642485 0.28094396 0.06219275 0.43482172
0003a0 04 47 13 c0 36 ce d1 be f6 3f e2 bd fc b8 c1 3e
       -2.3012094 -0.4097764 -0.11047356 0.37836444
0003b0 77 21 02 3f cb 3c b7 bd ed 77 03 3d 5b 1c d5 be
       0.50832313 -0.08947142 0.032096792 -0.41623196
0003c0 41 da 3d 3f 84 0a f2 3d de bf dd 3b 30 37 e1 be
       0.74161154 0.11818412 0.006767257 -0.43987417
0003d0 c2 e4 a3 3d 84 b3 05 3e 7a 48 3b 3f f6 cd fe 3c
       0.080026165 0.13056761 0.73157465 0.03110407
0003e0 f6 0f 12 bf 2f ab d7 3c 40 02 cc 3e 6a b4 af bf
       -0.57055604 0.026326744 0.39845467 -1.3726933
0003f0 75 71 b8 bf a6 dd fd be 55 65 a9 bd 06 7c d5 be
       -1.4409624 -0.49583167 -0.08271281 -0.41696185

layers.3.bias f4 [64]
000000 d7 e1 62 bd a4 a0 4b be c9 fb b0 bc e6 ce 8b be
       -0.05539116 -0.19885498 -0.021604436 -0.27306288
000010 12 cf dd 3d 22 02 9d bf 1d 7e 85 3d b6 33 61 be
       0.10830511 -1.2266276 0.06518195 -0.21992382
000020 ac ec e0 be 07 9e f7 be 19 41 fd bd d0 47 58 be
       -0.43930566 -0.48362753 -0.12365932 -0.21121144
000030 d3 70 1b be a5 b6 11 be d9 3a 0b bf 21 b9 10 be
       -0.15179758 -0.1422983 -0.5438667 -0.14133121
000040 10 45 3b be 11 d4 8d bd e7 4a a9 be aa df 8d be
       -0.18288064 -0.06925214 -0.33064958 -0.27709705
000050 2c 78 94 bd 19 95 1b bc 1a 95 c7 3c a2 9c 0d 3d
       -0.072494835 -0.009495997 0.02436309 0.034573205
000060 94 9f c6 3c d0 1d d2 be 5e d2 ab be 89 42 e8 3c
       0.024246015 -0.4103837 -0.33558935 0.028352039
000070 84 ad 03 bc ca 62 1f bf 2d 5d 05 c0 81 17 76 bd
       -0.008036975 -0.62260115 -2.083812 -0.06008101
000080 5e ab 9a bc 1c 22 13 3d 0a 97 36 bf 4f 05 35 be
       -0.018880542 0.0359212 -0.7132422 -0.17677806
000090 1b 9a c5 3d 8a b3 bf bc c9 32 49 bd 49 df e1 be
       0.09648534 -0.02340104 -0.049120698 -0.44115666
0000a0 89 58 1c c0 19 3d 9c be 82 0d 7b be 16 51 63 bc
       -2.4429038 -0.30515364 -0.24516872 -0.013874313
0000b0 fd fb 5e be 51 37 f0 3c 74 97 87 bf e6 19 41 be
       -0.21775813 0.029323252 -1.0593095 -0.18857536
0000c0 d2 62 40 bd 87 fd c2 bc 1a 65 95 be 92 4f 46 bb
       -0.046969242 -0.023802532 -0.29178697 -0.003025983
0000d0 86 1c 5d be c8 eb 1f 3d 50 45 87 be 4c 04 2c 3c
       -0.21592912 0.039043218 -0.2642007 0.010499071
0000e0 1b 1f 96 bd ef 9e b1 bd 69 03 2f be 38 55 27 bc
       -0.07330152 -0.08672892 -0.17091145 -0.010213189
0000f0 15 00 80 be 00 68 03 bc d7 8d 08 c0 2c 52 5f 3d
       -0.25000063 -0.008020401 -2.1336572 0.054521725

layers.6.weight f4 [64, 64]
000000 db a6 33 bf cc f2 92 3e 32 35 7c be bb 95 2c 3f
       -0.70176476 0.28700864 -0.24629667 0.6741597
000010 1e d5 be bd b9 bf 5c bf c6 aa f1 be ec f9 0d bf
       -0.09317993 -0.86230046 -0.47200602 -0.55459476
000020 50 8f 8f be cf 17 ff be dd 70 72 bf 0f 08 1f 3f
       -0.28039026 -0.49822852 -0.94703466 0.6212167
000030 bf da 2f bf b2 30 1b bf 56 e8 39 be fc 0d 7f bf
       -0.68693155 -0.6062118 -0.18155035 -0.99630713
000040 0b fc a8 3e e2 81 01 bf bf 2f 5e bf f8 9e b2 3e
       0.33004794 -0.5058881 -0.86791605 0.3488691
000050 eb 3b 34 bf ed c9 11 bf dc e8 96 bd 2b 69 61 be
       -0.7040393 -0.5694874 -0.07368633 -0.22012775
000060 7f 08 41 bf 5d 93 f9 3d b2 b5 83 be 97 77 e1 bd
       -0.7540359 0.121863104 -0.2572456 -0.11009138
000070 e1 49 80 be 85 d3 15 3e 41 e7 87 bf 79 44 69 bf
       -0.25056365 0.1463147 -1.0617448 -0.91120106
000080 35 2a 79 3e 4b 78 d3 bd 53 e8 a0 3e fd af 82 bf
       0.24332507 -0.103256784 0.3142725 -1.0209957
000090 73 d4 d4 bc 91 97 88 bb 71 dd 7b 3e ad 48 6d 3e
       -0.02598021 -0.0041684587 0.24596192 0.23172255
0000a0 4b b2 e6 bf 79 a9 a8 be 18 c0 93 be f7 28 ee be
       -1.8023161 -0.32941797 -0.28857493 -0.4651563
0000b0 54 94 aa be c5 d5 44 bf 93 cf 08 be d8 04 31 bf
       -0.3331629 -0.76888686 -0.13360433 -0.69148016
0000c0 af da cc be 89 dd 3b bf 43 52 90 bf 76 b4 9a bf
       -0.40010592 -0.7338491 -1.1275104 -1.2086322
0000d0 bd 68 48 be 23 8b 21 bf f9 0a 10 3f 0e 21 ca 3e
       -0.19571204 -0.6310293 0.5626674 0.39478344
0000e0 c0 55 4d bf bd 25 f3 be 91 e9 73 bf 51 09 0a 3e
       -0.8020897 -0.4748973 -0.9527827 0.13480116
0000f0 99 47 43 bf 01 77 94 be 34 9a 04 bf 6a b0 a0 be
       -0.76281124 -0.28997043 -0.51797795 -0.31384593
000100 e4 1e 7b bd 19 07 6f bf 1f 9f 94 bf f2 94 68 bf
       -0.061308756 -0.93370205 -1.161106 -0.9085227
000110 73 cb fb be cf 2f c5 bf e3 ac ca bf da 2a 0f bf
       -0.49178657 -1.5405215 -1.5834011 -0.5592476
000120 dc cd 37 bf 3c 99 9a be 6f 8b ef bd 4e 01 46 bf
       -0.7179849 -0.30195034 -0.11696517 -0.7734574
000130 f6 e2 30 bd 2e 6f a5 be d5 e4 6d bf 4a dd be be
       -0.043185197 -0.32311386 -0.92927295 -0.37278205
000140 f5 41 34 bf 5f 15 10 bf fa 36 06 bf 32 47 9d be
       -0.7041314 -0.5628261 -0.5242764 -0.3071838
000150 c9 21 d3 be 6e 15 e1 bd 09 a6 6c bf 50 8c 98 bf
       -0.41236714 -0.109904155 -0.9244085 -1.191782
000160 20 5c 11 bf 17 dd 46 bf cc a3 55 bf 47 79 f4 be
       -0.56781197 -0.77681106 -0.8345306 -0.47748777
000170 4e 17 87 bf 46 de 9d bf 3b 43 b6 bc 9e b8 c9 bd
       -1.0553987 -1.2333457 -0.022248855 -0.09849666
000180 2f 8b c3 bf 48 31 35 bf 66 a3 8a bf 20 aa af bd
       -1.527685 -0.7077832 -1.0831115 -0.08577371
000190 5a 1a 62 bf 8a 84 a5 be 52 fe c5 bf 82 07 fe be
       -0.8832146 -0.32327682 -1.5468237 -0.49615103
0001a0 e8 6f 13 bc 85 b4 bb be 6e a8 f1 bd c0 63 e8 bf
       -0.0089988485 -0.36661163 -0.117997035 -1.8155441
0001b0 5a e6 7d be 90 37 5a bf 0a cb 16 bf 7b 31 82 be
       -0.24794903 -0.8524103 -0.58903563 -0.25428376
0001c0 fd d5 15 bf 91 0e eb be e0 db fc be 1f ca 24 bf
       -0.58529645 -0.4590955 -0.493865 -0.6437091
0001d0 4e 85 4e bf 2f ec 87 bf de e6 6a bf 4e cb 47 bf
       -0.80672157 -1.0618953 -0.91758525 -0.78044593
0001e0 88 57 7e bd a6 4f 1b bd 64 8c cd be fc 52 ad bf
       -0.062095195 -0.037917756 -0.40146172 -1.354095
0001f0 78 24 02 bf 40 04 34 bf 30 38 cf be 2e 0d 02 bf
       -0.50836897 -0.70318985 -0.40472555 -0.5080136
000200 5a 5a ff be 5b 1d a1 bd 8b 16 c9 bd 75 dd c2 3d
       -0.4987362 -0.07866927 -0.09818753 0.09514896
000210 21 a1 35 be f2 dc 34 bf b1 83 8d 3e 77 7d b2 3c
       -0.17737247 -0.70649636 0.27639535 0.021788342
000220 62 6b 6c bf 89 6c 5b 3e 54 fe 55 3e 38 87 13 be
       -0.92351353 0.21428122 0.208978 -0.1440705
000230 8e 08 31 3e 75 78 69 bf 2c a2 54 be 87 d4 f4 be
       0.1728842 -0.9119943 -0.20764989 -0.47818395
000240 1f 8f d1 3d 07 9a 02 bf 75 58 70 3e 55 67 0e 3e
       0.10232376 -0.5101628 0.23471244 0.13906606
000250 d5 e7 b1 bd 6a 3e 73 be 16 1e 07 bf 1f f7 18 bf
       -0.086867966 -0.23754278 -0.5278028 -0.59752077
000260 7b 07 41 bf 9c 7b c1 3d d3 ed c4 3e cc 2f 1f bf
       -0.7540204 0.09447405 0.38462695 -0.6218231
000270 6c c3 b4 3d d5 d2 0e be 82 7d 58 bf 27 c7 d4 be
       0.08826336 -0.13947614 -0.8456651 -0.4155819
000280 ce 97 f2 3e 7e c4 ba 3d 9b 8a e9 bd 39 e5 e6 be
       0.47381443 0.09119509 -0.1140339 -0.45096758
000290 67 f9 4c be 45 18 a8 be b8 10 c6 3d 2e f4 b9 3f
       -0.20017014 -0.32831016 0.096711576 1.4527643
0002a0 3d c8 c0 3e 1b d3 42 bf c7 e7 b6 3d 80 69 8d 3e
       0.3765277 -0.7610337 0.08930927 0.27619553
0002b0 89 96 f4 be 0d d1 37 bf 2c f8 d5 3e 08 a0 0e bf
       -0.477711 -0.7180336 0.41790903 -0.5571294
0002c0 76 82 50 bf 95 6e de be 26 d7 d3 bf ef 9c 15 bf
       -0.8144907 -0.43443742 -1.6550033 -0.58442587
0002d0 cb 6e 37 be 7f 52 05 3f 6d c8 41 3e b5 a6 29 3f
       -0.17913358 0.52079004 0.18924113 0.6627
0002e0 d0 be 15 bf c6 ca 2d 3e 0e 10 b1 be 4c 1f 5b 37
       -0.5849428 0.16971883 -0.3458256 1.3060704e-05
0002f0 3f 11 3b 3e b6 65 66 be a3 62 57 be 4a 1c 02 be
       0.18268298 -0.22499737 -0.2103372 -0.12706104
000300 68 25 cc be da f1 df 3c 1a 58 2c bd f8 ab 85 3e
       -0.3987229 0.027337003 -0.042076208 0.26107764
000310 9d 57 fe bd 27 f9 6e bf b5 43 b6 3e bc e1 b3 3e
       -0.12419055 -0.93348926 0.3559853 0.3513316
000320 e8 90 a8 be b8 64 d0 3d b7 6e 04 bf 39 74 d1 3e
       -0.32923055 0.101754606 -0.5173144 0.40908983
000330 05 24 8f 3b 01 34 a6 be 8c b6 99 3d 76 21 64 bf
       0.0043683075 -0.3246155 0.07505521 -0.8911356
000340 9e 65 c7 be 44 fe 67 be e9 9d 84 be ed 7f 23 be
       -0.38944715 -0.22655588 -0.25901726 -0.15966769
000350 66 e9 3b bf bb 0b 0f 3e 19 04 76 bf 72 45 68 be
       -0.7340301 0.13969319 -0.961 -0.22682741
000360 66 11 1b bf f5 81 18 be d2 32 86 3d e8 98 6c 3e
       -0.6057342 -0.14893325 0.06552662 0.23105204
000370 21 cb ba be b5 43 f4 3e eb 79 d8 bf 9f 29 23 bf
       -0.364831 0.47707906 -1.6912206 -0.63735384
000380 d2 88 3d 3e 3f af 9f 3d ca 81 e7 3e 00 f7 08 be
       0.18509224 0.077970974 0.4521621 -0.13375473
000390 a2 87 bd be 0a a2 44 bf d5 92 ce bd f8 12 a3 3f
       -0.37017542 -0.7680975 -0.100866 1.2740164
0003a0 2e 38 bd bf 98 66 85 bf 11 61 b8 3d 6c 8a 12 3e
       -1.478277 -1.0421934 0.09002889 0.14310616
0003b0 91 2d ae be d6 9c 92 be 45 69 55 3f 5e b6 ff be
       -0.3401914 -0.2863528 0.83363754 -0.49943823
0003c0 6b 7a 38 3f 1f 94 0e 3e 03 69 62 bd 95 50 5e 3e
       0.72061795 0.13923691 -0.05527593 0.21710427
0003d0 f6 3d 04 3e a9 3f a6 be d8 dd 25 bd 18 49 cf bd
       0.12914261 -0.32470444 -0.04049477 -0.101213634
0003e0 41 36 14 bf 44 61 98 bf 8b 8b 14 3f 84 31 0d 3e
       -0.57895285 -1.1904683 0.58025426 0.1378842
0003f0 73 55 f4 bd ef 16 39 be 2b d7 8d bf 6c 0a 8b be
       -0.11930361 -0.18075155 -1.1081289 -0.2715639

layers.6.bias f4 [64]
000000 3d 47 a4 bb 58 0b b2 bc 8e 5d fa bf ff 7d c6 bf
       -0.005013375 -0.021733925 -1.9559801 -1.5507201
000010 16 a1 cc 3d 69 52 51 3e 85 75 3c be 84 5f 0b be
       0.09991662 0.20441593 -0.18404205 -0.13610655
000020 ee 18 ed be 8d 70 9a bd b9 56 e7 be 69 f5 de 3d
       -0.46308082 -0.075409986 -0.45183352 0.10886652
000030 f2 81 f2 bd fe 8a 91 bd a9 a2 76 3d 5f 8f e7 bd
       -0.11841191 -0.07106589 0.06021372 -0.11306643
000040 15 87 8d be 60 b3 df be 26 03 85 bd ff fd 53 be
       -0.27642122 -0.4369154 -0.06494741 -0.2070236
000050 4c 86 f7 bd 28 a4 27 be 94 dd 88 bc fb e4 df 3d
       -0.12086162 -0.16371214 -0.01670722 0.109323464
000060 d5 72 67 bf 97 9e 55 be fd 86 69 be a1 f8 96 be
       -0.90409595 -0.20861278 -0.228054 -0.29486564
000070 62 dd 37 be 1c 3a f7 3c 6c d1 d1 bd a0 d3 3a be
       -0.17955545 0.030179076 -0.10245022 -0.18244791
000080 6e 43 9b be 7a 5c 9b bd 49 2d f6 bd af a0 84 be
       -0.30324882 -0.07585998 -0.12020356 -0.25903842
000090 15 7e b0 3d 3d f4 85 bd 59 25 0d 3e 7f 88 1d be
       0.08617798 -0.065407254 0.13783778 -0.153841
0000a0 e0 25 3d be 5c b0 36 be 91 82 2b bd 10 e7 36 bf
       -0.1847148 -0.17840713 -0.041872565 -0.71446323
0000b0 3b 79 42 be be d6 0d 3e 07 1a 0b be 15 66 1a bd
       -0.18991558 0.13851449 -0.13584147 -0.03769501
0000c0 5e 64 26 be 17 a5 48 3e 76 30 18 be 12 32 15 be
       -0.16249225 0.19594227 -0.14862236 -0.14569882
0000d0 aa 79 02 bd d8 13 f7 3d 00 24 80 be 2a c5 02 be
       -0.03185431 0.12064332 -0.25027466 -0.12770525
0000e0 dc 67 17 3e 03 db bd be 0e 4d 0c bd bd 35 e2 bd
       0.14785713 -0.37081155 -0.034253173 -0.11045406
0000f0 10 d4 1f be dc 6b f8 3d 8a cd 48 be f7 b0 94 be
       -0.15608239 0.121299475 -0.19609657 -0.29041263

layers.9.weight f4 [32, 64]
000000 2c f9 a4 be 71 6d 9c 3d 22 e4 08 bd d9 8e cd bc
       -0.32221353 0.07638062 -0.03342069 -0.02509253
000010 e8 6b f1 bd 34 b4 08 bf 87 f5 8b be 57 ee d7 be
       -0.117881596 -0.5339997 -0.2733576 -0.42174026
000020 15 13 88 3a c3 bf a6 be d3 16 f4 be 07 35 56 be
       0.0010381663 -0.32568178 -0.47673663 -0.20918666
000030 c8 cb fa be 4b d3 7f bd c3 24 79 be 11 32 38 bf
       -0.48983598 -0.062457364 -0.2433043 -0.71951395
000040 09 22 9c be b1 42 5e be 80 49 94 be a3 dc 3e bd
       -0.30494717 -0.21705128 -0.28962326 -0.046597134
000050 be 5a 87 be e9 c0 8d bd ca 0a 0d be ea 67 b4 bd
       -0.26436418 -0.0692156 -0.13773647 -0.088088825
000060 d3 ba 14 be 2a f4 2d bf 22 6c df be 0e 96 22 bd
       -0.14524393 -0.6795069 -0.43637186 -0.039693885
000070 ab e0 e0 be af 69 3e bf f0 34 45 3e 76 3e d8 be
       -0.43921408 -0.7438001 0.19258475 -0.42235154
000080 14 86 6e be 3f 45 5e 3d 63 3b 81 be 69 22 16 bf
       -0.23293334 0.054265257 -0.2524062 -0.58646256
000090 7b 79 5f bd dd f6 86 be 0a 43 8f be 2f 12 8e be
       -0.054559212 -0.26360217 -0.27980834 -0.27748248
0000a0 91 e9 00 bf c2 62 00 bf 3a 61 f8 be d6 32 ba bd
       -0.50356394 -0.5015069 -0.48511678 -0.090917274
0000b0 07 7c c9 be 1b 61 ed bc 8b 78 0a 3e fd 6d 50 be
       -0.39352438 -0.028976968 0.13522546 -0.20354457
0000c0 64 76 e8 bd db 22 50 be a3 01 0e be f9 4c 27 bf
       -0.11350706 -0.20325796 -0.13867812 -0.65351826
0000d0 01 04 69 be 2e 4d 5d 3e 0b 69 15 bf f2 9f d9 be
       -0.22755434 0.21611473 -0.5836341 -0.4250484
0000e0 c0 88 9a be 9f 3b 08 bf 81 29 22 bf cc 0a 12 bf
       -0.30182457 -0.53215975 -0.6334458 -0.57047725
0000f0 0d 42 95 3d ab 9a 85 3d ae 85 e9 be 84 e5 cf bc
       0.07287989 0.06523641 -0.45609802 -0.025377996
000100 50 d3 83 bd 77 f5 dc bd eb e7 75 3d de ee 0e be
       -0.06436789 -0.10789006 0.060035627 -0.13958308
000110 60 10 06 bf 0f 15 53 bf 6b 55 43 bf c7 0b e6 bd
       -0.52368736 -0.8245401 -0.7630221 -0.11232715
000120 a5 8e 86 bd 97 fe 83 be 70 dd 76 be 59 1c 05 3e
       -0.06570176 -0.25780174 -0.24107909 0.12999095
000130 36 85 a2 be 8b a6 07 bf bb 1b b5 3c dc ab 0a be
       -0.31742257 -0.529885 0.02210795 -0.13542122
000140 d6 4c 67 be 2c d4 09 bf df 40 90 be 3b d5 89 be
       -0.22587904 -0.53839374 -0.28174493 -0.26920494
000150 91 79 1e bf f1 c5 74 be 75 b5 9c be e9 31 4b be
       -0.61904246 -0.23903634 -0.3060719 -0.19843258
000160 f4 22 48 bd e1 13 f0 be 9c 78 92 be 45 9e e5 be
       -0.04886146 -0.46890166 -0.28607643 -0.44847313
000170 c5 88 b5 3d da 3e 66 be 24 80 36 bf 6a 7f 0d bf
       0.08863977 -0.22484913 -0.7128928 -0.55272543
000180 90 ab 5d be 4d 17 eb be f8 91 10 3e 74 d3 00 bd
       -0.21647477 -0.45916215 0.14118183 -0.031451657
000190 8c 60 31 be 2d a3 ce bd 12 35 82 3e 76 69 c4 be
       -0.17321986 -0.10089717 0.25431114 -0.3836171
0001a0 8f cf 70 be 62 10 1e be aa d5 94 be e5 1a c5 bd
       -0.23516677 -0.15435937 -0.29069263 -0.0962427
0001b0 f4 94 19 bf 65 47 bb be 22 ce c2 bd 52 84 63 be
       -0.5999291 -0.36577907 -0.09511973 -0.22218445
0001c0 87 9f 86 be c9 eb d2 3c 20 6b ba be e4 08 aa be
       -0.26293585 0.025747197 -0.36409855 -0.33209908
0001d0 47 4a 9f bd 9a 2f fe bd 32 d0 9a be b5 6d 26 3a
       -0.07777839 -0.12411423 -0.30236965 0.0006348745
0001e0 62 f0 88 be f2 21 e9 be 90 24 7f be 0d 07 cd be
       -0.26745898 -0.4553371 -0.24916291 -0.40044442
0001f0 28 7e ee bd 46 e9 98 bd 55 df 4d be e6 f2 ba be
       -0.11645156 -0.074663684 -0.20104726 -0.36513442
000200 02 87 44 3d 11 08 f1 bb 71 36 ec 3d 10 90 ff 3d
       0.047980316 -0.007355698 0.115338214 0.124786496
000210 1a 33 12 3e f9 15 36 3e 0d 64 81 3d 31 d7 b5 bb
       0.14277306 0.1778182 0.06317911 -0.0055493345
000220 c7 c5 ba 3d c3 e5 8d 3d 41 52 5d 3d 52 90 51 3e
       0.09119754 0.06928589 0.05403352 0.2046521
000230 33 9a c6 bc 92 9a 15 bc dd cb 16 be 79 b2 89 3d
       -0.02424345 -0.009131091 -0.14726205 0.06723494
000240 4c c6 45 3b cc 29 b1 3c 50 3a c0 bb 6b e0 ab 3d
       0.0030178009 0.021626376 -0.0058663264 0.08392414
000250 2f f4 8e bb 6a 96 bc bc 49 06 2b 3c 31 24 13 ba
       -0.004362605 -0.023020942 0.01043851 -0.0005612998
000260 97 9e 1a 3e 04 38 5f 3d d8 d9 04 3d 04 28 a2 3d
       0.1509956 0.05449678 0.032434314 0.079177886
000270 ad 2c f4 3d 68 1f cb 3c 52 2a 4c 3b 26 dc cc bb
       0.11922584 0.02479525 0.0031153155 -0.0062518297
000280 de 4d 5c 3d 08 da 3c bd 37 04 d5 3d bb 7d 55 bc
       0.053785197 -0.04610637 0.104011945 -0.013030465
000290 72 49 c7 3d c3 45 e0 3a 38 e2 20 3d 64 dc 8e 3b
       0.097308055 0.0017110634 0.03927824 0.0043597687
0002a0 71 87 ef 3c 8f a9 f1 3c 5b 6f 76 3d 83 61 2e 3e
       0.029239388 0.029499797 0.06016479 0.17029385
0002b0 2c 2e 38 3d 7a 67 78 3d 06 ec d9 bc 2f 58 c9 3b
       0.044965908 0.060645558 -0.026601803 0.0061445455
0002c0 46 d7 e5 3b de a9 ab bf 80 02 1d 3d 1e aa f8 3c
       0.007014188 -1.3411214 0.038332462 0.030354556
0002d0 c0 db ab bb 81 c4 9d 3e 12 ad 64 3c 4c 1c 79 ba
       -0.005244702 0.30813983 0.013957279 -0.0009502813
0002e0 dd f2 1e 3c 40 01 96 3d c0 97 5c bc 34 7a 09 3d
       0.009701458 0.07324457 -0.013463914 0.033563808
0002f0 63 7b 3b 3d 3a 5f 1f 3e ea 1b 35 3d ed 4c 29 3d
       0.045771968 0.1556367 0.044216074 0.041333128
000300 17 c7 01 3e c3 1e 17 be 7b 6a e4 be 97 27 8b be
       0.12673603 -0.14757828 -0.44612488 -0.27178642
000310 bc cf 40 be f8 7d e8 3e 59 ab 22 bf e3 fa 3c bd
       -0.18829244 0.45408607 -0.63542706 -0.0461377
000320 7a 51 7a bf ba 82 21 bf e2 e3 81 bf 3c 84 2d 3d
       -0.97780573 -0.630901 -1.0147669 0.042362437
000330 93 e3 94 bf 27 82 5b bc e2 b7 42 be d6 60 6b 3c
       -1.163195 -0.01339773 -0.19015458 0.014366349
000340 ab f0 05 bf 2f 1f c0 be e7 70 5e bd 6f 1a 29 be
       -0.52320355 -0.3752379 -0.05430689 -0.1651399
000350 99 59 9e be b2 64 59 bf 43 bc 72 bd 77 a8 26 bd
       -0.30927733 -0.84919274 -0.05926157 -0.040688004
000360 a4 1b 42 be 6a 36 2d be 37 8c 3f bf e4 34 d7 be
       -0.18955857 -0.16915289 -0.74823326 -0.4203254
000370 d6 1a 14 bf 6d ac b5 3d 76 32 0d bf 4e 9c 21 bf
       -0.5785345 0.08870778 -0.5515512 -0.6312913
000380 dc 1e fe be 3c 0b 03 ba 84 9d 45 bf d2 b3 0a bf
       -0.4963292 -0.00049989275 -0.77193475 -0.54180634
000390 70 ce 32 3e dd da ae bc ac 05 ac be d7 9a e9 be
       0.17461562 -0.021344597 -0.33598077 -0.45625946
0003a0 f9 2e 0c bf 6b 62 16 bf 58 c7 46 bf 00 c8 7d be
       -0.54759175 -0.58743924 -0.77647924 -0.24783325
0003b0 b3 9e c9 be a7 78 2c be 3e 2c 7b bf 6f 90 d5 bd
       -0.3937889 -0.168429 -0.98114383 -0.10427939
0003c0 8e 53 42 bf 98 21 50 3f 05 5c 9a be 5c 77 16 be
       -0.75908744 0.8130126 -0.3014833 -0.1469397
0003d0 5a be b3 bb 45 e7 82 bd dd d2 ba be 70 e3 51 bf
       -0.005485338 -0.063917674 -0.36489 -0.8198767
0003e0 f6 80 f0 3e 7a f8 8b bf 79 08 2d bd a2 a6 93 3c
       0.4697339 -1.0935204 -0.04224441 0.018023793
0003f0 cc b7 33 bf 84 42 f4 bc 14 2d 0d be da 9e 61 bf
       -0.70202327 -0.029816873 -0.13786727 -0.88133013

layers.9.bias f4 [32]
000000 86 96 95 be 59 8e 9e bf 49 35 79 40 87 4d c9 3f
       -0.29216403 -1.2387191 3.8938773 1.5726784
000010 dd e3 ec 3f f3 80 03 40 5d b5 af b9 34 e7 35 bf
       1.8507038 2.0547454 -0.00033513727 -0.7105591
000020 a2 3f fc 3e 21 e3 b6 bc 8a 51 03 bf b9 12 24 bf
       0.49267298 -0.0223251 -0.51296294 -0.6409107
000030 8d a9 96 bf cd 14 1a bf 96 c5 f8 be 44 21 41 3f
       -1.1770493 -0.6018799 -0.48588246 0.75441384
000040 e6 25 63 be d1 f1 3b bf 8b 62 c0 3f c9 c7 fa be
       -0.22182426 -0.7341586 1.5030073 -0.4898055
000050 77 bd 03 be b5 46 3a 40 da 18 16 bf bb 5d 9c 3e
       -0.12865244 2.9105656 -0.5863167 0.3054026
000060 c8 b3 2d 3e 75 43 88 bf 7a 9c 6c bf 06 8a 68 bf
       0.16963112 -1.0645586 -0.92426264 -0.9083561
000070 07 62 07 40 9f ee 81 bf d8 fd 8e be 1c bd 5d bf
       2.115358 -1.0150946 -0.27928042 -0.86616683

layers.11.weight f4 [1, 32]
000000 d6 8f 33 bd 46 82 0d bc a6 b0 3e 3e 6b 53 d9 be
       -0.043838345 -0.008637017 0.18622074 -0.42446455
000010 9d 1d 4e be 12 de 02 3d 54 9f b1 bd 20 c7 84 bc
       -0.20128484 0.031950064 -0.086729676 -0.016208231
000020 4a 12 09 bf 2e bc 80 be 8a b6 52 bd 51 5d c9 ba
       -0.5354353 -0.2514357 -0.051443614 -0.0015362893
000030 04 8a 9c 3c c6 72 69 3c 95 6f 0c 3e 3e 2f d4 be
       0.01910878 0.0142485555 0.1371444 -0.41442293
000040 29 c4 61 3d 57 c4 c5 3d 73 43 2f 3d 87 d9 d2 bb
       0.055118714 0.096565895 0.042788934 -0.0064346227
000050 18 a7 01 bd a1 6d 12 3e 7a 9d 86 3d 7d 0d 0f bf
       -0.031653494 0.14299633 0.06573005 -0.55879956
000060 e4 d9 9c bd 2b 41 2b bc 7b 18 e0 3d 4a 08 d0 3c
       -0.07658747 -0.010452549 0.10942169 0.025394578
000070 23 42 b5 3d 63 4e b0 3d a4 98 80 3d 46 da b5 bc
       0.08850505 0.08608701 0.06279114 -0.022198807
