deep_learning/trained_models/mlp/mlp_model_log_loc_feat_locid_cap.pt (torch, 286490 bytes, 15 tensors)

layers.0.weight f4 [128, 135]
-0.009150491 0.03383536 0.024239985 0.002292587 0.0043812757 -0.008976048 -0.0023227301 -0.0072283205
-0.0042749746 0.0036849366 0.00044069014 -0.0018806185 0.0024747157 -0.0012011641 -0.0018099439 0.00068914454
-0.0005272465 0.0060079508 4.3396194e-05 -0.007900078 0.0010962697 -0.00026080158 -0.00044508345 -0.0070418003
-0.0071974774 -0.002659214 0.001713406 -0.0020202799 0.0026957248 -0.002811804 0.00019787975 -0.006012732
0.0005039627 0.0003185953 -0.0016249052 -0.0011671203 -0.002477344 -0.0006656581 -4.705604e-05 -0.0021237405
0.0018344835 0.0022657886 0.003785142 -0.0006803215 0.0012332717 -0.0016409698 0.002444793 -0.0030542093
-0.000944922 -0.00021965864 0.0036850343 -0.002292358 -0.0010762559 0.003553114 0.0047983513 -0.0016845922
-0.000495739 -0.003145064 -0.00084277516 0.004584893 -0.00040919578 -0.0013656606 0.0015884828 -0.0061546774
0.0005561802 -0.00036375425 0.005168419 -0.002135893 -0.0047367737 0.005944506 -0.007293489 0.00019110247
0.00017403517 -0.00086590333 0.0012784959 0.0060286466 0.0060716425 0.0025103218 0.00035072575 0.00016599838
0.0037209492 0.003650546 0.006656525 -0.00056085986 0.0029677202 0.003102753 -0.0002230296 0.001440332
0.0020275454 0.0004856116 -0.005311125 0.0027360353 -0.0007493599 0.0011432389 -0.0036818497 0.0056846594
0.0017634368 -0.0035040746 -0.0039952723 -0.0028711145 0.0022255601 0.00031663655 0.0046904404 -0.000113314265
0.003806462 -0.0030188449 0.0006387536 0.0027090174 -0.00079405133 0.004396245 0.00088269066 -5.736738e-05
0.0023635363 0.0023201804 -0.0056998827 -0.007063957 -0.003196635 -0.0017309452 0.006615882 0.0010309563
0.0014004849 -0.0043966193 0.0059111128 -0.002123497 -0.0013545202 0.00049390306 -8.748098e-05 0.01022939
-0.0019206441 0.013167863 -0.00406934 -0.017616674 0.025612352 -0.028401935 -0.0009104971 0.00203145
0.048279073 0.044073615 0.002052044 0.0020850308 -0.00096782716 -0.0051175305 -0.0062608034 -0.0006472031
0.006159806 0.0047408757 -4.5164183e-05 -0.006795515 -0.0025844998 0.006350921 0.006349576 0.0005081035
0.00088990264 -0.0007434491 -0.004177331 0.0034696562 0.0010658273 -0.00048785922 -0.0015988061 -0.0027566648
-0.006975652 -0.0010311926 -0.0048776353 -0.006687021 -0.0026715144 0.002281587 7.005581e-05 -0.0021357078
-0.005200811 -0.009090363 0.0053858315 -0.0049142167 0.0053625084 -0.004213709 0.0021953837 0.0012041669
0.0005807901 -0.0028770054 -0.0026337919 0.004293585 0.0023577823 0.002279348 -0.0011583884 9.62432e-05
0.0021724214 0.0045871334 0.0076448154 0.0021984815 -0.00069956476 0.0018515722 0.005767261 0.01037455
-0.0022265192 -0.0028957427 -0.00093573966 0.0008464579 -0.0006056921 0.006240308 -0.0054218406 -0.005760958
-0.008346116 0.0088160215 -0.0012578989 0.007918016 -0.0036870171 0.0014034089 -0.0014351404 0.0009803311
-0.00058806664 0.0043841396 8.640831e-05 -0.006400823 -0.0021985741 -0.0015423666 -0.002143531 -0.005696816
-0.002051523 -0.0017134105 -0.00307764 0.00087582343 0.004209447 -0.001652165 -0.00086765795 0.0063000084
-0.0002342746 0.0025310512 0.0003189992 0.0025892213 -0.008612426 0.0019916624 0.0024803984 -9.714892e-05
0.0007791615 -0.007689836 -0.0052896296 -0.00044777096 -0.002898586 -0.00069651264 0.005340407 0.0026634831
-0.0051129144 0.0030111873 -0.0011082556 0.0058605904 0.004224499 0.0056870724 0.00019444468 0.0022819778
0.00022786885 0.004454896 0.0021259035 -0.003442729 0.002496102 -0.0020265786 0.0020797423 -0.00021222842
00000000: f1eb 15bc f296 0a3d ef92 c63c 3a3f 163b
00000010: ce90 8f3b 4610 13bc f238 18bb 8cdb ecbb
00000020: 1615 8cbb fa7e 713b 6e0c e739 167f f6ba
00000030: d72e 223b 6170 9dba a43b edba b5a7 343a
00000040: ea36 0aba 58de c43b 4f04 3638 546f 01bc
00000050: b5b0 8f3a 32bc 88b9 175a e9b9 e7be e6bb
00000060: d1d8 ebbb 3546 2ebb 5d94 e03a ac66 04bb
00000070: c2aa 303b 3e46 38bb f17d 4f39 7406 c5bb
00000080: 5d1c 043a 2309 a739 c5fa d4ba 0ffa 98ba
00000090: ef5a 22bb 8f7f 2eba 0a5e 45b8 742e 0bbb
000000a0: 0d73 f03a a07d 143b 2510 783b 9a57 32ba
000000b0: bba5 a13a cf15 d7ba d238 203b 2129 48bb
000000c0: a4b4 77ba 2b54 66b9 9e80 713b 633b 16bb
000000d0: 2811 8dba 5cdb 683b 7d3b 9d3b 89cd dcba
000000e0: 7bf4 01ba 6b1d 4ebb afed 5cba df3c 963b
000000f0: 5489 d6b9 f7ff b2ba a334 d03a 2dad c9bb
00000100: 9fcc 113a 45b6 beb9 d75b a93b 57fa 0bbb
00000110: f036 9bbb 21ca c23b 38fe eebb ae62 4839
00000120: 367d 3639 cafd 62ba 3493 a73a f48b c53b
00000130: a1f4 c63b 3684 243b 9de1 b739 da0f 2e39
00000140: 2bdb 733b 003e 6f3b fb1e da3b ab06 13ba
00000150: 157e 423b 8f57 4b3b 0ddd 69b9 86c9 bc3a
00000160: 91e0 043b b099 fe39 f208 aebb 0e4f 333b
00000170: b170 44ba bbd8 953a 304b 71bb 6146 ba3b
00000180: 1f23 e73a 9ea4 65bb c6ea 82bb 4f29 3cbb
00000190: b4da 113b 3d02 a639 44b2 993b 22a3 edb8
000001a0: d675 793b d0d7 45bb 0772 273a c589 313b
000001b0: e227 50ba 600e 903b 5e64 673a c19d 70b8
000001c0: 8fe5 1a3b 2b0e 183b 15c6 babb c478 e7bb
000001d0: a37e 51bb e2e0 e2ba 0aca d83b 2721 873a
000001e0: 7a90 b73a 8411 90bb 02b2 c13b 5e2a 0bbb
000001f0: 288a b1ba 4679 013a fe75 b7b8 2c99 273c
00000200: 1fbe fbba 05be 573c 1958 85bb d850 90bc
00000210: ffd0 d13c 2dab e8bc 6dae 6eba 1322 053b
00000220: 47c0 453d 8986 343d 967b 063b 03a5 083b
00000230: c8b5 7dba f5b0 a7bb 6d27 cdbb 11a9 29ba
00000240: 33d8 c93b 5959 9b3b ac6e 3db8 e9ac debb
00000250: b660 29bb 631b d03b 1b10 d03b 4032 053a
00000260: 5b48 693a 06e4 42ba fee1 88bb 2c63 633b
00000270: 3bb3 8b3a 5bc7 ffb9 088f d1ba 29a9 34bb
00000280: 0394 e4bb 1529 87ba 92d4 9fbb cc1e dbbb
00000290: 9314 2fbb ae86 153b edea 9238 3bf7 0bbb
000002a0: 916b aabb bfef 14bc a17b b03b 7007 a1bb
000002b0: fbb7 af3b 2713 8abb 6de0 0f3b 23d5 9d3a
000002c0: 2a40 183a 248c 3cbb b29b 2cbb 34b1 8c3b
000002d0: 0685 1a3b 1d61 153b 11d5 97ba 2dd6 c938
000002e0: 2f5f 0e3b aa4f 963b 5c81 fa3b 6614 103b
000002f0: ff62 37ba 74b0 f23a 4bfb bc3b 04fa 293c
00000300: cbea 11bb 80c6 3dbb 6d4c 75ba d4e4 5d3a
00000310: 4fc7 1eba 7f7b cc3b b2a9 b1bb 6bc6 bcbb
00000320: 26be 08bc 1371 103c 15e0 a4ba 91ba 013c
00000330: e2a1 71bb 97f2 b73a 521b bcba 747e 803a
00000340: 7c28 1aba d4a8 8f3b 1c36 b538 ffbd d1bb
00000350: f415 10bb 3c29 caba 7c7a 0cbb 5bac babb
00000360: d872 06bb 8494 e0ba 3bb2 49bb 8497 653a
00000370: 67ef 893b 758d d8ba 8a73 63ba 4d70 ce3b
00000380: 9ca7 75b9 fedf 253b 593f a739 edaf 293b
00000390: 221b 0dbc 8d86 023b 2e8e 223b 6ebc cbb8
000003a0: a540 4c3a 05fb fbbb a154 adbb cdc2 eab9
000003b0: 34f6 3dbb 2c96 36ba 95fe ae3b d58d 2e3b
000003c0: 3c8a a7bb 5757 453b e342 91ba 320a c03b
000003d0: ab6d 8a3b 9f5a ba3b d9e3 4b39 3c8d 153b
000003e0: 14f0 6e39 60fa 913b be52 0b3b 689f 61bb
000003f0: a495 233b 59d0 04bb 494c 083b a289 5eb9

layers.0.bias f4 [128]
0.01697233 0.008125475 0.006222084 0.0036929508 0.019540416 0.01620324 0.010035055 0.009393335
0.0123674655 0.014114594 0.01692796 0.01840958 0.016972713 0.019581491 0.0051159887 0.013088606
0.032987937 0.010638724 0.012677566 0.019028487 0.01793492 0.014523077 0.018302348 0.0069926605
0.017072903 0.008557905 0.018837623 0.012601211 0.012208411 0.020619374 0.0049678157 0.0046578036
0.02314651 0.015875231 0.014931726 0.011160673 0.006570606 0.007376517 0.017580729 0.021733055
0.023267511 0.015458154 0.010517109 0.01585034 0.028332295 0.014323703 0.005898328 0.0064455396
0.008912534 0.017909719 0.006791762 0.017093822 0.0247299 0.007896666 0.016483549 0.009249863
0.013204639 0.011621311 0.0040903236 0.0106009515 0.020815607 0.018809263 0.007032518 0.016118377
0.007956075 0.010966887 0.01122995 0.010466263 0.0089539625 0.015004364 0.010540668 0.009606319
0.0028738254 0.018007781 0.01679412 0.016269349 0.02011901 0.019489286 0.01321917 0.012171321
0.020640023 0.02018771 0.030048804 0.00639241 0.017043076 0.008728173 0.007782013 0.015137122
0.005236215 0.010976474 0.0127261365 0.011816267 0.018566364 0.01881458 0.009173321 0.01691651
0.014895177 0.006969426 0.0066876966 0.010737637 0.011248933 0.009407347 0.0055672345 0.008316729
0.019221742 0.008089227 0.02418845 0.010146304 0.011169433 0.009515326 0.016440962 0.008289438
0.012386585 0.009070081 0.023485102 0.020671008 0.013176866 0.012259262 0.0103298295 0.014304902
0.0101049235 0.012170485 0.017162915 0.017486386 0.020146256 0.00687364 0.0075958837 0.018629571
00000000: 8e09 8b3c b620 053c a0e2 cb3b 6f05 723b
00000010: 3913 a03c a8bc 843c 126a 243c 81e6 193c
00000020: e9a0 4a3c e640 673c 81ac 8a3c b0cf 963c
00000030: 5c0a 8b3c 5d69 a03c 06a4 a73b 9871 563c
00000040: 5c1e 073d 0b4e 2e3c 91b5 4f3c a1e1 9b3c
00000050: 41ec 923c 33f2 6d3c ceee 953c b022 e53b
00000060: 79dc 8b3c 7536 0c3c 5c51 9a3c 4f75 4e3c
00000070: c905 483c f6e9 a83c 0fc9 a23b 7da0 983b
00000080: c09d bd3c c60c 823c 33a4 743c 41db 363c
00000090: 3d4e d73b b6b6 f13b 7605 903c 8509 b23c
000000a0: 829b be3c 3244 7d3c f44f 2c3c 92d8 813c
000000b0: 2119 e83c f7ad 6a3c c346 c13b 1b35 d33b
000000c0: e105 123c 67b7 923c 6e8d de3b 5808 8c3c
000000d0: 5c96 ca3c 0561 013c 8208 873c bd8c 173c
000000e0: 4558 583c 5067 3e3c 1f08 863b 9daf 2d3c
000000f0: 7e85 aa3c e215 9a3c 0971 e63b b00a 843c
00000100: 325a 023c 75ae 333c d3fd 373c b07a 2b3c
00000110: a4b3 123c ddd4 753c c4b2 2c3c d263 1d3c
00000120: ca56 3c3b 0e85 933c d393 893c 4c47 853c
00000130: 9fd0 a43c ffa7 9f3c 3895 583c 386a 473c
00000140: 4415 a93c b260 a53c e928 f63c 6c77 d13b
00000150: ec9d 8b3c 9c00 0f3c 4200 ff3b b101 783c
00000160: 8e94 ab3b abd6 333c 4981 503c 0499 413c
00000170: 7d18 983c 0921 9a3c b24b 163c 7e94 8a3c
00000180: e70a 743c c85f e43b 7724 db3b eaec 2f3c
00000190: 724d 383c 4621 1a3c 596d b63b e442 083c
000001a0: ea76 9d3c ad88 043c db26 c63c af3c 263c
000001b0: ffff 363c 2be6 1b3c 32af 863c 6cd0 073c
000001c0: 1af1 4a3c ad9a 143c d463 c03c 3f56 a93c
000001d0: c8e3 573c 12db 483c 723e 293c 1c5f 6a3c
000001e0: 1f8f 253c b766 473c 3e99 8c3c 9c3f 8f3c
000001f0: c309 a53c 463c e13b e4e6 f83b 0b9d 983c

layers.3.weight f4 [256, 128]
0.004842721 0.0055593858 0.004621853 0.0050630206 0.0042715133 0.0053996593 0.006103372 0.0059339986
0.0071934056 0.0059648547 0.006897808 0.0033511925 0.0035832338 0.004386845 0.003919252 0.005688939
0.0070817308 0.0059094555 0.0063949684 0.0060692253 0.0052564624 0.007242739 0.0045992713 0.0060981032
0.0059717377 0.0063089374 0.00370425 0.0053001954 0.0063883346 0.0074742194 0.0035400814 0.0032466527
0.005423942 0.004976278 0.0038592813 0.0058853114 0.0064433916 0.0046118046 0.00359609 0.0056227045
0.0061183204 0.0032384896 0.005850586 0.0036376237 0.006294751 0.0055854963 0.004321395 0.003886392
0.006018347 0.0068234177 0.0044363565 0.0031100987 0.0058664177 0.004128482 0.0032704303 0.0044295616
0.0064186384 0.005339042 0.0045223897 0.00599831 0.006787837 0.006110365 0.0058634086 0.0049714423
0.004086884 0.0056617693 0.005882454 0.0057037524 0.006811732 0.0072023803 0.005278241 0.0054146326
0.0056654946 0.0042648446 0.0035839342 0.0066775344 0.0063404106 0.006110519 0.005721586 0.0066980356
0.006443006 0.004710549 0.0068080225 0.005686344 0.004479264 0.0056307 0.005486111 0.0065058307
0.0042436193 0.005729329 0.00609549 0.0029393246 0.00633374 0.0052654217 0.0048029707 0.0035652262
0.0037630352 0.005866656 0.005633974 0.0051979227 0.0028134785 0.0052597444 0.004688874 0.005809151
0.0066822944 0.0054889945 0.0050310707 0.005251159 0.0058199572 0.0049022976 0.003469378 0.0052132723
0.005217086 0.0058891587 0.006461487 0.0042306385 0.006307695 0.0054907934 0.0020372686 0.00654064
0.005803108 0.0061916267 0.004961126 0.0077433162 0.0050222063 0.004006524 0.0059650526 0.004527688
0.004482168 0.0050090225 0.0032627243 0.004824321 0.0038648418 0.0056364057 0.0046073184 0.0054209214
0.0070760883 0.0058069224 0.006905477 0.0036959415 0.0033097744 0.004487096 0.0032711688 0.004730648
0.0061223796 0.0053993072 0.005671577 0.005944573 0.0045476668 0.0066064936 0.0038435538 0.0055887955
0.0057076644 0.0058212527 0.002951886 0.004897205 0.0058195433 0.007525571 0.0032405637 0.0030399796
0.004807773 0.0047232322 0.003625667 0.00489942 0.0058102817 0.0042642774 0.0034342166 0.0053321053
0.0058924532 0.0029766567 0.0049163452 0.0029400762 0.00549193 0.004615831 0.003825131 0.0036469635
0.005261526 0.0063775084 0.0040545347 0.0031981224 0.005833268 0.0038580736 0.0031298958 0.003969577
0.0055849818 0.0049585286 0.003727779 0.0057106786 0.005798452 0.0065665045 0.0055359453 0.004843974
0.0030886412 0.0052193375 0.00549942 0.005038911 0.0066011776 0.0062915618 0.005512436 0.0048797494
0.0055974545 0.0035316006 0.0035444875 0.006031438 0.0052776486 0.0049929065 0.005380534 0.0061775185
0.006242749 0.004498923 0.006327815 0.005158049 0.0038018883 0.0047340128 0.0049427217 0.0066772318
0.0035467732 0.0048516723 0.005174672 0.0025917145 0.0053597037 0.004705599 0.004346321 0.0035525146
0.003305488 0.0052920463 0.005180947 0.0048403116 0.0027601651 0.005188002 0.004364622 0.0049528233
0.006005799 0.0049049826 0.004667709 0.00473068 0.005388668 0.004403799 0.003124407 0.004161541
0.0051158373 0.0052724644 0.006557671 0.0036658456 0.0057056355 0.0060994443 0.00221271 0.0059488364
0.005564646 0.005883007 0.004653311 0.0073565445 0.004809431 0.0032860225 0.0054393555 0.0038590475
00000000: b0af 9e3b 822b b63b ea72 973b b2e7 a53b
00000010: 0df8 8b3b a0ef b03b ccfe c73b fd71 c23b
00000020: a9b6 eb3b d474 c33b 0207 e23b ae9f 5b3b
00000030: b0d4 6a3b 86bf 8f3b 126d 803b 476a ba3b
00000040: dd0d e83b 1ba4 c13b e28c d13b 5ae0 c63b
00000050: 673e ac3b 8054 ed3b 7cb5 963b 99d2 c73b
00000060: 91ae c33b 34bb ce3b 01c3 723b 43ad ad3b
00000070: 3c55 d13b 4cea f43b b600 683b cbc5 543b
00000080: 53bb b13b 0c10 a33b ffeb 7c3b 92d9 c03b
00000090: 1623 d33b 9f1e 973b 61ac 6b3b aa3e b83b
000000a0: 317c c83b d73c 543b 46b6 bf3b 3365 6e3b
000000b0: 3344 ce3b 8a06 b73b 7d9a 8d3b d7b2 7e3b
000000c0: 8e35 c53b fa96 df3b db5e 913b ccd2 4b3b
000000d0: 143b c03b 3848 873b b754 563b db25 913b
000000e0: 7153 d23b 21f3 ae3b 8e30 943b 798d c43b
000000f0: 816c de3b 7539 c83b d621 c03b 7be7 a23b
00000100: 45eb 853b 5d86 b93b 9ac1 c03b 8be6 ba3b
00000110: f334 df3b f201 ec3b 18f5 ac3b 3b6d b13b
00000120: 9da5 b93b 1cc0 8b3b 70e0 6a3b 38cf da3b
00000130: 38c3 cf3b c03a c83b 247c bb3b 327b db3b
00000140: da1f d33b f35a 9a3b d515 df3b 8354 ba3b
00000150: cac6 923b bc81 b83b d6c4 b33b dd2e d53b
00000160: 0f0e 8b3b 18bd bb3b adbc c73b afa1 403b
00000170: 438b cf3b 8f89 ac3b 3d62 9d3b 92a6 693b
00000180: 419d 763b 143d c03b 339d b83b 5653 aa3b
00000190: 5662 383b ef59 ac3b 20a5 993b b15a be3b
000001a0: 26f7 da3b 06dd b33b aedb a43b ea11 ac3b
000001b0: 57b5 be3b 74a3 a03b 815e 633b 19d4 aa3b
000001c0: 17f4 aa3b d8f9 c03b e2ba d33b 2ba1 8a3b
000001d0: c8b0 ce3b 1dec b33b b283 053b dd52 d63b
000001e0: 0028 be3b 21e3 ca3b f190 a23b a5bb fd3b
000001f0: 5291 a43b 2949 833b 7d76 c33b 005d 943b
00000200: 26df 923b ba22 a43b 6ed3 553b 5615 9e3b
00000210: 4949 7d3b 99b1 b83b fdf8 963b fca1 b13b
00000220: 88de e73b ff47 be3b 5747 e23b 9c37 723b
00000230: cde8 583b 7d08 933b 1b61 563b 8d03 9b3b
00000240: 3e9e c83b acec b03b a3d8 b93b b1ca c23b
00000250: 9804 953b 497b d83b 22e4 7b3b 3722 b73b
00000260: 5c07 bb3b 35c0 be3b 6e74 413b bc78 a03b
00000270: deb1 be3b 1199 f63b a35f 543b 653a 473b
00000280: 868a 9d3b 58c5 9a3b 999c 6d3b 508b a03b
00000290: 2d64 be3b 5abb 8b3b 9810 613b f1b8 ae3b
000002a0: 7b15 c13b 0314 433b 4b19 a13b 4bae 403b
000002b0: a6f5 b33b 6640 973b 0daf 7a3b e501 6f3b
000002c0: e168 ac3b 6bfa d03b e7db 843b 9797 513b
000002d0: 0025 bf3b bcd7 7c3b f01e 4d3b 3a13 823b
000002e0: 3902 b73b 277b a23b c14d 743b a520 bb3b
000002f0: f100 be3b d52b d73b e066 b53b 33ba 9e3b
00000300: cd6a 4a3b fa06 ab3b 7b34 b43b 731d a53b
00000310: b14e d83b 7229 ce3b aaa1 b43b 4ee6 9f3b
00000320: da6a b73b 6d72 673b a24a 683b 5ea3 c53b
00000330: 20f0 ac3b 899b a33b 314f b03b c86c ca3b
00000340: f98f cc3b b46b 933b 8f59 cf3b da04 a93b
00000350: 1a29 793b c71f 9b3b 8ef6 a13b aecc da3b
00000360: fb70 683b c7fa 9e3b 4c90 a93b c1d9 293b
00000370: 74a0 af3b 6d31 9a3b 956b 8e3b 4ed1 683b
00000380: e3a0 583b e768 ad3b efc4 a93b 7a9b 9e3b
00000390: e3e3 343b 1d00 aa3b 1a05 8f3b 4b4b a23b
000003a0: 4bcc c43b fab9 a03b 95f3 983b d203 9b3b
000003b0: 6c93 b03b be4d 903b dac2 4c3b 895d 883b
000003c0: c1a2 a73b a3c4 ac3b bbe1 d63b af3e 703b
000003d0: 57f6 ba3b d9dd c73b 1d03 113b 75ee c23b
000003e0: a257 b63b 3dc6 c03b cd7a 983b 2b0f f13b
000003f0: 6e98 9d3b 4f5a 573b 9f3c b23b 13e8 7c3b

layers.3.bias f4 [256]
-0.00030433165 -0.00027328098 -0.00019769763 -0.00033959554 -0.00028676007 6.9744e-05 -6.400279e-05 -0.00017598778
-0.0002924215 -7.274833e-05 -0.00023353424 -0.00011550006 0.00011977976 -5.3540643e-05 -0.00031387294 0.00028189193
-0.00035305665 -0.00025164473 -0.00024946526 -0.00013928015 -0.00013370745 6.304723e-05 -0.00021633474 -0.00023068287
1.13219085e-05 -0.00030818375 -0.00011540675 -0.00025684581 -0.0002958027 -0.00028397722 -0.0003248377 -0.00024905626
-0.0003295914 -0.00034981605 -0.0002929229 -0.00024684044 -0.00037828443 0.000114075716 -0.00034835938 -0.0003347779
-0.00041546117 -8.657563e-05 -0.00034344092 -4.8010326e-05 -0.0002942359 -0.00017842739 -0.0002534091 -0.00015772956
-0.00011946032 -1.7009177e-05 -0.0003598236 -0.00034913426 -0.00027882593 -0.00024293947 0.00020030545 -0.0003471201
-0.00024619536 6.142622e-05 -0.00029707683 -0.00014244852 0.0003236831 -0.00026045536 -6.4344866e-05 -0.00013551938
-0.00024165511 -5.81759e-05 -0.00025041171 -0.00011430156 -0.00031078036 -0.00021196839 -0.00035543792 -0.00022747015
-0.00034425425 -8.853722e-05 -0.0002692441 -2.8192955e-05 -0.0003453402 -6.9432455e-05 -9.871575e-06 -0.00038608466
-0.00021729615 -0.00020958357 -6.888453e-05 -0.0001560938 -0.00019817115 -0.00016118861 -0.0002952054 8.703949e-05
-4.83547e-40 -0.00027953534 -0.00014360971 -0.00032806303 -0.00037107515 -0.00013335374 -0.00026429136 -0.00024922908
-0.00013095676 -9.92852e-05 -0.00028098427 8.9483297e-07 -0.00052129227 -0.00038084373 -1.28146e-40 -0.00021362404
-0.00021536298 -0.00028607686 -0.0002248979 -0.0002833111 -0.00022729718 -0.00030286753 -0.00020433287 -0.0001765247
-0.00027037557 -0.00016463791 -0.00012187918 -0.00017086482 -0.0002360479 -0.00017647498 -0.0002765025 -0.00022556982
2.8219241e-05 -0.0003055983 -0.00026189905 -0.00015619013 -0.0001750456 0.00013151519 -0.00015949985 -0.00018706653
-0.0002807972 -0.00023460963 -2.99519e-40 -0.00018800929 -0.00014846733 -0.00016006197 -0.0004341106 1.3223965e-05
-0.00010897522 -0.00028706028 -0.00030346663 -0.00024871947 -0.0003425384 -0.00028524667 -0.00017194124 -0.00022576345
-0.00026476957 -0.00010967514 -0.00031500595 -0.00026454826 -5.5915723e-05 -0.00028920843 -0.00012899471 -0.0003138822
-0.00022054915 -0.00028487234 0.00011212702 -0.0002702476 -0.00029233238 -0.00018115641 1.6722799e-05 -0.00017852633
-0.0002209249 -0.00015989276 -0.00024537928 -0.00027819298 -0.00032613327 -0.00021459808 -0.00025361512 -0.00020128585
3.7936705e-05 -5.292687e-06 -0.00020505354 -0.000121848105 -0.0002974499 -0.00013249612 -0.00031171454 -0.00030340365
-8.782898e-05 -5.76412e-40 0.00027824639 -5.492087e-05 -0.0001799668 -0.00030765808 -0.00020026948 0.00021674957
-0.0003535415 -0.00014368023 0.00034096677 -0.00041334404 -0.00034896773 -0.00013348863 -7.418055e-05 -0.00019405149
-0.00034281285 -0.00021992109 1.4296007e-05 -0.00031109995 -0.0003163987 -0.00022741902 -0.00021094231 -0.00025116987
-0.00026895173 -0.0002578499 -0.00023143658 -0.00021957292 -0.0004484208 -0.00016312396 -0.00016908087 -1.99e-41
-0.00016802698 -2.03604e-40 -0.0001879815 -0.00025875057 -0.00031847617 0.0003035237 -3.796804e-05 -0.00026123686
-0.00023839554 -0.0002723553 2.1085882e-06 -0.00039351883 -0.00016070163 2.5234527e-05 -0.00032758768 1.2282154e-05
3.0095562e-05 -0.00013679806 -2.9200693e-05 -0.00036926905 -0.000117456206 -9.34461e-05 -0.00030195893 -0.00017581508
8.609164e-06 -0.0002827255 -8.2101295e-05 -0.00022841836 -0.00018800172 -0.00032329737 -0.00012165223 -0.00021771775
-0.0002834006 -0.00022005572 -0.00021052595 -0.00022088601 -0.00029503417 -0.00024356345 -0.0003643587 -0.00014267131
-0.0003087095 -0.00026970202 -0.0003314773 -0.00015991244 -0.00019572269 -0.00030422834 -0.00015146918 -0.00023235964
00000000: b48e 9fb9 2747 8fb9 0e4d 4fb9 be0b b2b9
00000010: 4958 96b9 8643 9238 3c39 86b8 5c89 38b9
00000020: 2650 99b9 7690 98b8 dfe0 74b9 9f38 f2b8
00000030: 4532 fb38 d490 60b8 508f a4b9 e5ca 9339
00000040: 761a b9b9 2fef 83b9 a9ca 82b9 bb0b 12b9
00000050: d233 0cb9 3938 8438 ead7 62b9 76e3 71b9
00000060: 3af3 3d37 b993 a1b9 8706 f2b8 43a9 86b9
00000070: f715 9bb9 c7e2 94b9 fa4e aab9 c493 82b9
00000080: 02cd acb9 8467 b7b9 7293 99b9 5d6a 81b9
00000090: 7a54 c6b9 ef3b ef38 01a4 b6b9 2185 afb9
000000a0: 41d2 d9b9 f08f b5b8 dc0f b4b9 b25e 49b8
000000b0: ad43 9ab9 3d18 3bb9 fedb 84b9 3564 25b9
000000c0: c586 fab8 eeae 8eb7 b5a6 bcb9 020c b7b9
000000d0: 622f 92b9 91bd 7eb9 1609 5239 acfd b5b9
000000e0: c813 81b9 f3d1 8038 fac0 9bb9 3c5e 15b9
000000f0: 03b4 a939 ba8d 88b9 e3f0 86b8 351a 0eb9
00000100: cd64 7db9 e601 74b8 b149 83b9 2fb5 efb8
00000110: 3cf0 a2b9 d543 5eb9 125a bab9 0e85 6eb9
00000120: 067d b4b9 0fad b9b8 5529 8db9 e97f ecb7
00000130: c70e b5b9 449c 91b8 179e 25b7 686b cab9
00000140: fed9 63b9 a9c3 5bb9 1a76 90b8 1cad 23b9
00000150: 2acc 4fb9 bd04 29b9 ccc5 9ab9 f888 b638
00000160: ef43 0580 998e 92b9 f095 16b9 e0ff abb9
00000170: dd8c c2b9 dfd4 0bb9 9690 8ab9 f6aa 82b9
00000180: 7051 09b9 5637 d0b8 1251 93b9 7434 7035
00000190: 55a7 08ba fbab c7b9 3865 0180 4400 60b9
000001a0: 0fd3 61b9 96fc 95b9 92d2 6bb9 5f89 94b9
000001b0: 9f56 6eb9 31ca 9eb9 3042 56b9 7d19 39b9
000001c0: 32c1 8db9 a7a2 2cb9 6399 ffb8 2d2a 33b9
000001d0: a083 77b9 240c 39b9 8af7 90b9 f086 6cb9
000001e0: 5cb8 ec37 b638 a0b9 7f4f 89b9 f8c6 23b9
000001f0: 728c 37b9 57e7 0939 6a3f 27b9 4a27 44b9
00000200: f637 93b9 8b01 76b9 f042 0380 5c24 45b9
00000210: e5ad 1bb9 4fd6 27b9 5799 e3b9 7fdc 5d37
00000220: a089 e4b8 9480 96b9 9a1a 9fb9 9066 82b9
00000230: ba96 b3b9 298d 95b9 204b 34b9 eaba 6cb9
00000240: c5d0 8ab9 6401 e6b8 6227 a5b9 11b3 8ab9
00000250: 0d87 6ab8 e6a0 97b9 c142 07b9 8e90 a4b9
00000260: 3643 67b9 eb5a 95b9 bc25 eb38 05b0 8db9
00000270: 3044 99b9 cef4 3db9 f047 8c37 cc32 3bb9
00000280: 14a8 67b9 e3a8 27b9 40a6 80b9 6eda 91b9
00000290: defc aab9 bc05 61b9 a5f7 84b9 4210 53b9
000002a0: 3a1e 1f38 d697 b1b6 a403 57b9 b488 ffb8
000002b0: 0df3 9bb9 a8ee 0ab9 9e6d a3b9 2612 9fb9
000002c0: d330 b8b8 cd46 0680 99e1 9139 d65a 66b8
000002d0: 78b5 3cb9 2b4d a1b9 6eff 51b9 4547 6339
000002e0: 895b b9b9 dea8 16b9 c9c3 b239 19b6 d8b9
000002f0: a8f5 b6b9 15f9 0bb9 6191 9bb8 4d7a 4bb9
00000300: 90bb b3b9 9e9a 66b9 e2d8 6f37 211b a3b9
00000310: 51e2 a5b9 5477 6eb9 6530 5db9 73af 83b9
00000320: 1702 8db9 0730 87b9 c9ad 72b9 283d 66b9
00000330: 051a ebb9 410c 2bb9 4d4b 31b9 7937 0080
00000340: 6630 30b9 9137 0280 e61c 45b9 eaa8 87b9
00000350: 26f9 a6b9 4322 9f39 df3f 1fb8 9ef6 88b9
00000360: d1f9 79b9 e9ca 8eb9 4581 0d36 3451 ceb9
00000370: 0482 28b9 bcae d337 13c0 abb9 730f 4e37
00000380: ba75 fc37 7371 0fb9 03f4 f4b7 749a c1b9
00000390: d252 f6b8 7ef8 c3b8 3e50 9eb9 005b 38b9
000003a0: 1470 1037 c63a 94b9 cc2d acb8 9683 6fb9
000003b0: 5422 45b9 3d80 a9b9 8b1f ffb8 2a4b 64b9
000003c0: 6295 94b9 c2be 66b9 a1c0 5cb9 a39d 67b9
000003d0: d1ae 9ab9 1165 7fb9 6607 bfb9 0a9a 15b9
000003e0: 4ada a1b9 cb66 8db9 21ca adb9 2bae 27b9
000003f0: e93a 4db9 d680 9fb9 b3d3 1eb9 91a5 73b9

layers.6.weight f4 [64, 256]
0.0073375064 0.0071734516 0.006674988 0.007165097 0.007102448 0.0061187483 0.0066388166 0.007307697
0.006977465 0.007203822 0.0076679494 0.007800839 0.007519494 0.006041622 0.0076842466 0.009318362
0.006916786 0.00680833 0.0074197566 0.0066215876 0.005875377 0.0073627457 0.008131843 0.0072773243
0.0076837325 0.007322059 0.007108158 0.007760414 0.007595744 0.0067195795 0.00790634 0.008140585
0.008208969 0.0081218565 0.0070613176 0.006858939 0.008749517 0.0080223465 0.007183344 0.007410665
0.00796917 0.0065264516 0.007557442 0.007125081 0.008328049 0.0071439724 0.0061062193 0.0079555
0.0069078472 0.0068604094 0.007408364 0.006786657 0.0072544166 0.0056393286 0.0073787593 0.007868695
0.0072419746 0.006513372 0.0073214597 0.007284014 0.0072225323 0.006713315 0.007287092 0.008376967
0.0069874916 0.0075424043 0.007098745 0.0076000933 0.0070079295 0.0087688165 0.008187574 0.006663595
0.006966964 0.0063749133 0.007174176 0.006283917 0.007059903 0.006273178 0.007667667 0.0068742144
0.0070212455 0.006511582 0.0071905735 0.008071616 0.008434744 0.0066722347 0.0075523406 0.0075451755
2.53304e-40 0.006298254 0.007514684 0.007822228 0.008213218 0.007124309 0.0062307306 0.0075146058
0.007260306 0.0066476967 0.006649292 0.008114804 0.008725813 0.0069803875 5.08264e-40 0.007329234
0.0067497427 0.00792112 0.0074660815 0.0064247972 0.006624513 0.006865765 0.0062118615 0.008173923
0.007848832 0.006786394 0.007489028 0.003838548 0.0064981603 0.007245814 0.0068919263 0.008913964
0.006669644 0.0069382684 0.0066043693 0.0071543893 0.0070515173 0.006832831 0.008931994 0.0061055603
0.006823864 0.008090946 2.8903e-41 0.00714173 0.0075345966 0.007541874 0.007859013 0.0071513094
0.0061204014 0.0075280904 0.0074016014 0.006604238 0.007457784 0.007962346 0.008602421 0.007892629
0.0068824054 0.0070323274 0.0084979 0.007335008 0.007910749 0.007172046 0.0071960175 0.007184543
0.006367571 0.007589308 0.0064345044 0.0070572994 0.008071738 0.0066045253 0.0066869245 0.006449716
0.008286318 0.0057409224 0.0061365203 0.008156305 0.007911717 0.0064107673 0.0071687405 0.0058821025
0.0067912145 0.006489578 0.0069447807 0.0077341134 0.007885566 0.0070360512 0.006635513 0.008265901
0.0072737983 -5.5944e-41 0.008724984 0.007804458 0.0074785785 0.007370003 0.0063225795 0.0071617495
0.007053572 0.009202325 0.0077409237 0.0075482004 0.008825836 0.00820345 0.006126917 0.006731505
0.008210868 0.007341411 0.008453407 0.006014589 0.0074926666 0.007934541 0.0065131094 0.005917579
0.007157675 0.0065678344 0.0081435 0.008043241 0.00749 0.008151691 0.006630211 2.11585e-40
0.0039047934 2.34499e-40 0.0064984355 0.0066907797 0.007531062 0.0063879434 0.0072637135 0.0071616373
0.00648392 0.006614578 0.0073433626 0.0068303873 0.007473244 0.008294746 0.006666961 0.008002462
0.008145517 0.0062491028 0.0074367165 0.0073994766 0.007106217 0.0063865967 0.008105885 0.0071449447
0.006844455 0.007569163 0.0067497646 0.007256101 0.007346524 0.007152129 0.0078826435 0.007251698
0.007630617 0.006726349 0.00787046 0.007556364 0.006974105 0.00722941 0.0067124874 0.005884163
0.008791917 0.00815179 0.008652942 0.006738083 0.0072229886 0.0073487526 0.007986979 0.0068757036
00000000: 776f f03b 460f eb3b dcb9 da3b 31c9 ea3b
00000010: a7bb e83b c87f c83b 6e8a d93b 6875 ef3b
00000020: 38a3 e43b 0a0e ec3b 6c43 fb3b 2e9e ff3b
00000030: 1666 f63b ccf8 c53b 22cc fb3b 0bac 183c
00000040: 35a6 e23b 6918 df3b 6e21 f33b e7f9 d83b
00000050: 3c86 c03b 3043 f13b 6c3b 053c 9f76 ee3b
00000060: d2c7 fb3b e2ed ef3b 8deb e83b 124b fe3b
00000070: b8e5 f83b eb2f dc3b 9889 013c 1760 053c
00000080: e97e 063c 8911 053c a062 e73b f3c0 e03b
00000090: 225a 0f3c 2970 033c 4262 eb3b 2ad5 f23b
000000a0: 1f91 023c d8db d53b 6ba4 f73b 8379 e93b
000000b0: 5f72 083c fc17 ea3b ae16 c83b c957 023c
000000c0: 395b e23b 49cd e03b ddc1 f23b 9b62 de3b
000000d0: 75b6 ed3b 1eca b83b 85c9 f13b b3eb 003c
000000e0: 164e ed3b 206e d53b dbe8 ef3b bdae ee3b
000000f0: feaa ec3b 5efb db3b 8fc8 ee3b 8c3f 093c
00000100: 54f7 e43b 4626 f73b 979c e83b 340a f93b
00000110: c6a2 e53b 15ab 0f3c 2d25 063c 495a da3b
00000120: 214b e43b a6e4 d03b 5a15 eb3b 51e9 cd3b
00000130: c256 e73b 3b8f cd3b 0e41 fb3b 1741 e13b
00000140: 7a12 e63b 1c5f d53b e79e eb3b d03e 043c
00000150: e131 0a3c c3a2 da3b a079 f73b 853d f73b
00000160: 1cc2 0200 9561 ce3b bd3d f63b cd28 003c
00000170: bc90 063c 0973 e93b 282b cc3b 153d f63b
00000180: dce7 ed3b ecd4 d93b 4ee2 d93b f4f3 043c
00000190: b6f6 0e3c bcbb e43b d588 0500 122a f03b
000001a0: f22c dd3b 96c7 013c 08a6 f43b 1b87 d23b
000001b0: 7112 d93b 36fa e03b df8c cb3b ebeb 053c
000001c0: 6398 003c 6660 de3b 8566 f53b 2690 7b3b
000001d0: 85ee d43b 4b6e ed3b abd5 e13b e00b 123c
000001e0: 078d da3b 6a5a e33b 7769 d83b 5e6f ea3b
000001f0: 6a10 e73b f1e5 df3b 8057 123c 2711 c83b
00000200: b89a df3b e38f 043c 9250 0000 2c05 ea3b
00000210: c7e4 f63b d321 f73b 17c3 003c 8855 ea3b
00000220: a68d c83b 33ae f63b 2289 f23b 5d68 d83b
00000230: 6d60 f43b 8074 023c 2bf1 0c3c 1650 013c
00000240: cd85 e13b 706f e63b c73a 0b3c 825a f03b
00000250: 169c 013c 7c03 eb3b 92cc eb3b 516c eb3b
00000260: 0fa7 d03b bbaf f83b 89d8 d23b eb40 e73b
00000270: 533f 043c c66a d83b fd1d db3b 2458 d33b
00000280: 56c3 073c 591e bc3b dd14 c93b 06a2 053c
00000290: 25a0 013c 6a11 d23b c1e7 ea3b a7be c03b
000002a0: d688 de3b 87a6 d43b 0b91 e33b 726e fd3b
000002b0: 7632 013c ad8e e63b b86e d93b b46d 073c
000002c0: 0b59 ee3b f39b 0080 3cf3 0e3c 8abc ff3b
000002d0: dd0e f53b 1180 f13b a42d cf3b 1cad ea3b
000002e0: a721 e73b 59c5 163c 93a7 fd3b e556 f73b
000002f0: 3d9a 103c c367 063c 4ec4 c83b f593 dc3b
00000300: e086 063c 3890 f03b 2980 0a3c 0816 c53b
00000310: 0b85 f53b e1ff 013c ec6b d53b 40e8 c13b
00000320: ee8a ea3b fd36 d73b 516c 053c ccc7 033c
00000330: ad6e f53b ac8e 053c 3e42 d93b d04d 0200
00000340: 90e7 7f3b b08d 0200 d4f0 d43b 543e db3b
00000350: 20c7 f63b f451 d13b 7204 ee3b 2bac ea3b
00000360: 1077 d43b 1abf d83b 97a0 f03b 71d1 df3b
00000370: 1de2 f43b b0e6 073c 8676 da3b c21c 033c
00000380: c674 053c 46c5 cc3b b3af f33b 4f77 f23b
00000390: 45db e83b a846 d13b 8cce 043c 2420 ea3b
000003a0: 7347 e03b be06 f83b 212d dd3b 96c4 ed3b
000003b0: 1cbb f03b 685c ea3b 3426 013c a79f ed3b
000003c0: 410a fa3b b468 dc3b 1af3 003c 609b f73b
000003d0: 0887 e43b b0e4 ec3b 6df4 db3b f0cf c03b
000003e0: f90b 103c 168f 053c 12c5 0d3c 23cb dc3b
000003f0: d2ae ec3b cecd f03b d1db 023c 954d e13b

layers.6.bias f4 [64]
-0.00026505478 -0.00019992332 -0.0002494577 -0.0002578482 -0.00015472758 -0.00015358198 -7.455718e-05 -3.1855707e-05
-0.00013129944 -0.00017603737 -0.00012863563 -0.00028008377 -0.00016325864 -0.00013075459 -0.00027641153 -0.00014081637
-0.00013483952 -0.00021789907 -0.0001593774 -0.00022169822 -0.0002737595 -0.0001956043 -0.00025870732 -0.000105707186
-0.00026113843 -0.00023686468 -7.5151715e-05 -0.00011841838 -0.00023163241 -0.00019606392 -0.00012291272 -0.00021016714
-0.000114590024 -0.00019909821 -0.00021233821 -0.00016580778 -7.125868e-05 -0.00011282252 -0.00012663842 -0.00016830541
-0.00018799647 -0.00024324605 -0.00020875168 -0.00030267693 -0.0002441744 -0.00010754731 -0.000237058 -0.00020890104
-0.00014693059 -0.00015054476 -0.00022303853 -4.0480107e-05 -0.00014875857 -0.00023111756 -0.00015915386 -0.00014751664
-0.0001198143 -0.00024480993 -0.00027844572 -0.00016370087 -0.00019846336 -0.00019524549 1.482618e-05 -0.00012251349
00000000: 0df7 8ab9 82a2 51b9 a5c9 82b9 cd2f 87b9
00000010: 5e3e 22b9 d90a 21b9 955b 9cb8 ce9c 05b8
00000020: 6dad 09b9 ac96 38b9 5de2 06b9 35d8 92b9
00000030: 6830 2bb9 2b1b 09b9 54eb 90b9 1ba8 13b9
00000040: b563 0db9 d67b 64b9 8c1e 27b9 aa77 68b9
00000050: 6187 8fb9 211b 4db9 1ca3 87b9 1daf ddb8
00000060: 68e9 88b9 e15e 78b9 c59a 9db8 6257 f8b8
00000070: 5ae2 72b9 8296 4db9 22e2 00b9 5060 5cb9
00000080: 0d50 f0b8 05c5 50b9 1ba7 5eb9 b0dc 2db9
00000090: b670 95b8 219b ecb8 3eca 04b9 247b 30b9
000000a0: eb20 45b9 dd0f 7fb9 5ae4 5ab9 9cb0 9eb9
000000b0: 8904 80b9 068b e1b8 c692 78b9 720c 5bb9
000000c0: 6111 1ab9 8ddb 1db9 73df 69b9 2fc9 29b8
000000d0: 13fc 1bb9 2658 72b9 8ae2 26b9 b2ae 1ab9
000000e0: d044 fbb8 d559 80b9 5afc 91b9 1ea7 2bb9
000000f0: 9a1a 50b9 d0ba 4cb9 f5bd 7837 f776 00b9

layers.9.weight f4 [32, 64]
0.019808356 0.020037437 0.020909851 0.019810919 0.019367613 0.020277329 0.020010447 0.020760423
0.021024724 0.019848337 0.019745044 0.021045404 0.019384624 0.020870522 0.019727325 0.020203803
0.019262277 0.020270275 0.021040095 0.021145951 0.020390246 0.020119045 0.020849926 0.020321991
0.02087906 0.020831164 0.019770175 0.01989095 0.019987637 0.021384966 0.018701084 0.020131426
0.020379022 0.019552013 0.020155631 0.020650527 0.019757295 0.020815132 0.01900338 0.020771302
0.020336056 0.0197796 0.019162914 0.0209963 0.019584123 0.018584011 0.021431774 0.019221127
0.02015636 0.020473555 0.020735271 0.020035235 0.01971516 0.020383079 0.01910495 0.020409333
0.019815998 0.020692894 0.020711055 0.019821186 0.019782733 0.02128383 0.019834805 0.020204578
0.01986731 0.019825714 0.02117806 0.021078823 0.020154435 0.020276777 0.020974975 0.020938281
0.020373106 0.020465134 0.020498602 0.022088883 0.019697053 0.021125782 0.019847136 0.020681283
0.019335466 0.02021413 0.021136813 0.0205366 0.021196363 0.020475164 0.021911351 0.020219803
0.020092133 0.021223627 0.019586142 0.020457694 0.02042218 0.021620903 0.01946106 0.020038832
0.021190688 0.019428318 0.01989538 0.020737791 0.020443313 0.021296991 0.020171745 0.020799937
0.020427074 0.020040004 0.019991567 0.021214077 0.019829791 0.018740337 0.021546833 0.019175319
0.021041794 0.021244923 0.02194635 0.019959418 0.019823054 0.021471249 0.0196345 0.019769087
0.020473083 0.020978257 0.020810422 0.02006617 0.020522246 0.020804375 0.02157087 0.020468518
0.020889169 0.01978883 0.021282952 0.020680157 0.019844228 0.020742122 0.020860862 0.021092458
0.020469584 0.019895788 0.02047254 0.020409787 0.020544222 0.020913081 0.020410543 0.019765962
0.019409362 0.020790998 0.02031405 0.02150291 0.021868 0.020296598 0.021335538 0.02011461
0.020822486 0.021030962 0.020142367 0.020573642 0.020469878 0.022213727 0.0200961 0.020102888
0.020411203 0.020088227 0.02037571 0.020418208 0.020626344 0.020646282 0.019545829 0.020937508
0.020237928 0.020230742 0.020141117 0.022270294 0.020781295 0.01966742 0.02081307 0.020716162
0.020566681 0.0206078 0.021437434 0.020014852 0.020168575 0.020907845 0.0199038 0.020148603
0.020320851 0.020259658 0.021277849 0.020015892 0.019869938 0.020981338 0.021499082 0.020303097
0.019667191 0.02052556 0.02132503 0.01990738 0.019860722 0.020882342 0.020606844 0.021944936
0.020411618 0.02058259 0.020003444 0.021527456 0.019844655 0.021111192 0.020617856 0.019967517
0.018928755 0.020946281 0.021578575 0.020907784 0.021197824 0.02092317 0.0213598 0.020239366
0.020198174 0.021016316 0.019617474 0.02014746 0.020334864 0.021723928 0.019094579 0.019941546
0.020748308 0.0194762 0.02030216 0.020910552 0.020465337 0.020723892 0.019462705 0.020724362
0.020833869 0.020607471 0.019270914 0.022197194 0.019834552 0.019866265 0.021077573 0.019509705
0.019515641 0.020456437 0.021312995 0.019977216 0.019884361 0.020396084 0.019708741 0.019305622
0.020869093 0.021076376 0.020744188 0.020215785 0.020572148 0.020702569 0.020614358 0.02041789
00000000: 2245 a23c 8d25 a43c 234b ab3c 824a a23c
00000010: d4a8 9e3c a41c a63c f3ec a33c c311 aa3c
00000020: 0b3c ac3c fb98 a23c 5cc0 a13c 6967 ac3c
00000030: 81cc 9e3c a8f8 aa3c 339b a13c 7282 a53c
00000040: eccb 9d3c d90d a63c 475c ac3c 463a ad3c
00000050: 7209 a73c b2d0 a43c 77cd aa3c 4e7a a63c
00000060: 900a ab3c 1ea6 aa3c 10f5 a13c 58f2 a23c
00000070: 1dbd a33c 862f af3c 0433 993c a9ea a43c
00000080: e8f1 a63c 8b2b a03c 6c1d a53c 4b2b a93c
00000090: 0dda a13c 7f84 aa3c faac 9b3c 9428 aa3c
000000a0: cd97 a63c d408 a23c 8bfb 9c3c 6f00 ac3c
000000b0: e26e a03c 7f3d 983c b091 af3c a075 9d3c
000000c0: f31e a53c 28b8 a73c 04dd a93c ef20 a43c
000000d0: b081 a13c 6afa a63c fc81 9c3c 7931 a73c
000000e0: 2955 a23c 2584 a93c 3baa a93c 0a60 a23c
000000f0: 660f a23c 6d5b ae3c 9a7c a23c 1284 a53c
00000100: c5c0 a23c 8969 a23c 9c7d ad3c 7fad ac3c
00000110: ea1a a53c 7c1b a63c b6d3 ab3c c286 ab3c
00000120: 80e5 a63c 7fa6 a73c afec a73c bff3 b43c
00000130: b75b a13c fa0f ad3c 7696 a23c cb6b a93c
00000140: 6965 9e3c 1a98 a53c 1c27 ad3c 5f3c a83c
00000150: ffa3 ad3c 88bb a73c 6f7f b33c 00a4 a53c
00000160: 4298 a43c 2cdd ad3c 1e73 a03c e596 a73c
00000170: 6a4c a73c 521e b13c cd6c 9f3c 7a28 a43c
00000180: 1898 ad3c 2328 9f3c a3fb a23c 4de2 a93c
00000190: bc78 a73c 0777 ae3c 373f a53c a164 aa3c
000001a0: ae56 a73c ef2a a43c 5bc5 a33c 25c9 ad3c
000001b0: 1672 a23c 5685 993c fc82 b03c 8f15 9d3c
000001c0: d75f ac3c d509 ae3c d5c8 b33c ef81 a33c
000001d0: f563 a23c 79e4 af3c 88d8 a03c c8f2 a13c
000001e0: 2bb7 a73c 98da ab3c 9e7a aa3c cf61 a43c
000001f0: 451e a83c f06d aa3c 65b5 b03c 98ad a73c
00000200: c31f ab3c 2f1c a23c 9659 ae3c 6f69 a93c
00000210: 5d90 a23c 62eb a93c 66e4 aa3c 17ca ac3c
00000220: d4af a73c 7efc a23c 07b6 a73c 6d32 a73c
00000230: 5b4c a83c e951 ab3c 0334 a73c 3aec a13c
00000240: 6200 9f3c e251 aa3c a769 a63c df26 b03c
00000250: 8524 b33c 0d45 a63c dec7 ae3c 65c7 a43c
00000260: eb93 aa3c 2049 ac3c 9b01 a53c 0e8a a83c
00000270: 72b0 a73c 90f9 b53c 94a0 a43c d0ae a43c
00000280: 6535 a73c 1190 a43c f6ea a63c 1644 a73c
00000290: 94f8 a83c 6422 a93c 931e a03c 2385 ab3c
000002a0: 03ca a53c f1ba a53c fcfe a43c 3170 b63c
000002b0: 893d aa3c 921d a13c 2c80 aa3c f1b4 a93c
000002c0: 757b a83c b0d1 a83c 8f9d af3c 30f6 a33c
000002d0: 9138 a53c ee46 ab3c 4b0d a33c af0e a53c
000002e0: ea77 a63c 95f7 a53c e24e ae3c 5ef8 a33c
000002f0: 48c6 a23c 0ee1 ab3c d81e b03c ae52 a63c
00000300: 171d a13c 3825 a83c d4b1 ae3c cd14 a33c
00000310: f4b2 a23c 7211 ab3c afcf a83c dec5 b33c
00000320: 4436 a73c d29c a83c 43de a33c 595a b03c
00000330: 4291 a23c 61f1 ac3c c7e6 a83c eb92 a33c
00000340: 7a10 9b3c 8997 ab3c 8dc5 b03c cd46 ab3c
00000350: 0fa7 ad3c 1167 ab3c bffa ae3c 07cd a53c
00000360: a476 a53c 692a ac3c d3b4 a03c 490c a53c
00000370: 4d95 a63c 61f6 b13c 3c6c 9c3c 745c a33c
00000380: 5bf8 a93c 8d8c 9f3c b750 a63c 9b4c ab3c
00000390: eca6 a73c 27c5 a93c 4070 9f3c 23c6 a93c
000003a0: caab aa3c 00d1 a83c 09de 9d3c e4d6 b53c
000003b0: 127c a23c 94be a23c e0aa ac3c d1d2 9f3c
000003c0: 44df 9f3c 4294 a73c 9798 ae3c 42a7 a33c
000003d0: 87e4 a23c b015 a73c 3a74 a13c d326 9e3c
000003e0: a9f5 aa3c 5da8 ac3c b7ef a93c 939b a53c
000003f0: ec86 a83c 6f98 a93c 71df a83c 6b43 a73c

layers.9.bias f4 [32]
-4.0170064e-05 -6.380887e-05 -2.6274929e-05 -3.2487515e-05 2.074105e-06 -5.1413805e-05 -4.032102e-05 -2.6794105e-05
-5.1435356e-05 2.6139374e-05 -5.389208e-05 -8.739443e-07 -3.6046848e-05 -3.9074563e-05 -3.0965286e-05 -1.2509567e-05
1.7933222e-05 -9.0282025e-05 -0.00010347575 2.166704e-05 -1.7698685e-06 -5.801754e-05 -2.7073863e-06 -2.0554606e-05
-1.7748143e-06 5.0435688e-06 2.9448009e-05 -6.258885e-05 -3.6014567e-06 -4.4004897e-05 -3.285184e-05 8.906494e-08
00000000: 477c 28b8 20d1 85b8 fb68 dcb7 3443 08b8
00000010: da30 0b36 27a5 57b8 5e1e 29b8 e7c3 e0b7
00000020: 4bbc 57b8 e145 db37 2e0a 62b8 ff98 6ab5
00000030: 0231 17b8 fee3 23b8 b9e0 01b8 2ee0 51b7
00000040: 4d6f 9637 cb55 bdb8 1f01 d9b8 9dc1 b537
00000050: 388c edb5 dc57 73b8 8bb0 35b6 ae6c acb7
00000060: 2836 eeb5 ed3b a936 1e07 f737 2242 83b8
00000070: 8eb0 71b6 e691 38b8 65ca 09b8 f843 bf33

layers.12.weight f4 [16, 32]
0.040880047 0.042195417 0.041466016 0.0409702 0.040883057 0.040599614 0.04106574 0.04060585
0.04187941 0.042468116 0.04090713 0.04146818 0.04271378 0.040338065 0.042293664 0.041873593
0.040839188 0.04204702 0.041590236 0.040886763 0.041982777 0.04251768 0.04032872 0.041569594
0.041126125 0.040822487 0.041477576 0.04099272 0.03987026 0.041930415 0.041661706 0.041953076
0.040654104 0.04051781 0.041564148 0.041113682 0.04224584 0.04142526 0.042005982 0.040329874
0.041092347 0.041822735 0.041064803 0.0414635 0.042030603 0.04171867 0.042806868 0.042019572
0.041808948 0.041502975 0.04147549 0.041524168 0.041717 0.042035658 0.041090805 0.040472705
0.0411086 0.0410685 0.042032257 0.0411025 0.041053526 0.041127417 0.04273564 0.041576076
0.040451843 0.04124739 0.04134493 0.041215338 0.041367173 0.040544532 0.042333707 0.039174512
0.03995907 0.041261137 0.04050595 0.041773923 0.042370677 0.04136353 0.040223256 0.041837934
0.04152573 0.04164858 0.040859945 0.04024428 0.040911246 0.041937776 0.040746078 0.04145824
0.04112515 0.04191892 0.040725503 0.039726794 0.04086015 0.041422978 0.0413946 0.040726595
0.040090967 0.039126553 0.040456936 0.039772708 0.040544357 0.038989305 0.040043145 0.039179992
0.040869765 0.04111948 0.039907333 0.03966446 0.041130174 0.04057942 0.041392904 0.04159227
0.04046234 0.040829904 0.04031486 0.0401591 0.04099229 0.04150794 0.0406875 0.040846482
0.040451046 0.04088709 0.040819716 0.03896115 0.040420424 0.039176863 0.041044034 0.040406518
0.040370893 0.04056755 0.04041322 0.04036439 0.041091997 0.039750528 0.041278426 0.040391788
0.041441504 0.042711753 0.041599877 0.041498296 0.04169695 0.040712096 0.04148162 0.042087
0.040669322 0.04069394 0.041066937 0.04138103 0.041611888 0.041937016 0.04111601 0.04118972
0.04144971 0.04155176 0.04164191 0.040412508 0.04148266 0.04109538 0.042529427 0.04200966
0.040353518 0.040647674 0.03981629 0.04075198 0.040313307 0.04015773 0.04152267 0.04103181
0.040432118 0.042174798 0.040343802 0.04171831 0.041672204 0.04143001 0.04173735 0.041157715
0.041503437 0.04060248 0.04096843 0.04134098 0.04207745 0.040777482 0.040423196 0.040435567
0.040712606 0.041075166 0.03992649 0.040777896 0.041045286 0.041693516 0.040987857 0.040750403
0.039380874 0.040320836 0.040070526 0.03977787 0.04004857 0.03912988 0.04061161 0.04014653
0.04014086 0.04109693 0.040522482 0.041160677 0.042196877 0.04094888 0.04224806 0.04027884
0.041705333 0.040485103 0.04004186 0.040624954 0.041357547 0.041002914 0.03907044 0.040106513
0.0409892 0.041406028 0.03957339 0.040237047 0.03936407 0.040941827 0.04139515 0.040832248
0.03969038 0.041023824 0.039853103 0.040032722 0.04078943 0.03975414 0.041074906 0.03950068
0.040278025 0.041280996 0.040476732 0.040740862 0.041928813 0.040557496 0.041024115 0.040918507
0.040996898 0.039553232 0.040811885 0.040037233 0.040933494 0.041389275 0.040971395 0.040604413
0.04111865 0.04094112 0.040703844 0.039500732 0.04137259 0.03990393 0.04125321 0.040639937
00000000: d671 273d 1ad5 2c3d 45d8 293d 5ed0 273d
00000010: fe74 273d c84b 263d 8d34 283d 5252 263d
00000020: bf89 2b3d 0cf3 2d3d 3c8e 273d 8ada 293d
00000030: a5f4 2e3d 8739 253d 1f3c 2d3d a583 2b3d
00000040: fe46 273d 7f39 2c3d 865a 2a3d e178 273d
00000050: 22f6 2b3d 0527 2e3d ba2f 253d e144 2a3d
00000060: de73 283d 7b35 273d 64e4 293d fbe7 273d
00000070: ff4e 233d 3abf 2b3d 77a5 2a3d fdd6 2b3d
00000080: eb84 263d 01f6 253d 2b3f 2a3d d266 283d
00000090: f909 2d3d 89ad 293d 770e 2c3d f030 253d
000000a0: 7350 283d 514e 2b3d 9133 283d a2d5 293d
000000b0: 4828 2c3d 32e1 2a3d 4156 2f3d b71c 2c3d
000000c0: dc3f 2b3d 06ff 293d 34e2 293d 3f15 2a3d
000000d0: 72df 2a3d 952d 2c3d d54e 283d b5c6 253d
000000e0: 7e61 283d 7237 283d 042a 2c3d 185b 283d
000000f0: be27 283d 3975 283d 910b 2f3d ad4b 2a3d
00000100: d5b0 253d 06f3 283d 4d59 293d 6ad1 283d
00000110: a070 293d 0612 263d 1c66 2d3d 7475 203d
00000120: 1fac 233d 7001 293d 91e9 253d 221b 2b3d
00000130: e08c 2d3d ce6c 293d 24c1 243d 415e 2b3d
00000140: e216 2a3d b497 2a3d c25c 273d 30d7 243d
00000150: 8d92 273d f2c6 2b3d 5ce5 263d 1ed0 293d
00000160: d872 283d 2cb3 2b3d c9cf 263d 90b8 223d
00000170: f95c 273d 24ab 293d 628d 293d eed0 263d
00000180: 6d36 243d 2a43 203d 2cb6 253d b5e8 223d
00000190: d711 263d 40b3 1f3d 4804 243d 337b 203d
000001a0: 0e67 273d e66c 283d df75 233d 3377 223d
000001b0: 1d78 283d 9b36 263d 9b8b 293d a85c 2a3d
000001c0: d7bb 253d 423d 273d 3221 253d de7d 243d
000001d0: 88e7 273d 3b04 2a3d f0a7 263d a44e 273d
000001e0: ffaf 253d 3979 273d 9332 273d ba95 1f3d
000001f0: e38f 253d eb77 203d ca1d 283d 4e81 253d
00000200: f35b 253d 292a 263d 5588 253d 2155 253d
00000210: 1550 283d 73d1 223d 9113 293d dc71 253d
00000220: 91be 293d 85f2 2e3d a264 2a3d 1efa 293d
00000230: 6cca 2a3d bac1 263d a2e8 293d 6b63 2c3d
00000240: e094 263d b0ae 263d ce35 283d 287f 293d
00000250: 3a71 2a3d 26c6 2b3d 4369 283d 8db6 283d
00000260: 2cc7 293d 2e32 2a3d b590 2a3d 9687 253d
00000270: b9e9 293d a153 283d 5633 2e3d 5212 2c3d
00000280: bb49 253d 2d7e 263d 6816 233d 8ceb 263d
00000290: 911f 253d 6f7c 243d ad13 2a3d f910 283d
000002a0: 269c 253d 7bbf 2c3d 8b3f 253d d2e0 2a3d
000002b0: 79b0 2a3d 84b2 293d c9f4 2a3d fe94 283d
000002c0: 82ff 293d c94e 263d 83ce 273d 2955 293d
000002d0: 6759 2c3d 4a06 273d cb92 253d c49f 253d
000002e0: 43c2 263d 6f3e 283d f689 233d b906 273d
000002f0: 1a1f 283d d2c6 2a3d e2e2 273d e5e9 263d
00000300: d74d 213d 7627 253d fe20 243d 1fee 223d
00000310: f809 243d a746 203d 5c58 263d b070 243d
00000320: be6a 243d 4155 283d e7fa 253d 1998 283d
00000330: a2d6 2c3d 03ba 273d 4d0c 2d3d 6dfb 243d
00000340: 36d3 2a3d b5d3 253d ef02 243d 5a66 263d
00000350: 8866 293d acf2 273d 5308 203d ba46 243d
00000360: 4be4 273d 5e99 293d b517 223d 9acf 243d
00000370: 383c 213d 9eb2 273d f68d 293d b73f 273d
00000380: 6192 223d 9908 283d 023d 233d 5af9 233d
00000390: d112 273d 3dd5 223d 293e 283d 77cb 213d
000003a0: 92fa 243d 4316 293d eeca 253d e4df 263d
000003b0: 8cbd 2b3d 9e1f 263d e708 283d 2a9a 273d
000003c0: 5dec 273d 9202 223d 5d2a 273d 15fe 233d
000003d0: e1a9 273d cd87 293d 9fd1 273d d050 263d
000003e0: 086c 283d e0b1 273d 13b9 263d 85cb 213d
000003f0: 4e76 293d 4e72 233d 20f9 283d 1076 263d

layers.12.bias f4 [16]
-5.740205e-05 -2.7419316e-07 5.7904786e-06 -2.2305781e-05 1.8968876e-06 6.3508705e-06 -1.50785145e-05 -2.6020354e-05
7.6013016e-06 -3.500325e-05 2.089128e-05 -3.559319e-05 1.7030869e-05 -2.263542e-05 -3.439622e-05 5.4624084e-06
00000000: fbc2 70b8 d234 93b4 d54b c236 4d1d bbb7
00000010: 9098 fe35 9019 d536 baf9 7cb7 4946 dab7
00000020: af0e ff36 74d0 12b8 af3f af37 e649 15b8
00000030: 83dd 8e37 32e1 bdb7 a944 10b8 bb49 b736
