deep_learning/trained_models/mlp/mlp_model_log_location_meta_s.pt (torch, 54596 bytes, 9 tensors)

layers.0.weight f4 [32, 132]
0	0x3baca644	0.005268844
1	0xbd55a47a	-0.05215881
2	0x3db0237e	0.086005196
3	0xbd245d22	-0.04012788
4	0x3d598c5e	0.05311238
5	0x3d8833b5	0.06650487
6	0x3c6a71f4	0.014309395
7	0xbd075082	-0.033035763
8	0x3d77dd47	0.06051376
9	0x3d87d91a	0.06633206
10	0xbd2931a9	-0.041307125
11	0x3db446a2	0.08802535
12	0xbc33d10d	-0.010975135
13	0xba4c8e50	-0.00078031886
14	0xbd0c3a44	-0.034235254
15	0x3d05c857	0.032661762
16	0xbc783b49	-0.015150853
17	0xbda53c8d	-0.0806819
18	0xbd2340af	-0.03985661
19	0xbca0acc0	-0.019613624
20	0x3d2c86a4	0.04212059
21	0xbda114fa	-0.07865329
22	0xbde806a8	-0.113293946
23	0x3d37470d	0.044745494
24	0x3cb15999	0.021649169
25	0x3d5fcf7c	0.054641232
26	0x3d57c914	0.052681997
27	0xbd432f91	-0.047652785
28	0x3d0413dc	0.032245502
29	0x3b9907ce	0.00467012
30	0x3cbb7866	0.022884559
31	0x3cd45c19	0.025922822
32	0x3da1dc6d	0.07903371
33	0x3cd3a530	0.025835603
34	0xbd003c26	-0.031307362
35	0xbd973a25	-0.07384137
36	0xbd5a6e85	-0.053328056
37	0x3bbde9b5	0.0057956823
38	0xbcd76e00	-0.02629757
39	0x3d3ca457	0.046055164
40	0x3d0239cc	0.0317934
41	0xbc4bec07	-0.01244641
42	0xbcb485cf	-0.022036461
43	0xbda97eae	-0.08276115
44	0x3b9dde13	0.004817733
45	0xbd3fac2e	-0.046795063
46	0x3d23912f	0.03993338
47	0x3d6ac415	0.057315905
48	0x3d90bbc8	0.070670664
49	0xbd3eef1f	-0.046614762
50	0x3d27b5d1	0.040944878
51	0x3d9890ce	0.07449494
52	0x3d7deb3b	0.06199191
53	0x3d068baa	0.032848038
54	0xbc99de3b	-0.018782726
55	0xbc861043	-0.016365176
56	0xbb15d9bd	-0.0022865378
57	0xbd1e03e1	-0.038577918
58	0xbcc0be1a	-0.023528147
59	0xba38a355	-0.00070433813
60	0xbd184317	-0.037173357
61	0xbdc683aa	-0.09693082
62	0xbcd2598a	-0.025677461
63	0xbcdd5200	-0.02701664
64	0x3ca41832	0.020031068
65	0xbd6fb902	-0.058526047
66	0x3cd56573	0.026049351
67	0xbd021b29	-0.031764183
68	0xbd9d0f1e	-0.07668899
69	0x3d790ecb	0.060805123
70	0x3da9a711	0.082838185
71	0x3ae87df5	0.0017737733
72	0x3d1a3906	0.037652038
73	0x3b471110	0.003037516
74	0x3acb7900	0.0015523732
75	0x3d81c948	0.063372195
76	0x3aa5d7e8	0.0012652846
77	0x3c96404e	0.01834121
78	0xbccc7d6b	-0.024962148
79	0xbcd8592d	-0.02640971
80	0x3d1c2c8b	0.038128417
81	0x3ae14601	0.0017187
82	0x3d9041e7	0.0704382
83	0x3d1ca97b	0.038247567
84	0xbd556157	-0.052094784
85	0x3d9361c7	0.07196384
86	0x3cf752ff	0.030190943
87	0x3dd2b1d7	0.102878265
88	0x3d5807fa	0.052741982
89	0xbcdc9719	-0.026927518
90	0x3d1ebf92	0.038756914
91	0x3d86d386	0.06583314
92	0x3d7ef769	0.062247667
93	0xbcb7c70f	-0.022433786
94	0x3c3aa1b1	0.011391089
95	0x3b9247a1	0.0044641052
96	0x3d9bb609	0.0760308
97	0x3d8d5061	0.06900097
98	0x3c65f26d	0.01403485
99	0xbbb77733	-0.0055989265
100	0x3ba7af21	0.0051173125
101	0xbba21ff4	-0.0049476568
102	0x3da07f9b	0.07836839
103	0x3cc897fa	0.02448653
104	0xbd0ecdfc	-0.03486441
105	0x3d877be1	0.06615425
106	0x3cd94066	0.026519965
107	0xbd43e2b9	-0.04782364
108	0x3bec2e57	0.0072076726
109	0xbd09e2a2	-0.0336634
110	0xbd7d4947	-0.06183746
111	0x3a705c3d	0.0009169018
112	0x3d33cadc	0.043894634
113	0x3d6b1c3b	0.05739997
114	0xbd859df9	-0.065242715
115	0x3c8a6e88	0.016898409
116	0x3d3f09a0	0.04664004
117	0xbdad973a	-0.0847611
118	0x3d756972	0.059915014
119	0xbd06dfbc	-0.032928213
120	0xbd1644f9	-0.03668687
121	0x3d4a9436	0.04945775
122	0x3b1689fa	0.0022970424
123	0x3a5396b7	0.00080714695
124	0xbcd0eb82	-0.025502924
125	0xbde3f589	-0.111308165
126	0x3d1f7375	0.038928468
127	0x3de0c432	0.10974921
128	0xbd9b9e63	-0.07598569
129	0xbe64d7f8	-0.2234801
130	0xbdeeeaee	-0.11665903
131	0x3d651ee7	0.055937674
132	0xbcd9bd04	-0.026579387
133	0xbde3a410	-0.11115277
134	0x3cfaaa5f	0.030598817
135	0x3c6ec299	0.014572763
136	0xbb2d00ca	-0.0026398175
137	0x3cf98e0f	0.030463247
138	0xbbcee8c0	-0.006314367
139	0xbd4524fa	-0.048130967
140	0xbd309fe3	-0.04312123
141	0xbab39e5e	-0.0013703813
142	0xbd35cc76	-0.044384442
143	0x3d51a07d	0.051178444
144	0x3d65ee72	0.056135602
145	0x3d967acd	0.07347641
146	0x3d1a83b0	0.037723243
147	0x3da25ca7	0.07927828
148	0x3c3350b5	0.010944535
149	0x3c4cf9a9	0.0125106955
150	0xbbc59ef4	-0.0060309116
151	0x3c8c6fa6	0.017143082
152	0xbda95f94	-0.08270183
153	0x3c346997	0.011011503
154	0xbcee7368	-0.029107764
155	0x3d437987	0.04772332
156	0x3c8ec8ef	0.017429797
157	0xbd3cd979	-0.046105836
158	0xbc4bb6a6	-0.0124336835
159	0x3d8fc594	0.07020107
160	0x3c7de1c0	0.0154957175
161	0xbc8d7df7	-0.017271979
162	0x3c8ba631	0.01704702
163	0xbd50c13a	-0.050965525
164	0x3d801304	0.06253627
165	0xbccad070	-0.024757594
166	0x3cb21f95	0.021743575
167	0x3d58e6db	0.052954536
168	0x3d2f2bb5	0.04276629
169	0x3d0d8d23	0.034558427
170	0x3dad338e	0.08457099
171	0x3b3c3256	0.0028716526
172	0x3d96567f	0.073407166
173	0xbd55b6b9	-0.05217621
174	0xbd4dd39b	-0.05025063
175	0xbdaa4ff9	-0.08316035
176	0x3d7726f7	0.060339894
177	0xbcb62e23	-0.022238797
178	0xbbf3a901	-0.0074359183
179	0x3d9820e7	0.074281506
180	0x3d49a2d2	0.049227543
181	0x3d845eed	0.06463418
182	0x3e097863	0.1342483
183	0x3b31be9a	0.0027121664
184	0x3d2758b0	0.040856063
185	0xbcf48b37	-0.029851539
186	0x3c5e0d37	0.013552955
187	0xbc81bef9	-0.015838133
188	0x3d651f9f	0.05593836
189	0x3d249962	0.04018534
190	0xbc833414	-0.016016044
191	0xbc6953a2	-0.014241131
192	0xbd1da6b9	-0.038489077
193	0xbd88cf56	-0.06680171
194	0x3c16ab86	0.009196168
195	0xbc0fcb31	-0.008776472
196	0x3d85278b	0.06501683
197	0x3d09c57f	0.033635613
198	0x3d5ba94c	0.05362825
199	0xbd8fe732	-0.07026519
200	0x3ba98e25	0.0051744157
201	0x3a9a5048	0.0011773193
202	0xbd90c90b	-0.07069596
203	0xbc9bd557	-0.019022627
204	0x3ab7663c	0.001399226
205	0xbcbdd7f7	-0.02317427
206	0x3d142c6c	0.036175177
207	0x3da747fb	0.08168026
208	0xbd9b14ce	-0.075723276
209	0xbce895c6	-0.02839173
210	0xbd7e30a1	-0.062058095
211	0x3d9da6f9	0.07697863
212	0xbc81749e	-0.015802678
213	0xbddbda08	-0.107349455
214	0x3c5bb986	0.013410931
215	0x3db1fc54	0.08690706
216	0x3d045d26	0.032315396
217	0xbdb21ca9	-0.08696873
218	0x3d03a9c8	0.032144338
219	0xbd8919a1	-0.066943415
220	0xbd0d3760	-0.034476638
221	0xbd19baeb	-0.037531774
222	0xbdaaa1de	-0.08331655
223	0xbdb81fd3	-0.08990445
224	0x3d2a41fe	0.04156684
225	0x3d01541c	0.031574354
226	0x3b84da13	0.004054317
227	0xbced9a18	-0.029004142
228	0x3cb38165	0.021912286
229	0xbcc07562	-0.023493472
230	0x3d69134c	0.05690317
231	0xbc635736	-0.013875773
232	0xbd686f00	-0.056746483
233	0x3d817840	0.06321764
234	0xbd07ce5a	-0.033155777
235	0x3d19dccb	0.03756408
236	0xbc8ecfca	-0.017433066
237	0xbd5af599	-0.053456876
238	0xbc896601	-0.016772272
239	0xbd8338e7	-0.06407338
240	0x3d467785	0.048453826
241	0x3cc2a9b9	0.02376257
242	0xbc10a78a	-0.008829007
243	0x3c979c97	0.018507285
244	0x3ce5b388	0.028039709
245	0xbbf15d31	-0.0073658456
246	0x3d2eb932	0.042657085
247	0xbd7a6ebe	-0.06114077
248	0xbd668e63	-0.056288134
249	0x3c9807f9	0.01855849
250	0xbc972ce2	-0.018454019
251	0x3c81efe6	0.015861463
252	0x3d850e7b	0.064969026
253	0x3cf09aee	0.029370751
254	0x3bf0e4b6	0.007351483
255	0x3a2e70d0	0.00066543836

layers.0.bias f4 [32]
0	0xbe14715f	-0.14496373
1	0xbe2ade1b	-0.16686289
2	0xbe6a650c	-0.22890109
3	0xbe41fa33	-0.189431
4	0xbe4b5196	-0.19855341
5	0xbe76afeb	-0.24090545
6	0xbe8cff08	-0.27538323
7	0xbe1fa516	-0.15590319
8	0xbe28e9f1	-0.16495492
9	0xbe401040	-0.18756199
10	0xbeb423b3	-0.35183486
11	0xbe395dea	-0.18102232
12	0xbd9f7f2f	-0.0778793
13	0xbded0d4a	-0.115748
14	0xbeb5e2fc	-0.35524738
15	0xbe0fee57	-0.14055763
16	0xbe3d5a73	-0.18491535
17	0xbdf9e0af	-0.12201058
18	0xbdb0e6e2	-0.086377874
19	0xbe18a2c9	-0.14905848
20	0xbe578cb9	-0.21049775
21	0xbe4ce58c	-0.2000944
22	0xbe84009a	-0.2578171
23	0xbe81e3fd	-0.25369254
24	0xbe0e6657	-0.13906227
25	0xbe2e3708	-0.1701318
26	0xbd81f5af	-0.063456886
27	0xbe1ac3ff	-0.15113829
28	0xbe7ee701	-0.24892808
29	0xbe82c0c5	-0.25537696
30	0xbe4f1697	-0.20223461
31	0xbde87e27	-0.11352187

layers.3.weight f4 [64, 32]
0	0xbe02d285	-0.1277562
1	0xbe40f514	-0.1884349
2	0xbbe4ab42	-0.0069784233
3	0x3cbf1546	0.023325574
4	0xbe2701ca	-0.16309276
5	0x3de5be3d	0.11217926
6	0x3e7bbe7f	0.24584387
7	0x3df3ff4b	0.11913928
8	0x3bda3d92	0.006660172
9	0x3e11dc16	0.14244112
10	0xbe76fddd	-0.24120279
11	0xbdc00ff1	-0.093780406
12	0x3d0fc5ec	0.035100862
13	0xbd369e8e	-0.044584803
14	0x3e87ea00	0.26545715
15	0xbe8d2d91	-0.27573827
16	0xbe310ea8	-0.17290747
17	0x3dfdee1c	0.123989314
18	0x3da5b48d	0.08091078
19	0x3df96cb9	0.1217894
20	0xbd0cddf8	-0.034391373
21	0x3d0e3e10	0.034727156
22	0x3d259796	0.040427767
23	0x3e55cfdc	0.20880073
24	0x3de29ab2	0.11064662
25	0xbc08e9f8	-0.008356564
26	0x3d07ce0c	0.033155486
27	0x3cbc286a	0.02296849
28	0x3e2041ba	0.15650073
29	0x3c70847c	0.014680024
30	0x3d73ab2e	0.05948942
31	0x3dfd6e4f	0.12374555
32	0xbe82bea4	-0.25536072
33	0xbdc7780c	-0.09739694
34	0xbd1c541b	-0.038166147
35	0x3cd96bb0	0.026540607
36	0x3e497d52	0.19676712
37	0x3c7cf014	0.015438098
38	0x3e1ed742	0.15511802
39	0x3dc52813	0.09626784
40	0xbdd8ba3c	-0.105823964
41	0x3de4dc08	0.1117478
42	0xbe40960c	-0.18807238
43	0xbe52843b	-0.20558254
44	0xbd5bb464	-0.05363883
45	0xbcc44bf4	-0.023961999
46	0x3d922069	0.07135088
47	0x3d9bf542	0.076151386
48	0xbd9c048c	-0.07618055
49	0xbd84c128	-0.06482154
50	0xbe788c60	-0.24272299
51	0xbe2290fd	-0.15875621
52	0xbb835369	-0.004007746
53	0x3ded6c9c	0.11592981
54	0x3e3d7a9c	0.18503803
55	0x3dd30c82	0.1030512
56	0x3d880249	0.06641061
57	0x3d115714	0.035483435
58	0xbe4f9d73	-0.20274906
59	0x3d455986	0.04818108
60	0x3e3ba69e	0.18325278
61	0xbddb2cd9	-0.107019134
62	0xbd47260a	-0.04862026
63	0x3e392e15	0.18083985
64	0x3ccb6ff5	0.024833659
65	0xbe98d6c0	-0.2985134
66	0x3d9b6e4d	0.075893976
67	0x3c82b143	0.015953666
68	0x3ddb305e	0.10702585
69	0x3e75e9fd	0.2401504
70	0x3df0c3ff	0.11756133
71	0xbdb0a056	-0.08624332
72	0x3be09f65	0.006854939
73	0x3c98c11f	0.018646775
74	0xbcf0fb92	-0.029416833
75	0x3cc7c32c	0.024385057
76	0xbcf1df02	-0.029525284
77	0xbdcea7f1	-0.10090626
78	0x3de20102	0.110353485
79	0x3de037ef	0.109481685
80	0xbe89771a	-0.2684868
81	0x3e03b961	0.12863685
82	0x3c49ff23	0.012328896
83	0x3dd80094	0.10546985
84	0xbeb5eede	-0.35533804
85	0x3e78b7e1	0.24288894
86	0x3d9a0244	0.075199634
87	0xbcc48b5c	-0.023992233
88	0x3dea3a5d	0.11436913
89	0x3da01df1	0.07818211
90	0xbcb9cf6b	-0.022681912
91	0xbc6b9a9c	-0.0143801235
92	0x3e20796f	0.15671323
93	0x3cfe4cf7	0.03104256
94	0xbda0748b	-0.07834729
95	0x3c2c46b2	0.010514902
96	0xbdd43dee	-0.10363375
97	0x3e612484	0.21986586
98	0xbda8f371	-0.08249558
99	0xbe488416	-0.19581637
100	0xbe10b558	-0.14131677
101	0x3ea2973e	0.31756014
102	0xbdb3c958	-0.08778638
103	0xbdbfc41c	-0.09363577
104	0x3daa59cf	0.08317911
105	0x3db682c6	0.08911662
106	0x3e279581	0.16365625
107	0xbe51a39a	-0.20472565
108	0x3dc5c10a	0.0965596
109	0xbd27ee1d	-0.040998567
110	0x3e850483	0.25980005
111	0x3d2e8947	0.042611387
112	0x3d28871a	0.041144468
113	0xbc344293	-0.011002201
114	0xbe06f35b	-0.1317877
115	0x3e0dc07d	0.1384296
116	0xbe3c8c33	-0.18412857
117	0xbd02378a	-0.031791247
118	0xbe39bfba	-0.18139544
119	0xbdfa1f19	-0.12212963
120	0xbde6c32f	-0.11267697
121	0xbd641217	-0.055681314
122	0xbdc9f3dd	-0.09860966
123	0x3dd8629e	0.10565685
124	0x3d73e0e5	0.059540648
125	0x3e04e66f	0.12978528
126	0x3de3f995	0.11131588
127	0x3ca41c48	0.020033017
128	0x3c87bf16	0.016570609
129	0x3db179de	0.086658224
130	0xbe12db7f	-0.14341544
131	0xbd38f93b	-0.04515956
132	0xbe666855	-0.22500737
133	0x3e5ae09a	0.21374741
134	0x3e4abc2d	0.19798346
135	0xbdb48498	-0.08814353
136	0x3dbfab11	0.093588
137	0x3d7e0bff	0.06202316
138	0x3d975a19	0.07390232
139	0xbd938983	-0.07203963
140	0xbdda782c	-0.10667452
141	0xbb3df3a2	-0.0028984328
142	0x3d81504b	0.06314143
143	0x3dd96a16	0.106159374
144	0xbdc88333	-0.09790649
145	0xbe0f4135	-0.13989718
146	0xbe0d561a	-0.13802376
147	0x3e283453	0.1642621
148	0xbe04a745	-0.12954433
149	0x3d123680	0.035696507
150	0xbe3cc641	-0.18435003
151	0x3c62a3ea	0.0138330255
152	0xbcf2e562	-0.029650394
153	0xbdf4305b	-0.119232856
154	0x3d675b38	0.056483477
155	0x3b201755	0.002442797
156	0x3e56ff33	0.20995788
157	0x3e896d77	0.26841328
158	0x3de7c6bc	0.113172024
159	0xbd9bf1ac	-0.076144546
160	0xbd00ad51	-0.031415287
161	0xbc2cfa17	-0.010557673
162	0x3d561d30	0.05227393
163	0xbdc0009f	-0.093751185
164	0x3e0f4e2c	0.13994664
165	0x3e1b41c7	0.15161811
166	0x3ea0d9d4	0.3141619
167	0x3e171210	0.14752984
168	0x3da74dc5	0.0816913
169	0x3cf2d673	0.029643273
170	0xbc98f8e8	-0.018673375
171	0x3e13861c	0.14406627
172	0x3d83280f	0.06404125
173	0x3c4f3e72	0.0126491655
174	0x3e95add6	0.2923419
175	0x3d6d3f7e	0.05792188
176	0x3d25dfca	0.040496625
177	0x3d3c039c	0.04590188
178	0x3d8849ee	0.06654726
179	0x3cca6a0f	0.024708776
180	0x3df3bae5	0.11900882
181	0x3e8a03c5	0.26956
182	0x3a5e5e78	0.0008482705
183	0xbe0ada2a	-0.13559785
184	0xb9bc019c	-0.00035859353
185	0x3dd99166	0.10623436
186	0x3d01d4dc	0.03169714
187	0x3c2da484	0.010598306
188	0xbc68d565	-0.0142110335
189	0x3d9e6c4e	0.07735501
190	0x3d3284be	0.043583624
191	0x3e219785	0.15780456
192	0x3dee00fe	0.11621283
193	0x3d4b3f31	0.04962081
194	0x3e0e6531	0.13905789
195	0xbe130cbb	-0.14360325
196	0xbdbfa5cc	-0.09357795
197	0x3d4f7ffd	0.05065917
198	0x3e7cb9c9	0.24680246
199	0xbda5576a	-0.080733135
200	0x3de7e27e	0.11322497
201	0xbd9ba572	-0.075999156
202	0x3e8864d3	0.26639423
203	0x3e19dcb8	0.15025604
204	0xbe18a6c0	-0.1490736
205	0xbe6b2b4c	-0.22965735
206	0xbea33ea0	-0.31883717
207	0xbeced859	-0.40399435
208	0xbe06d2b8	-0.1316632
209	0x3d9929b7	0.074786596
210	0xbe06b234	-0.13153917
211	0xbb548332	-0.0032426831
212	0x3e02f0b4	0.12787133
213	0xbdc62d64	-0.09676626
214	0xbcc72fb2	-0.024314735
215	0x3dfa6887	0.12226968
216	0xbe19e4ac	-0.15028638
217	0x3e02a638	0.1275872
218	0xbdc979b7	-0.098376684
219	0xbde9ad37	-0.11409991
220	0xbd703cc3	-0.058651697
221	0xbd85ad71	-0.06527222
222	0x3d8abfd3	0.06774869
223	0x3d499691	0.049215857
224	0x3dd22819	0.10261554
225	0x3e1c248f	0.15248321
226	0x3df4f6e1	0.11961151
227	0xbc99b83c	-0.018764608
228	0xbce04606	-0.02737714
229	0x3d9fd678	0.078045785
230	0x3e5ade89	0.21373953
231	0xbdfa40a5	-0.12219361
232	0x3dc39bfa	0.095512345
233	0x3cafafd3	0.021446144
234	0x3d9b44cf	0.075814836
235	0x3ccd3cc2	0.025053386
236	0x3d591fe6	0.053008936
237	0xbceb801a	-0.028747607
238	0x3e76abfb	0.24089043
239	0x3dd4001b	0.103515826
240	0xbcb88e4e	-0.022528794
241	0x3d721eaf	0.059111293
242	0xbe234d3a	-0.15947428
243	0x3deee331	0.11664427
244	0x3def5313	0.11685767
245	0x3e430601	0.19045259
246	0x3c54a92b	0.012979786
247	0x3e407ad6	0.18796858
248	0x3d2a4bc1	0.04157615
249	0xbe001922	-0.12509587
250	0x3d2031d6	0.039110027
251	0xbc0b209e	-0.008491663
252	0xbe58899c	-0.21146244
253	0x3e5fd0ab	0.21856944
254	0x3decb715	0.115583576
255	0x3daa2545	0.0830789

layers.3.bias f4 [64]
0	0xb9e90619	-0.00044445766
1	0xb9a1feb9	-0.00030898096
2	0x351e4428	5.8958767e-07
3	0x39bac84c	0.00035625917
4	0xb98a356a	-0.00026361208
5	0xb8f33de9	-0.000115986746
6	0xb994592f	-0.00028295207
7	0xb9d5c5ce	-0.00040773902
8	0x386d1beb	5.6531204e-05
9	0xb8dd3f8d	-0.000105499385
10	0xb9a04f95	-0.0003057687
11	0xb92d2f57	-0.00016516201
12	0xb9bfdfb9	-0.00036597045
13	0xba002498	-0.00048882654
14	0xb92bb3a7	-0.00016374757
15	0xb85b4a52	-5.2282885e-05
16	0xb7dcb916	-2.6312231e-05
17	0xb8195200	-3.655441e-05
18	0xba2353a4	-0.000623042
19	0x3a0f7a98	0.0005473285
20	0xb99ee4c9	-0.00030306567
21	0xb90925cf	-0.00013079423
22	0x392c200e	0.0001641514
23	0xb7b0e50b	-2.1087491e-05
24	0x391672b9	0.00014347852
25	0xb91d37ba	-0.00014993447
26	0xba55b512	-0.0008152287
27	0xb9a1490c	-0.00030762737
28	0xb8cd68f3	-9.79471e-05
29	0xb94df47f	-0.00019641405
30	0x399471a1	0.0002831342
31	0x39011538	0.00012310303
32	0xbbb4b7df	-0.005515083
33	0xb994750e	-0.00028315972
34	0xb94aab16	-0.00019327956
35	0xbb1a88b0	-0.0023580007
36	0x398142e0	0.00024654623
37	0xb90bcc3e	-0.00013332159
38	0xb8ef9a1a	-0.00011425112
39	0xb87b978b	-5.99842e-05
40	0xbbedb0ae	-0.007253728
41	0xb9accc12	-0.0003295844
42	0xb946a5bd	-0.00018944494
43	0xb9f6e095	-0.00047088103
44	0xba32991c	-0.0006812976
45	0xb87fbdcc	-6.09735e-05
46	0xb7917f26	-1.7344555e-05
47	0xb9acd4ef	-0.00032965044
48	0xb91e3a3d	-0.0001508975
49	0xb91ac9f2	-0.00014761815
50	0xb8b25eeb	-8.505381e-05
51	0xb886f601	-6.43544e-05
52	0xb9b43852	-0.00034374237
53	0xba909273	-0.0011029973
54	0xb9785039	-0.00023681008
55	0xb99ad2b4	-0.00029530155
56	0x39bcc9f1	0.00036008612
57	0xb9735438	-0.0002320566
58	0x39be5b22	0.00036307523
59	0xbc87d43b	-0.016580692
60	0x39fdc814	0.0004840499
61	0xb9100bda	-0.00013737325
62	0xb9b09cdb	-0.00033686202
63	0xba6a4852	-0.0008937168

layers.6.weight f4 [64, 64]
0	0x3d6dff19	0.05810461
1	0x3d667eab	0.056273144
2	0x3e3846ef	0.17995809
3	0x3cf36496	0.029711049
4	0x3e5d3802	0.21603397
5	0x3d87f5ad	0.06638656
6	0x3e46f6f8	0.19430149
7	0x3d7e5851	0.062095944
8	0x3e23bc25	0.1598974
9	0xbd38753d	-0.045033682
10	0x3ce2ac14	0.027669944
11	0x3dc3986e	0.09550558
12	0x3d8e5a6c	0.0695084
13	0x3c8a7029	0.016899185
14	0x3e0cc19d	0.13745733
15	0x3e241a01	0.16025545
16	0x3e10df18	0.14147604
17	0x3db6af50	0.08920157
18	0x3d0c57fc	0.034263596
19	0xbdb72e9a	-0.089444354
20	0x3dae456e	0.085093364
21	0x3d1a6c5f	0.037701007
22	0x3d3db2ec	0.04631321
23	0x3d5e4b6c	0.054271147
24	0x3d346799	0.04404411
25	0x3e29977a	0.1656169
26	0x3d4f8c92	0.050671168
27	0x3e00b7e1	0.12570144
28	0x3e184d60	0.14873266
29	0x3d8f0780	0.069838524
30	0x3d453e1e	0.048154943
31	0x3d051389	0.032489333
32	0x3e22e3bb	0.15907185
33	0x3e1e1a16	0.15439638
34	0x3d5d8d5a	0.05408988
35	0x3d939160	0.072054625
36	0xbc30d00e	-0.010791792
37	0x3d85a9f9	0.0652656
38	0x3da2e1e2	0.0795324
39	0x3e83685c	0.25665557
40	0x3e7bdd8c	0.24596232
41	0x3e3ea300	0.18616867
42	0x3d9fcf1d	0.078031756
43	0x3dd53b22	0.10411669
44	0x3e53e46c	0.20692605
45	0x3e00bf84	0.12573057
46	0x3d2d1371	0.04225487
47	0x3e0d1343	0.13776879
48	0x3e115876	0.14193901
49	0x3e4321c5	0.19055851
50	0x3c349df6	0.011023989
51	0x3d17ed0e	0.037091307
52	0x3dd55cd4	0.10418096
53	0x3e374bdf	0.17900036
54	0x3de359cf	0.11101114
55	0x3e2c7351	0.16840865
56	0x3e1083ce	0.1411278
57	0x3dadc644	0.08485082
58	0x3c87ab91	0.016561301
59	0x3e5ba082	0.21447948
60	0x3dcf9af0	0.10136974
61	0x3da7b1e9	0.081882305
62	0x3e80151c	0.25016105
63	0x3dfc17a7	0.12309199
64	0x38dea2a6	0.000106160805
65	0xbd318887	-0.043343093
66	0xbda27c94	-0.07933918
67	0x3d7723a8	0.06033674
68	0x3e15be93	0.1462348
69	0x3d4102a9	0.047121678
70	0xbde71d99	-0.11284942
71	0xbc7f4de3	-0.0155825345
72	0x3e29c0f7	0.16577516
73	0x3dfde542	0.12397243
74	0x3e10980a	0.14120498
75	0xbd598074	-0.053101018
76	0xbcda5650	-0.026652485
77	0xbca26eba	-0.01982819
78	0xbd7ee1e1	-0.062227134
79	0xbdbbee6d	-0.091763355
80	0x3cc402b5	0.023927072
81	0xbdc458d4	-0.09587255
82	0x3d93b740	0.072126865
83	0xbd5ad667	-0.053427126
84	0xbd43daf8	-0.047816247
85	0xbdb0373f	-0.08604287
86	0x3de26bb4	0.11055699
87	0xbd02a392	-0.031894274
88	0xbdd92b4a	-0.1060396
89	0xbdb951c2	-0.09048797
90	0xbd58a042	-0.05288721
91	0xbd244aa7	-0.040110257
92	0x3d2333dd	0.039844383
93	0xbda2626e	-0.0792893
94	0xbcd58cf3	-0.026068186
95	0xbd4fe65e	-0.050756805
96	0x3b64b4c4	0.0034897784
97	0x3da67f91	0.081298
98	0x3d896bcc	0.06710014
99	0x3e4835ad	0.19551726
100	0xbd4ab89b	-0.04949246
101	0x3decd952	0.11564888
102	0xbe0690c5	-0.13141163
103	0xbd2e52ce	-0.042559437
104	0x3e1137fa	0.1418151
105	0xbd81dfff	-0.06341552
106	0x3dc4bbd6	0.09606139
107	0x3d1a5a4f	0.03768378
108	0x3c40dd5b	0.011771525
109	0xbd30b4e9	-0.04314128
110	0x3dca8404	0.09888461
111	0xbd95f490	-0.07322037
112	0x3d088fc4	0.03334023
113	0x3e22d9bb	0.1590337
114	0x3dbea448	0.09308678
115	0xba825b47	-0.0009945416
116	0x3c449565	0.011998509
117	0xbda3c695	-0.07996861
118	0xbd389153	-0.045060467
119	0x3c060d61	0.008181901
120	0xbbbeb0d0	-0.0058194175
121	0x3db80872	0.08985986
122	0x3dfe64f2	0.124215975
123	0x3cd1cd5d	0.02561062
124	0x3dacc33c	0.084356755
125	0x3e0253d6	0.12727293
126	0xbc752839	-0.014963203
127	0xbd8575ba	-0.06516595
128	0x3cd4553e	0.025919553
129	0x3e651460	0.22371054
130	0x3cca82d5	0.024720589
131	0x3e07ca5f	0.13260792
132	0x3e2eeeea	0.17083326
133	0x3dc5eb9d	0.0966408
134	0x3e03d081	0.12872507
135	0x3d576401	0.052585606
136	0x3e45b06b	0.1930558
137	0x3d4fb9b3	0.050714206
138	0x3e2a2424	0.16615349
139	0x3e12b6ec	0.14327592
140	0x3b5a2f5c	0.0033292389
141	0x3db6635f	0.08905672
142	0x3e3b2878	0.18277156
143	0xbc0a9b0a	-0.008459816
144	0x3c27d944	0.010244671
145	0x3dda378d	0.10655127
146	0x3cf531f1	0.02993104
147	0xbcc1ea7c	-0.023671381
148	0x3d7bc31d	0.06146537
149	0x3d2f3049	0.042770658
150	0x3e05e46e	0.1307542
151	0x3d97d510	0.07413685
152	0x3d1444e4	0.03619851
153	0x3e47d132	0.19513395
154	0x3dd49c7c	0.103814095
155	0x3e683f6e	0.22680447
156	0x3db7c829	0.089737244
157	0x3c3d4c01	0.011553765
158	0xbb64292f	-0.0034814586
159	0x3e15f673	0.14644794
160	0x3df3e7c9	0.11909444
161	0x3db25044	0.08706716
162	0x3d6b9347	0.0575135
163	0x3bb24f77	0.005441602
164	0x3c07b7ce	0.008283569
165	0x3e421551	0.18953444
166	0x3d934075	0.071900286
167	0x3e811951	0.25214627
168	0x3e3fb61e	0.18721816
169	0x3daef32b	0.08542474
170	0x3cee7f5a	0.02911346
171	0x3c18c8af	0.00932519
172	0x3e667c4a	0.2250835
173	0x3d036333	0.032077026
174	0x3d3d9647	0.046285894
175	0x3e1f4f54	0.15557605
176	0x3d312711	0.043250147
177	0x3e17e986	0.14835176
178	0x3e0277fb	0.12741081
179	0x3c1f98a2	0.00974098
180	0x3da8adf9	0.08236308
181	0x3dcb7b05	0.099355735
182	0x3e6859de	0.22690532
183	0x3dccce02	0.1000023
184	0x3e0f930e	0.1402094
185	0x3ccf956a	0.0253398
186	0x3e4c9c90	0.19981599
187	0x3dc40c7a	0.09572692
188	0x3e0018d0	0.12509465
189	0xbc95716d	-0.018242562
190	0x3e17247d	0.14760013
191	0x3ccfaf5c	0.025352173
192	0x3db0a826	0.08625822
193	0x3d4b106e	0.049576215
194	0x3d375a7b	0.044764023
195	0x3e067eb4	0.13134271
196	0x3dee1707	0.11625486
197	0xbdb96190	-0.09051812
198	0x3e34a5f9	0.17641439
199	0x3c1c4072	0.009536849
200	0x3dd9868a	0.106213644
201	0xbdb4799c	-0.08812258
202	0x3d843313	0.06455054
203	0x3e0a6b74	0.13517553
204	0xbcc1715a	-0.02361362
205	0x3d6e32b5	0.058153827
206	0x3e1014eb	0.1407048
207	0x3d276c14	0.040874556
208	0x3dfc26af	0.12312066
209	0x3dc4df82	0.09612943
210	0x3e26580e	0.16244528
211	0x3d684d83	0.056714546
212	0x3e0486ae	0.12942001
213	0xbcdbefe4	-0.026847787
214	0xbc8332ed	-0.016015494
215	0xbd3b9d66	-0.045804404
216	0xbd4e2c04	-0.050334945
217	0x3c8bd9d9	0.017071651
218	0xbd8b1b6f	-0.06792342
219	0x3d5e2195	0.054231245
220	0x3e0b0407	0.13575755
221	0x3dc16912	0.09443869
222	0xb6d56552	-6.35969e-06
223	0x3d34725d	0.044054378
224	0x3e1347ff	0.14382933
225	0x3d5fd751	0.0546487
226	0x3d36b18a	0.04460291
227	0x3d275b86	0.040858768
228	0x3d9a90fa	0.07547183
229	0x3e1d2e2a	0.15349641
230	0xbcc4b4e4	-0.024012037
231	0xbb6d3c44	-0.0036199251
232	0x3e5de8dd	0.21670862
233	0xbc3646cd	-0.011125279
234	0x3dc8a3b7	0.09796851
235	0x3dfcd0d8	0.12344521
236	0x3e277fdf	0.16357373
237	0xbcf18b29	-0.029485302
238	0x3c5a4ceb	0.013324003
239	0xbc07510a	-0.008259067
240	0x3d9c7047	0.07638603
241	0x3d80e554	0.06293741
242	0xbdaa9c45	-0.08330587
243	0x3dc6890f	0.096941106
244	0x3e47ec5a	0.19523755
245	0x3dc0643d	0.09394119
246	0xbc484800	-0.012224197
247	0x3da1ee32	0.0790676
248	0x3e05eddc	0.13079017
249	0x3dd1383c	0.10215804
250	0x3e1bf6c5	0.15230854
251	0x3cbc321c	0.022973113
252	0x3df858f1	0.12126339
253	0xbc30d75d	-0.010793534
254	0x3e610117	0.21973072
255	0x3b5c1843	0.0033583797

layers.6.bias f4 [64]
0	0x38dd477b	0.000105514155
1	0x3a2fef36	0.00067113654
2	0xba220e15	-0.0006181908
3	0x39ebb689	0.00044958692
4	0xb9d1dccc	-0.00040028093
5	0xb987cdcb	-0.00025902534
6	0xb90b9caf	-0.00013314442
7	0xb8a526ba	-7.8750265e-05
8	0xb88a8d26	-6.606644e-05
9	0xb9f418da	-0.00046557822
10	0xb97a0dea	-0.00023847041
11	0x3e81e5c1	0.253706
12	0xb9fd28a3	-0.00048286197
13	0xb972256b	-0.00023092858
14	0xba4c0086	-0.00077820604
15	0xb963e94c	-0.00021735317
16	0x3e033b12	0.12815502
17	0x3e137dc4	0.14403445
18	0x3937f4f5	0.00017543494
19	0x3bb0e82d	0.0053987713
20	0xb9017f67	-0.0001234986
21	0x3a4920cc	0.00076724286
22	0xb9ea55ed	-0.00044695978
23	0xb882f1c7	-6.2439176e-05
24	0x3990ecd3	0.00027642268
25	0x3dbc12e6	0.09183292
26	0x3b27f4a4	0.0025627995
27	0xb99b0bb0	-0.00029572612
28	0x3e36ca0b	0.17850511
29	0xba125060	-0.0005581435
30	0xba46b024	-0.00075793476
31	0x398fc9ba	0.00027425383
32	0xb99b5778	-0.00029629073
33	0xb7965c1c	-1.7924285e-05
34	0xba142b23	-0.000565218
35	0xb8ef87e9	-0.00011421723
36	0xb72fdbce	-1.048199e-05
37	0xb915d289	-0.00014288178
38	0x39b6a651	0.0003483766
39	0x3e6c5617	0.23079716
40	0xb9f272a2	-0.00046243245
41	0xba0e0219	-0.00054171827
42	0x39893292	0.00026168354
43	0x394f7056	0.00019782907
44	0xba2f53b3	-0.00066881924
45	0x3a297bf2	0.00064653077
46	0xb9ec5c53	-0.00045082215
47	0x3e0df9ae	0.13864776
48	0xb9d09e31	-0.00039790713
49	0x3a6ac984	0.000895642
50	0xb7ddafc2	-2.6427097e-05
51	0xb98a8452	-0.00026419997
52	0xb9e0e260	-0.00042893272
53	0x38c9ab60	9.616348e-05
54	0x3e715649	0.23568071
55	0x3e783afe	0.24241254
56	0xbc767737	-0.0150430715
57	0x3a40f507	0.00073607307
58	0xba397782	-0.0007074998
59	0x3e687c53	0.22703676
60	0xb9e23084	-0.00043142226
61	0xb74bfdcf	-1.2158837e-05
62	0xb98b9a44	-0.00026627083
63	0x3e394348	0.18092072

layers.9.weight f4 [32, 64]
0	0xbd5d90fe	-0.054093353
1	0xbd2ba0d5	-0.04190143
2	0xbda26158	-0.07928723
3	0xbd8387d6	-0.06422393
4	0x3e0cafa3	0.13738875
5	0x3d3bf9d8	0.045892566
6	0xbd036fb1	-0.03208894
7	0x3d85d7bb	0.06535288
8	0x3b3fb9e3	0.0029255084
9	0xbc94348b	-0.01809146
10	0x3d70bd0b	0.058774035
11	0xbcab3619	-0.02089982
12	0xbdeef068	-0.116669476
13	0x3e009e2b	0.12560336
14	0xbcd25997	-0.025677485
15	0x3dbe7e0d	0.09301386
16	0xbcf7ecc5	-0.030264268
17	0xbd866714	-0.06562629
18	0xbd3903cd	-0.04516964
19	0xbcbe3a1b	-0.023221066
20	0xbc1f3769	-0.009717801
21	0x3dbea093	0.09307971
22	0xbd1c4c66	-0.038158797
23	0xbbd0628e	-0.006359405
24	0x3dd28ffb	0.10281368
25	0x3d9e78dc	0.07737896
26	0x3d126eb1	0.035750095
27	0x3cdf84a8	0.027284935
28	0x3d8a021b	0.06738683
29	0x3d8a4cde	0.067529425
30	0x3de2c93d	0.110735394
31	0x3d03d175	0.032182176
32	0x3d6dcb3f	0.05805516
33	0xbd9c3aa3	-0.076283716
34	0x3de9df12	0.114195004
35	0x3e0ba2d8	0.13636339
36	0x3dee5c8f	0.11638748
37	0xbdee5080	-0.11636448
38	0x3a9a2de5	0.0011762945
39	0x3d9defaf	0.07711732
40	0x3d90e830	0.07075536
41	0xbd50c556	-0.050969444
42	0x3d5b5f37	0.0535576
43	0xbd7a85b5	-0.06116267
44	0x3d3b3dda	0.045713283
45	0xbdbd2f36	-0.092375204
46	0xbbea3eed	-0.0071486146
47	0xbd9764f2	-0.07392301
48	0x3dc15968	0.09440881
49	0xbd584518	-0.052800268
50	0x3de19335	0.11014406
51	0xbd377c35	-0.044796187
52	0x3d7ce407	0.0617409
53	0xbd731ed5	-0.059355576
54	0xbce7f1fd	-0.028313631
55	0x3d5b2b6d	0.05350821
56	0x3dcc0e25	0.09963635
57	0x3e083be2	0.13304093
58	0x3da16aca	0.078816965
59	0x3cb13915	0.021633664
60	0xbcc29e31	-0.023757072
61	0xbd89d63c	-0.06730315
62	0x3d18b5d4	0.03728278
63	0xbd45de46	-0.04830768
64	0xbf5232eb	-0.82108945
65	0xbecc033f	-0.39846227
66	0xbf22e161	-0.6362515
67	0xbea785ca	-0.3271926
68	0xbf1a15d0	-0.60189533
69	0xbf29e24f	-0.66360945
70	0xbf306d1a	-0.68916476
71	0xbf26e1ff	-0.6518859
72	0xbf1bba50	-0.60831165
73	0xbf28d827	-0.6595482
74	0xbf042a82	-0.5162736
75	0x3d26a424	0.04068388
76	0xbf2ea602	-0.6822206
77	0xbf1a09fb	-0.6017148
78	0xbf379851	-0.7171679
79	0xbeb3e2e8	-0.35134053
80	0x3c24ffdf	0.01007077
81	0xbd34d7e5	-0.044151206
82	0xbf090729	-0.5352655
83	0x3d92783a	0.07151838
84	0xbf0a4ad1	-0.5402041
85	0xbf363cc0	-0.7118645
86	0xbf4b68b9	-0.7945667
87	0xbf1e5532	-0.6184875
88	0xbefe47db	-0.49664196
89	0x3d2938aa	0.041313805
90	0xbf1675a7	-0.58773273
91	0xbf1e804f	-0.61914533
92	0xbd39227d	-0.045198906
93	0xbf2ee36b	-0.6831576
94	0xbf202226	-0.62552106
95	0xbf0d4c09	-0.55194145
96	0xbf5d1072	-0.8635322
97	0xbec710af	-0.38879916
98	0xbf1b6997	-0.6070799
99	0xbf2bc095	-0.6709073
100	0xbf1ccb2a	-0.61247504
101	0xbf1f773e	-0.62291324
102	0xbf04acb9	-0.51826054
103	0x3cdab05d	0.026695425
104	0xbf21934d	-0.6311539
105	0xbf3ca77c	-0.7369306
106	0xbed86759	-0.42266348
107	0xbf1c536d	-0.610648
108	0xbf29cb62	-0.6632596
109	0xbf266e8b	-0.65012425
110	0xbf41c4cb	-0.7569091
111	0x3c916c0e	0.01775172
112	0xbed28b1c	-0.41121757
113	0xbf28aedf	-0.6589183
114	0xbf2a5f1b	-0.6655137
115	0xbf5bde1c	-0.85885787
116	0xbf2d6fef	-0.6774892
117	0xbf236750	-0.6382952
118	0xbcd985ca	-0.026553053
119	0x3cc9a352	0.02461401
120	0xbc9e615c	-0.019333534
121	0xbf32340f	-0.69610685
122	0xbf2df226	-0.67947614
123	0xbd3275dd	-0.043569434
124	0xbf2e3bc7	-0.68059963
125	0xbf15c135	-0.58497936
126	0xbf1cf3c9	-0.61309487
127	0x3d16892c	0.03675191
128	0x3d179436	0.03700658
129	0x3de437fe	0.11143492
130	0x3d0fc4cb	0.035099786
131	0x3d514951	0.05109531
132	0xbbb2ccad	-0.005456528
133	0x3dfad019	0.12246723
134	0x3db90724	0.09034565
135	0x3d0c2565	0.03421535
136	0x3e00e5d6	0.12587675
137	0x3e018591	0.12648608
138	0x3d414972	0.047189184
139	0xbdb806ee	-0.08985697
140	0x3da5c80a	0.08094795
141	0x3bff7af0	0.0077966377
142	0x3db85896	0.090012714
143	0x3dc2b6e5	0.095075406
144	0xbd532c5c	-0.051555976
145	0x3bc58a08	0.0060284175
146	0x3e2aad32	0.16667631
147	0xbd841c77	-0.06450742
148	0x3e2c3b76	0.16819558
149	0x3adffec7	0.0017089479
150	0x3d712f4a	0.05888299
151	0xbd9cca73	-0.076558016
152	0xbd548755	-0.051886875
153	0xbcf4c0af	-0.029877035
154	0x3e0faafb	0.14030068
155	0x3d6354ec	0.05550091
156	0x3db110e9	0.086458035
157	0xbccc703b	-0.02495586
158	0xbd1d6454	-0.03842576
159	0x3c6962d5	0.014244755
160	0x3b3dc2ba	0.0028955177
161	0x3d804885	0.06263832
162	0xbd76d52a	-0.060261883
163	0x3de78fd9	0.11306734
164	0xbcbfecb1	-0.023428293
165	0x3cca1619	0.02466874
166	0x3dc0edca	0.09420355
167	0xbd86652f	-0.06562268
168	0x3df0d2a8	0.117589295
169	0xbd872797	-0.06599348
170	0xbd615631	-0.05501384
171	0x3d818cb2	0.063256636
172	0xbc551363	-0.01300511
173	0x3dcbd983	0.099535964
174	0xbc67e568	-0.014153816
175	0xbc3bb7f6	-0.011457434
176	0xbd7616e7	-0.060080435
177	0x3dc9e17d	0.098574616
178	0xbd754d4a	-0.05988816
179	0xbdb6ead5	-0.089315094
180	0xbd9b91bc	-0.07596156
181	0x3cefd427	0.029275967
182	0xbda5ba6f	-0.080922
183	0xbca7a348	-0.0204636
184	0xbd5afda9	-0.053464565
185	0xbc50e21c	-0.012749221
186	0xbd733c70	-0.05938381
187	0x3df01adb	0.11723872
188	0xbd661292	-0.056170054
189	0xbd1be252	-0.038057633
190	0x3ded526a	0.11587985
191	0xbd65486d	-0.055977274
192	0xbd78fa14	-0.060785368
193	0x3dd0cd0a	0.10195358
194	0xbd34fe08	-0.044187576
195	0x3e08fdea	0.1337811
196	0x3d433112	0.04765422
197	0x3d922f0e	0.07137881
198	0xbd49e281	-0.049288277
199	0xbd83caad	-0.06435142
200	0x3d8773d7	0.066138916
201	0x3d2ab3a1	0.041675214
202	0xbdad7872	-0.08470239
203	0xbd0a4d39	-0.03376505
204	0x3d3bb50a	0.04582695
205	0x3dde41d1	0.10852397
206	0xbc7ef422	-0.0155611355
207	0x3d7ed214	0.062212065
208	0x3aed2547	0.0018092775
209	0xbdc4314a	-0.09579714
210	0x3d117cdd	0.03551947
211	0x3e17508b	0.14776818
212	0x3bce2e70	0.006292157
213	0x3bfaa1a8	0.0076486655
214	0xbda0cc32	-0.07851447
215	0x3d07ff14	0.033202246
216	0xbdb05d4c	-0.08611545
217	0xbdba93e5	-0.0911024
218	0x3db6ae5d	0.08919976
219	0xbc4d94fa	-0.012547726
220	0xbd624e33	-0.055250358
221	0xbda65d1a	-0.081232265
222	0x3d157915	0.036492426
223	0x3e2b4374	0.1672495
224	0x3c4405ed	0.011964303
225	0x3e21ec18	0.15812719
226	0x3bcf532b	0.006327053
227	0x3e2b1f3b	0.16711132
228	0xbd5acbe3	-0.053417098
229	0xbc89fa1f	-0.0168429
230	0x3e3ff2ad	0.18744917
231	0x3d584e0e	0.052808814
232	0xbce60d10	-0.0280824
233	0x3d3d037f	0.046145912
234	0x3e30b877	0.17257868
235	0x3dc45a0e	0.09587489
236	0xbd84f7cb	-0.06492575
237	0xbdaad4dc	-0.08341381
238	0x3d59a52b	0.053136032
239	0xbc9f9732	-0.019481275
240	0x3e03f55b	0.12886564
241	0x3e14e183	0.14539151
242	0xbdeffa26	-0.11717634
243	0xbc59b209	-0.013287076
244	0xbd95c519	-0.07312984
245	0x3de7b779	0.113142915
246	0x3c9cf06b	0.019157609
247	0x3c7d4aa6	0.015459692
248	0xbdb62ca8	-0.08895236
249	0x3a889087	0.0010419049
250	0x3dfc3869	0.12315447
251	0x3decf71a	0.115705684
252	0x3e044dc7	0.12920295
253	0x3d0afc75	0.033932168
254	0x3e2cb670	0.1686647
255	0x3d9c5303	0.07633021

layers.9.bias f4 [32]
0	0x3ed1ab79	0.40951136
1	0x3eeae8a2	0.4588061
2	0x3f2985c5	0.6621974
3	0x3eddd8e1	0.43329528
4	0x3e406887	0.18789874
5	0x3eca8a2c	0.39558542
6	0x3f17bfde	0.5927714
7	0xbd8f64fa	-0.070016816
8	0x3dc398aa	0.09550603
9	0x3f1327bc	0.57482505
10	0x3f020900	0.5079498
11	0x3eebde30	0.46067953
12	0x3ec08664	0.37602532
13	0xbe028d13	-0.12749128
14	0x3f068e23	0.52560633
15	0x3f228374	0.6348183
16	0x3e967ec0	0.29393578
17	0xbf8cf44a	-1.1012051
18	0x3ecc402f	0.39892718
19	0x3ed4f6c5	0.4159452
20	0x3f0a7825	0.54089576
21	0x3dd8d8f3	0.10588255
22	0x3f0041e6	0.50100553
23	0x3ed9e8f6	0.42560548
24	0x3e5987e0	0.21243238
25	0xbc8fd4ba	-0.01755749
26	0x3f1299e5	0.57266074
27	0x3f0c19cf	0.5472688
28	0x3f01de6f	0.5073003
29	0x3f1bc6b2	0.6085006
30	0x3f0999d5	0.53750354
31	0x3eef30ef	0.4671702

layers.11.weight f4 [1, 32]
0	0x3e4e906e	0.20172283
1	0xbf3cc679	-0.73740345
2	0x3e8d25b0	0.27567816
3	0x3e3525ad	0.17690153
4	0x3e50654c	0.20351142
5	0x3e39116f	0.18073057
6	0x3e85da47	0.26143095
7	0xbc479e24	-0.0121837
8	0x3e19e20c	0.15027636
9	0x3e5fd1aa	0.21857324
10	0x3e5edc70	0.21763778
11	0x3e6d320b	0.23163621
12	0xbf2dc98d	-0.6788567
13	0xbd0f3a9e	-0.03496801
14	0x3e8d6926	0.27619284
15	0x3e8e571d	0.27800837
16	0x3e474542	0.19460014
17	0xbf13c7af	-0.5772657
18	0x3e2c7586	0.16841707
19	0x3e033e44	0.12816721
20	0x3e725a83	0.2366734
21	0xbeb63d5f	-0.35593697
22	0x3e5cff85	0.21581848
23	0x3e4b5512	0.1985667
24	0x3e5acde7	0.21367608
25	0x3d8d6b0b	0.069051825
26	0x3e875829	0.26434448
27	0xbf322f6a	-0.696036
28	0x3dd5b816	0.10435502
29	0x3ea53d65	0.32273403
30	0x3e9a5752	0.30144745
31	0x3e19fce9	0.15037884
