deep_learning/trained_models/mlp/mlp_model_log_loc_feat_locid.pt (torch, 285386 bytes, 15 tensors)

layers.0.weight f4 [128, 133]
000000 23 60 70 bb c9 ac f7 bb 25 c1 10 bc c4 3a 54 3c
       -0.0036678396 -0.0075584394 -0.008835112 0.012953464
000010 12 a9 77 3b be 2f 85 ba 20 0c 9a 3b 22 f0 06 bb
       0.0037789983 -0.0010161323 0.0047011524 -0.0020589908
000020 24 3b 15 bb fb 54 25 3b 21 74 a3 bb 2c cd 08 3a
       -0.0022770846 0.0025227654 -0.004988209 0.0005218561
000030 ad e5 9d b9 c5 0d 0c bb e4 0c 5e 39 ab 45 d3 3a
       -0.00030116495 -0.0021370512 0.00021176372 0.0016118785
000040 7e c0 e8 b9 07 b1 5c 3a 7a e6 f3 3b 72 a7 1a 3b
       -0.00044393906 0.0008418713 0.0074432464 0.002359834
000050 5f 47 84 bb 9d 75 02 bc 4f c4 a7 bb 4f 9f e1 3b
       -0.0040368284 -0.0079626115 -0.0051198374 0.006885446
000060 16 1f d5 b9 08 d7 29 3b bf 36 29 3a 36 e7 12 bc
       -0.00040649687 0.0025915522 0.0006454996 -0.008966258
000070 a5 d9 e2 b8 2e e8 75 bb a4 61 3f bb ed 1d 90 3b
       -0.00010817059 -0.0037522423 -0.0029202485 0.0043980987
000080 6a 6d 17 bb e7 78 9e bb ec 04 8d bb 02 f3 33 ba
       -0.0023105987 -0.00483619 -0.0043035652 -0.0006864519
000090 2f 42 95 3b 76 e3 a0 bb 89 9c 2d bc 24 85 f5 3b
       0.004555009 -0.004909928 -0.010596403 0.0074926782
0000a0 a4 3a 98 b9 ad 96 29 bb 22 9c 0a bb 17 03 65 3b
       -0.0002903539 -0.0025877163 -0.0021150191 0.0034944469
0000b0 1c 67 f2 bb e7 44 09 bc 7a 29 8f ba a0 53 b8 3b
       -0.0073975455 -0.008378244 -0.0010922395 0.0056252033
0000c0 15 cf 47 b8 49 3c 1e 3b 1f 5e a6 3b 0b 4f e6 3b
       -4.7638157e-05 0.002414482 0.005077138 0.0070284656
0000d0 da af f8 3b ba ba 9b 3b 62 0e 79 3a 96 3f ad 39
       0.0075893225 0.004752484 0.00095007394 0.00033044507
0000e0 d8 3c 39 bb d2 c1 3f bb 3e d4 58 3a 3e 97 00 bc
       -0.0028265025 -0.0029259813 0.00082713726 -0.007848559
0000f0 86 64 41 bb c6 2b f4 bb 98 38 cf bb 95 eb ca 3a
       -0.002950938 -0.0074515073 -0.006323885 0.0015481586
000100 32 08 ea 3a 59 42 f4 39 5f ae 58 3b 64 5a 99 3a
       0.0017855226 0.0004658874 0.0033062918 0.0011699912
000110 23 4c 17 bc ab 2c 64 3b c6 0d 8a ba ee c6 89 3b
       -0.009234461 0.0034816663 -0.0010532669 0.0042046225
000120 59 47 be ba da 84 f5 ba 14 43 2a 39 a6 15 95 3b
       -0.0014517113 -0.001873161 0.00016237452 0.0045497
000130 94 07 55 bb e7 87 01 3a 34 1b 6c bb 8f d5 fb bb
       -0.0032505738 0.00049412105 -0.0036026957 -0.0076853703
000140 5e 4e d6 ba 78 3b 1b bb f5 51 a8 bb 5a c7 4e 3c
       -0.001635026 -0.002368657 -0.005136723 0.012620771
000150 e5 10 8d 3a 0d 03 aa 3a 05 dc 94 3b 53 02 3b b9
       0.0010762481 0.001297088 0.00454283 -0.00017834576
000160 7d bf 06 3c ff 17 e5 bb f0 5f de 3a 62 ca 8a ba
       0.008224365 -0.006991386 0.0016965847 -0.0010588879
000170 65 f7 08 3b 5f d8 26 3b b3 7a 1c 3b 2a b2 3b ba
       0.0020899412 0.0025458557 0.0023876845 -0.00071600324
000180 50 6e 9d ba a3 3b 01 ba 8d 50 e5 3a e0 32 b1 3b
       -0.0012011025 -0.0004929846 0.001749532 0.005407676
000190 c5 ca 53 bb f5 35 0b bc 7e 07 05 3c 3d 18 8f 3a
       -0.0032316905 -0.008496751 0.008119462 0.0010917258
0001a0 aa ac c4 bb d6 c0 55 3c c5 65 59 bb 95 b0 9b 3b
       -0.0060020285 0.013046464 -0.0033172232 0.004751275
0001b0 07 78 87 bb 76 5f 9d ba ad 14 96 bb ff 03 60 39
       -0.0041341814 -0.0012006599 -0.0045801015 0.00021363793
0001c0 c2 2b ff ba fa 45 14 39 0d f4 1b ba 16 8a a6 bb
       -0.0019467997 0.00014140448 -0.0005949147 -0.005082379
0001d0 6f b8 14 3b ce 8e 7f 3b 8a 5e ad 3a bc d7 9a bb
       0.0022692939 0.003899503 0.0013227027 -0.0047254246
0001e0 f8 a3 3f 3a a4 70 94 3b b5 3e 3f bb ef a2 54 3b
       0.0007310505 0.0045300294 -0.0029181663 0.0032445749
0001f0 eb d8 e3 39 24 7d 15 3d 50 39 00 3d e7 39 5c 3b
       0.0004345843 0.036496297 0.031304657 0.0033603848
000200 9b 32 10 bd 62 b0 0c bd 07 70 53 3d be 84 39 bd
       -0.03520451 -0.0343479 0.05162051 -0.04529261
000210 a3 bc 94 3c ce 20 c7 bc 4c a6 40 3b 20 ba 2e 3c
       0.018156355 -0.024307635 0.0029395996 0.010664493
000220 24 07 2a bb de f2 ae ba 37 fd 21 bb 26 5f 92 ba
       -0.0025944198 -0.0013347527 -0.0024717578 -0.0011167272
000230 0e f8 31 bb 5f 81 ee b9 a2 4c 47 bb 62 ab 88 ba
       -0.0027155909 -0.00045491286 -0.0030410667 -0.0010427053
000240 26 e3 d8 bb 12 a7 f7 ba f7 0e 77 3b 19 ed ac 3b
       -0.006618875 -0.0018894395 0.0037698129 0.0052772877
000250 7b bb 1e bb a0 2b f6 3a f3 f5 56 ba 16 07 20 bb
       -0.0024220634 0.0018781312 -0.00082001014 -0.0024418286
000260 aa 83 e9 bb 48 64 41 3b c3 ec 9a bb ab b2 c0 ba
       -0.0071262913 0.0029509235 -0.004727931 -0.0014701685
000270 ee 41 1f bb 3c 8a e4 39 b0 9a 23 ba 4a d4 30 3b
       -0.0024300772 0.00043590541 -0.0006241007 0.0026982003
000280 53 b4 39 3b 88 b3 d4 bb 85 73 f9 ba 44 de a3 bb
       0.0028336241 -0.0064911284 -0.001903162 -0.0050008614
000290 1e b4 18 3b b9 f1 1c 3b 5a 8d dd 3a 78 77 32 3b
       0.0023300718 0.002394779 0.0016903088 0.0027231853
0002a0 0e 78 b4 3a 04 d9 d9 3a a8 1e 01 3c f8 ae 29 39
       0.0013768689 0.0016620462 0.007880844 0.00016182277
0002b0 3b 16 13 bb ec 79 5b 3b eb e2 ec 3a 2e fa f9 b9
       -0.002244367 0.003348942 0.0018072998 -0.0004767938
0002c0 4a ff ab bb 3b ef 53 3b 87 56 29 39 95 c8 38 bb
       -0.0052489387 0.0032338637 0.0001614933 -0.0028195728
0002d0 ac 41 13 3c 9c d6 28 3b 3e f1 be 3b cc cc 9c 39
       0.008987825 0.0025762683 0.005827098 0.00029907224
0002e0 79 35 98 b9 d7 b4 9f 3b a3 ad 8b 3b 4b c6 51 3b
       -0.0002903154 0.0048738527 0.0042626425 0.003200906
0002f0 e5 23 09 3b 1c b9 25 3b 22 c7 e9 3b f0 6d aa 3a
       0.0020925936 0.0025287336 0.007134334 0.0013002735
000300 b3 ea e9 bb b8 ab 82 3b 10 7a 95 bb 25 cc 5f 3b
       -0.007138574 0.0039877556 -0.00456167 0.003414878
000310 61 00 5d bb 56 75 01 3c ec 38 d4 ba 7d 6a 25 3b
       -0.003372215 0.00790151 -0.001619128 0.0025240474
000320 3c f0 09 3b a9 fd ab bb f3 66 be bb a1 7c 1c 38
       0.0021047732 -0.0052487445 -0.0058106123 3.7309368e-05
000330 68 78 ca 3b 4a af 87 bb 9a 86 04 3b 06 da e3 b8
       0.0061789043 -0.004140769 0.002022183 -0.000108648135
000340 cb 83 36 3b b3 fa 81 3b 50 07 68 3b 9c 00 c0 bb
       0.002784955 0.0039666533 0.003540475 -0.0058594476
000350 5b 38 69 bb ec b5 f3 3b 5d 5f 21 bb 7d a0 22 3b
       -0.003558657 0.0074374583 -0.0024623491 0.0024814897
000360 12 5c 91 b9 98 f1 6b ba 4a dc d2 ba 72 1e e4 ba
       -0.00027725153 -0.0009000539 -0.001608738 -0.0017404093
000370 bc 59 14 bb cf 4c 07 3a 0f f3 03 bc 12 39 41 bb
       -0.0022636494 0.00051612867 -0.008053555 -0.002948348
000380 41 57 80 3b b8 59 ec 3b d3 2b 27 3b 43 e6 f6 3b
       0.0039166515 0.0072128437 0.00255083 0.0075347736
000390 84 63 19 ba 49 55 cb ba dc e3 e9 3a c5 15 be 38
       -0.0005851316 -0.0015513088 0.0017844397 9.063961e-05
0003a0 be 14 43 3b a5 fa e0 b9 dc 73 89 ba 4f 8d b5 3a
       0.0029767002 -0.00042911354 -0.0010486799 0.0013851317
0003b0 18 c5 eb b9 8f d9 99 3a 1f 53 4f 3b b8 24 bd 3a
       -0.0004496954 0.0011737811 0.0031635237 0.0014430499
0003c0 44 72 09 3a 38 8b 5e bb 26 11 8a bb 05 b3 24 3b
       0.0005243162 -0.0033957493 -0.00421347 0.0025131118
0003d0 50 01 66 ba 4d 2a 2b bb 37 3e 96 bb e0 3c 80 3b
       -0.0008773999 -0.0026117743 -0.0045850533 0.003913507
0003e0 19 0a 0b bc 62 9c 00 3c 6f 6d 80 bb 18 d8 ab bb
       -0.008486294 0.007849785 -0.0039192955 -0.0052442662
0003f0 36 61 ef 3b 54 6a 14 ba 90 c4 ed 3b 40 bb e5 bb
       0.0073052896 -0.0005661596 0.007256098 -0.0070108473

layers.0.bias f4 [128]
000000 1a 0a e4 3b 55 e4 04 3c b3 ec 95 3b 47 ea 45 3c
       0.006959212 0.008111079 0.004575336 0.012079782
000010 a2 81 6d 3c 98 e5 35 3c 38 47 cd 3b 36 f3 be 3b
       0.014496239 0.011102103 0.0062645935 0.005827333
000020 a2 f2 5d 3b f6 94 95 3b 82 8e c0 3b 9f 5c e7 3b
       0.0033866544 0.0045648767 0.0058763633 0.007060602
000030 4b 85 72 3b 41 45 81 3b 59 70 5b 3c 51 c1 fb 3a
       0.0037005718 0.0039450233 0.013393485 0.0019207393
000040 7b 86 02 3b 7d ab 1f 3a 8c 8d 23 3c a0 4d d0 3b
       0.0019916582 0.00060909224 0.009982478 0.00635691
000050 03 bf 89 3b 8e da a8 3b 9f 50 59 3c f5 77 e7 3a
       0.0042036786 0.005153007 0.0132638505 0.0017659651
000060 63 f4 78 3c 34 2b 67 3a ee 70 21 bb dd a4 5c 3c
       0.015194985 0.00088183885 -0.0024633962 0.013467041
000070 7c 98 f4 3b e7 70 02 3c fc 80 a7 3b a5 d6 9b 3b
       0.0074644666 0.007961488 0.0051118117 0.004755812
000080 7b ea d2 3a 43 60 39 3b a2 aa 3c 3c 02 1c cc 3b
       0.0016091609 0.0028286136 0.011515291 0.0062289247
000090 6c e4 8f 3a b5 50 8f ba 94 e8 c6 39 a7 82 0d 3c
       0.0010978109 -0.0010934087 0.00037938787 0.008637107
0000a0 55 60 5c ba 2a dc 8d bb 63 a7 bc 3b f4 2e 08 3c
       -0.00084066886 -0.004329224 0.0057572587 0.008311976
0000b0 af 79 e7 3b 49 2c a6 3b 23 a3 5e 3b 47 1b fc 3b
       0.0070640664 0.005071197 0.0033971749 0.0076936814
0000c0 a8 ee b5 3b f5 a6 59 3c d5 2d 17 bb 21 41 90 3b
       0.0055521317 0.013284435 -0.002306809 0.004402295
0000d0 36 3f 16 3c be 4c 1c 3a 7f 6a d5 3a 93 a2 90 b9
       0.009170344 0.0005962363 0.0016282349 -0.00027586948
0000e0 55 67 97 3b f8 3d e1 3b 53 0a af 3b d7 9f 78 3b
       0.0046204724 0.0068738423 0.005341807 0.003793707
0000f0 56 08 9d ba ca 75 a1 3b fb fc 33 3c 00 7a 75 3c
       -0.0011980634 0.0049273716 0.010985608 0.0149827
000100 86 7c ca 3a 71 14 92 3b ac b0 97 3b 18 b9 f1 3b
       0.0015448488 0.004458003 0.004629215 0.007376801
000110 a3 27 af 3b 14 45 4f ba da 08 a6 3a b1 5d 6d b9
       0.0053453012 -0.0007906717 0.0012667433 -0.00022636984
000120 c6 b8 82 3c 06 32 8b bb 41 b4 fe ba 45 b5 05 3b
       0.015957247 -0.0042479066 -0.0019432382 0.0020402235
000130 ae 5f c6 3b 77 f8 c4 3b 1f 0f 5b 3b 7e 6d 57 ba
       0.0060538864 0.0060110646 0.003342576 -0.0008217915
000140 bb 11 d0 3a f0 6d 7a ba 7f f8 9d 3b d9 56 73 3b
       0.0015874425 -0.0009553125 0.004820883 0.0037130623
000150 f6 10 2f ba 28 80 24 3c 28 cc 7f 3b d6 a9 37 3c
       -0.00066782476 0.01004032 0.0039031599 0.011209926
000160 df c2 1b 3c 52 7a 7b 3a c9 1e c0 3b 43 26 75 3c
       0.00950691 0.0009593117 0.005863045 0.014962736
000170 85 ec a2 3b bd b1 1b 3c 43 8a d6 3b cb f3 52 3c
       0.004972043 0.009502825 0.006547244 0.012875508
000180 e9 87 04 3b 4c 8d 00 3c b7 96 3b 3c 7f 34 b2 3b
       0.002022261 0.007846188 0.011449507 0.005438387
000190 94 8b d7 3b 03 27 e0 3b a1 49 b2 3b 21 a0 e8 3b
       0.0065779183 0.006840588 0.005440906 0.007099167
0001a0 4b 14 3a 3c 37 23 23 ba 10 96 51 3b a7 a0 53 3c
       0.011357377 -0.0006223204 0.0031980313 0.0129167205
0001b0 9b 3a c3 37 7e 3d 59 3a 46 23 d1 3b 79 83 a7 3b
       2.3273102e-05 0.0008287056 0.0063823787 0.0051121083
0001c0 02 55 17 bb 20 12 15 3c 61 e2 d8 3a 6f ff da 3b
       -0.002309144 0.00909856 0.0016546958 0.006683282
0001d0 20 a5 32 3c 6c 25 01 3c a1 b0 a7 3b f9 c0 c7 3b
       0.010903627 0.007882457 0.0051174914 0.006096002
0001e0 9f 55 41 3a 06 59 bf 3b 7f 72 01 3c 3b e2 72 3b
       0.0007375124 0.00583947 0.007900833 0.0037061113
0001f0 6a 58 06 3b 3a 7e da 3b 3d 79 c5 3a 10 f8 a4 3b
       0.0020499476 0.0066678794 0.0015066039 0.005034454

layers.3.weight f4 [256, 128]
000000 d7 cf d5 3b 37 5a 92 3b 3a 77 9e 3b 51 d6 74 3b
       0.0065250206 0.004466321 0.0048359903 0.0037359188
000010 2a c2 c6 3b 8f 3f 84 3b 46 7b 9c 3b 48 59 8e 3b
       0.0060656266 0.004035897 0.0047754375 0.0043441392
000020 c9 33 a5 3b f1 e0 df 3b 64 f2 ac 3b 7b 39 94 3b
       0.0050415737 0.006832235 0.0052779187 0.004523454
000030 89 f5 8d 3b b5 a3 bc 3b 8c 0c 97 3b b8 50 81 3b
       0.0043322486 0.00575682 0.00460965 0.00394639
000040 e3 2e 40 3b 80 14 a0 3b 8d f2 a2 3b 61 04 ee 3b
       0.0029324822 0.0048852563 0.004972762 0.0072637056
000050 4c fd 82 3b 4b 11 6c 3b cb a0 99 3b 00 4c b8 3b
       0.0039974805 0.003602105 0.0046883575 0.0056242943
000060 d0 90 b6 3b 44 33 8e 3b 95 ea 17 bb 8b 08 a7 3b
       0.005571462 0.0043396074 -0.0023180593 0.005097454
000070 10 5c a8 3b 28 b5 9e 3b 0f f5 7f 3b f8 74 98 3b
       0.005137928 0.004843373 0.0039055978 0.0046526156
000080 20 47 98 3b 05 81 f4 3b b2 f1 53 3b 62 39 92 3b
       0.0046471506 0.0074616694 0.0032340107 0.004462407
000090 57 da 97 3b 7b 5f ab 3b 07 4a 3a 3b d1 18 da 3b
       0.0046341824 0.005229888 0.0028425471 0.0066557904
0000a0 21 95 79 3b 77 2a 23 bb 8e ce dc 3b 1f ca be 3b
       0.0038083273 -0.0024897137 0.0067384904 0.0058224346
0000b0 64 31 5d 3b ac a9 9a 3b de 7a a0 3b 9c d8 95 3b
       0.0033751363 0.0047199335 0.0048974594 0.004572941
0000c0 49 43 83 3b a7 46 ba 3b 83 fa 9d 3b 6c 2f 99 3b
       0.0040058238 0.005684692 0.004821123 0.0046748426
0000d0 c2 7c 81 3b ad 5b 8b 3b e3 a7 75 3b 45 c8 83 3b
       0.00395164 0.004252872 0.0037484101 0.0040216767
0000e0 c4 4b b6 3b 7b 3d 42 3b 4f 8c 46 3b 9a 1b 9f 3b
       0.005563231 0.0029638696 0.0030296033 0.0048555853
0000f0 52 01 d3 3b 1c 73 88 3b 2d b0 84 3b 6b 92 c7 3b
       0.0064393664 0.0041641127 0.004049322 0.0060904524
000100 b0 78 a2 3b 42 a6 b2 3b 1b 80 82 3b 63 8d b5 3b
       0.0049582347 0.0054519484 0.0039825565 0.0055405363
000110 8c a5 85 3b d0 eb 81 3b 33 ce cf 3b 0e cb 86 3b
       0.0040785726 0.0039648786 0.0063417195 0.0041135615
000120 05 77 b6 3b d3 ba 06 bb 59 c6 fa 3b 6b 15 97 3b
       0.0055683875 -0.0020558133 0.0076530394 0.0046107075
000130 c5 36 95 3b 0e e4 c9 3b ae bf 88 3b e1 35 b8 3b
       0.004553648 0.0061612194 0.0041732406 0.0056216572
000140 ce 39 8a 3b d0 3a 95 3b 3b e8 d9 3b 91 32 31 3b
       0.0042183166 0.00455413 0.0066499985 0.0027038197
000150 5d 4b b9 3b f0 19 d9 3b d4 3e aa 3b 16 4b 9f 3b
       0.005654736 0.0066254064 0.005195478 0.004861246
000160 07 d5 a5 3b 90 49 6f 3b da 5f bc 3b e0 fe 92 3b
       0.005060795 0.0036512353 0.005748731 0.00448595
000170 90 16 7c 3b 3b 46 79 3b e2 47 80 3b 87 23 65 3b
       0.0038465597 0.0038036245 0.003914819 0.0034963803
000180 6a 42 e3 3b bb 41 8e 3b b8 be 77 3b ed ae 64 3b
       0.0069354074 0.004341332 0.0037802886 0.0034894303
000190 e4 a7 ba 3b 06 b5 96 3b f3 68 70 3b c6 a9 8d 3b
       0.0056962837 0.0045992164 0.0036683648 0.004323217
0001a0 eb 30 b1 3b 4f e7 92 3b 9b 25 bc 3b dc 2e d7 3b
       0.005407443 0.0044831405 0.0057417876 0.0065668654
0001b0 df 59 94 3b 19 e9 a9 3b af 97 ad 3b 84 31 8f 3b
       0.004527315 0.005185258 0.005297623 0.0043699164
0001c0 6e 85 1a bb 43 2e 9b 3b b9 5e 7e 3b a6 18 a1 3b
       -0.0023578065 0.0047357394 0.0038813783 0.0049162684
0001d0 61 14 91 3b ee 23 8f 3b 82 b7 aa 3b 73 4d 8d 3b
       0.004427478 0.004368297 0.005209864 0.004312211
0001e0 e1 79 8b 3b ad 73 e2 3b c8 ed c9 3b cf 6f 9d 3b
       0.0042564725 0.0069107623 0.006162379 0.0048045884
0001f0 1b 54 c3 3b ae 7e 4e 3b 22 a6 85 3b 1c ce c0 3b
       0.005960954 0.0031508612 0.0040786425 0.005883945
000200 36 ad 02 3c 5b 71 ad 3b f9 5b b0 3b f8 3f a2 3b
       0.007975867 0.005293054 0.0053820577 0.0049514733
000210 6a 0d fc 3b ff c9 a7 3b 99 bb b3 3b 7b 3d b2 3b
       0.007692029 0.0051205154 0.00548501 0.005439458
000220 96 76 ce 3b 14 65 00 3c 75 de c3 3b 3d 58 ac 3b
       0.0063007576 0.007836599 0.0059774467 0.0052595423
000230 e6 7a b9 3b 11 4e e2 3b 19 d5 c1 3b 0d 8d a0 3b
       0.0056604026 0.006906279 0.005915296 0.004899627
000240 67 8e 78 3b 4f 7e c7 3b d5 fe b9 3b db 10 05 3c
       0.0037926675 0.006088055 0.0056761303 0.008121694
000250 e7 f7 a0 3b a9 78 8e 3b b6 5c b1 3b 51 59 de 3b
       0.0049123648 0.00434788 0.0054126633 0.0067855497
000260 6b 8e d4 3b 5b 28 ab 3b ec 39 22 bb 84 d7 c0 3b
       0.006486704 0.0052233166 -0.0024753762 0.0058850665
000270 db 79 ca 3b 18 eb be 3b 47 6a 99 3b 29 89 c1 3b
       0.006179077 0.005826365 0.0046818587 0.0059062433
000280 db 6d bb 3b d4 3f 12 3c be 04 a2 3b b0 2d a6 3b
       0.005719883 0.008926351 0.004944413 0.0050713643
000290 70 29 aa 3b c9 41 d8 3b de 38 79 3b fa 14 f4 3b
       0.005192928 0.006599639 0.003802828 0.0074487897
0002a0 e0 cb a6 3b 5e 95 05 bb 71 75 06 3c ba dc d7 3b
       0.0050902218 -0.002038322 0.008206711 0.006587592
0002b0 91 c1 8e 3b ea 3d c3 3b 82 7d c3 3b 5a ef b7 3b
       0.004356571 0.0059583085 0.0059658894 0.0056132497
0002c0 36 76 8e 3b a7 ec d4 3b f1 22 d2 3b 4b 0d b0 3b
       0.004347588 0.0064979377 0.0064128567 0.0053726784
0002d0 cb c0 99 3b ab 5c b0 3b a0 62 98 3b c9 de a5 3b
       0.004692172 0.0053821406 0.004650429 0.0050619585
0002e0 c3 9b e9 3b e5 c0 69 3b d5 42 6d 3b 8f 36 b9 3b
       0.007129164 0.0035667953 0.0036203165 0.005652256
0002f0 c4 d0 01 3c 80 3c a5 3b c8 19 a4 3b 53 f4 fc 3b
       0.007923309 0.0050426126 0.005007956 0.0077195554
000300 99 d0 bd 3b 32 b8 c5 3b a3 dd 9c 3b 41 cb ce 3b
       0.005792689 0.0060339207 0.0047871633 0.006310851
000310 46 b4 a5 3b 08 eb a5 3b 73 9a e4 3b e0 f2 9d 3b
       0.0050568907 0.0050634183 0.0069764196 0.0048202127
000320 5f 09 d3 3b 84 08 01 bb 0d 9c 11 3c c0 99 ac 3b
       0.006440326 -0.0019688914 0.008887303 0.005267352
000330 7b 66 c6 3b 27 1a f8 3b da fa aa 3b f6 53 e0 3b
       0.006054697 0.007571477 0.005217892 0.0068459464
000340 5d d0 b5 3b cd 84 c5 3b 3d df 01 3c 16 9c 7e 3b
       0.0055485205 0.006027794 0.007926759 0.0038850359
000350 b3 2a d4 3b 22 e8 fd 3b d9 6b c7 3b b1 04 c8 3b
       0.0064748167 0.0077486197 0.0060858545 0.006104075
000360 32 98 bf 3b 99 d7 a3 3b c9 a5 e8 3b 46 fb a7 3b
       0.0058470005 0.0050000665 0.0070998413 0.0051263897
000370 ed 0e af 3b 93 20 91 3b 73 2d 9c 3b 85 58 93 3b
       0.0053423555 0.004428932 0.00476616 0.0044966363
000380 c7 33 0a 3c 9e f7 bd 3b 1c 8c 9c 3b 47 d0 8d 3b
       0.008435196 0.0057973405 0.0047774445 0.004327807
000390 ae 07 e0 3b 2b 1e c0 3b c4 fb 94 3b e4 d8 b5 3b
       0.006836853 0.0058629713 0.0045466144 0.005549537
0003a0 14 e8 db 3b ac 46 af 3b de 62 e5 3b 1b d8 e6 3b
       0.0067110155 0.005349001 0.0070003113 0.0070448047
0003b0 64 45 c2 3b 93 fb ce 3b 07 d4 dc 3b cd af a4 3b
       0.005928682 0.006316611 0.006739143 0.00502584
0003c0 c1 b1 12 bb 0d b5 a1 3b d3 44 9f 3b 7d a7 b6 3b
       -0.0022383782 0.004934913 0.0048604994 0.0055741654
0003d0 cd 77 a4 3b 11 89 b0 3b c8 25 b1 3b da cd b4 3b
       0.005019164 0.0053874333 0.005406115 0.0055177035
0003e0 89 7b b1 3b 41 44 02 3c ff 25 f4 3b 86 63 cb 3b
       0.005416338 0.007950843 0.0074508185 0.0062069325
0003f0 92 09 e7 3b 40 ec 81 3b 3c 71 a0 3b 6e e0 fc 3b
       0.0070507014 0.003964931 0.004896311 0.007717184

layers.3.bias f4 [256]
000000 a3 2f 85 38 13 5d c9 39 67 2d c3 b8 36 c1 b1 b8
       6.350807e-05 0.00038407053 -9.3067814e-05 -8.476006e-05
000010 63 57 55 38 48 d5 ce b8 18 97 29 36 1c e1 52 b8
       5.0864543e-05 -9.862572e-05 2.527091e-06 -5.027755e-05
000020 ce ec d9 b8 fc f3 37 b8 0b 06 9d b8 55 da ee b8
       -0.00010391475 -4.3857828e-05 -7.487469e-05 -0.00011389392
000030 1c 00 99 b8 d1 0f 13 b9 b6 e1 e3 37 a7 1b 0e b9
       -7.295629e-05 -0.00014024905 2.7165614e-05 -0.00013552477
000040 cf a9 4b 38 1b cf dd 38 df d1 88 b7 74 97 5f b8
       4.8557118e-05 0.000105766776 -1.6310192e-05 -5.3308395e-05
000050 eb bf ae 39 43 76 a5 b8 ae 12 a9 b8 7b fd 24 38
       0.00033330856 -7.889841e-05 -8.062027e-05 3.933672e-05
000060 20 76 c5 b8 24 08 14 39 57 ed d1 38 a1 60 72 38
       -9.4156945e-05 0.00014117413 0.000100101046 5.778729e-05
000070 22 d0 fa b7 6a 40 47 39 c4 e8 0a b7 06 bd 34 b9
       -2.9899242e-05 0.00019002115 -8.279636e-06 -0.00017236554
000080 c9 67 8d 37 08 a9 e7 b8 aa 0d 18 b6 64 d3 b0 37
       1.6856839e-05 -0.00011046423 -2.2657719e-06 2.1079271e-05
000090 29 dd ab 37 09 7e dd b8 53 a3 3f b9 f6 ab 36 39
       2.0487774e-05 -0.00010561577 -0.00018276022 0.00017420933
0000a0 e8 dd 69 39 e7 a5 e0 38 98 3b 7e b8 61 55 f2 b8
       0.00022303278 0.00010712054 -6.061382e-05 -0.00011555362
0000b0 b4 ac f0 38 2d 18 4f b8 40 d0 a5 b8 e1 a6 0c b9
       0.0001147626 -4.937516e-05 -7.906603e-05 -0.00013413608
0000c0 21 89 18 b7 68 48 d4 b8 bb 50 8f 37 53 b2 89 39
       -9.091834e-06 -0.000101224345 1.7084521e-05 0.00026263538
0000d0 a1 c9 6b b8 f4 ab 6c 39 9e 88 21 39 04 f9 d4 b7
       -5.6216148e-05 0.00022570771 0.0001540505 -2.5388326e-05
0000e0 d5 b7 b1 b8 f6 aa b7 39 0e f3 8f 39 ce 96 0a 3a
       -8.474259e-05 0.00035031856 0.00027456175 0.0005286754
0000f0 95 15 57 b7 f5 0f 87 39 4f a4 94 39 d4 75 0c b9
       -1.2820024e-05 0.00025761095 0.0002835118 -0.00013395335
000100 7e 0d 05 39 fe 96 05 b9 68 6c 23 b9 db df 21 3a
       0.00012688895 -0.00012740117 -0.00015585276 0.00061750197
000110 f2 f1 e9 b7 1d 1c 7b b8 39 89 a7 b8 d5 b3 0a b9
       -2.7888429e-05 -5.9869246e-05 -7.98874e-05 -0.00013227698
000120 e1 ce 1b 39 1e 5d 45 37 90 62 98 38 3d 20 37 39
       0.0001485902 1.1763796e-05 7.2662835e-05 0.0001746425
000130 52 f3 47 38 5c 73 00 b8 54 f1 83 38 ce bf 31 b9
       4.7671907e-05 -3.0625015e-05 6.291518e-05 -0.00016951488
000140 db 31 fe b8 ce c9 06 35 c4 61 bb b8 22 01 71 b8
       -0.0001212095 5.0212554e-07 -8.935065e-05 -5.7459933e-05
000150 e9 b6 27 b8 62 62 be b6 bd cc cf b8 cc 23 a9 b8
       -3.998625e-05 -5.6738945e-06 -9.908665e-05 -8.065216e-05
000160 d6 85 02 39 9f 1b ad b8 11 bd e6 38 db 37 01 b9
       0.00012447624 -8.254428e-05 0.00011002471 -0.00012323206
000170 e0 44 a9 b7 78 16 83 38 ef 32 b9 b8 42 c6 a7 b7
       -2.0178442e-05 6.250752e-05 -8.8309745e-05 -2.0000272e-05
000180 80 53 74 38 5e 29 70 37 bb 12 f4 b8 f4 0e 9f 39
       5.82519e-05 1.4314746e-05 -0.000116383155 0.00030337984
000190 c9 47 6c b7 52 20 30 37 30 fd b4 b8 ed 72 40 b8
       -1.408341e-05 1.0497943e-05 -8.630229e-05 -4.58834e-05
0001a0 32 3e 37 37 77 b2 41 39 28 28 c6 36 10 7c 96 b8
       1.0922131e-05 0.00018472398 5.9055346e-06 -7.175666e-05
0001b0 a0 e3 63 b8 3e a6 5f b8 34 c9 bb b8 db a8 cc b7
       -5.433301e-05 -5.332217e-05 -8.954332e-05 -2.4397325e-05
0001c0 54 1c b9 b7 91 4b b0 39 7b d9 01 3a 92 1b ae 38
       -2.206691e-05 0.00033625637 0.00049533666 8.302102e-05
0001d0 30 77 2e 39 b5 a2 32 39 c2 5f d4 39 05 2c f3 37
       0.00016638334 0.00017036016 0.00040507136 2.8988356e-05
0001e0 32 7e 1d b9 37 6f f8 38 34 f1 91 b8 7a 9a b5 39
       -0.00015019698 0.00011846277 -6.9590664e-05 0.00034638104
0001f0 da 78 93 b8 03 58 26 39 30 a7 f2 38 6c b3 a7 39
       -7.0320166e-05 0.0001586378 0.000115706 0.00031986402
000200 50 4c 43 39 91 f7 f6 38 94 91 f8 b8 2b 36 94 b8
       0.00018625078 0.00011776307 -0.000118526776 -7.0672795e-05
000210 e3 11 69 b8 47 bf a1 39 f1 2d 84 b8 2e ef c8 b8
       -5.5568187e-05 0.00030850826 -6.302808e-05 -9.581294e-05
000220 3c 60 8e b8 df 8d 61 38 13 71 88 39 0c 5c 43 38
       -6.789013e-05 5.3776308e-05 0.00026024188 4.657735e-05
000230 ab 9d 43 39 01 36 a7 b6 00 c6 db b8 12 8e 36 38
       0.00018655385 -4.9832747e-06 -0.00010479614 4.3524495e-05
000240 12 d4 96 b7 26 e3 00 b9 12 ee cc 38 d6 14 e1 b8
       -1.7980146e-05 -0.0001229165 9.771822e-05 -0.00010732717
000250 94 d8 04 b9 e3 d4 8e b8 ae 35 25 b7 4b 30 f1 37
       -0.00012669183 -6.810741e-05 -9.847265e-06 2.8751927e-05
000260 df 1b 97 b8 35 50 85 b8 5c 39 f7 38 f3 77 0b b9
       -7.2054325e-05 -6.356874e-05 0.00011788562 -0.00013300758
000270 63 2e 56 b8 dc a7 8d 37 0c e2 b5 37 0d 9f b8 38
       -5.1064777e-05 1.6886675e-05 2.1682143e-05 8.803429e-05
000280 75 46 cf b8 9f 9b 25 3a ea 6d b0 38 f5 9c 5f 37
       -9.883653e-05 0.000631744 8.412807e-05 1.332838e-05
000290 2e f1 04 3a ae 84 50 38 50 0c ec 38 ad 15 e3 39
       0.0005071339 4.9714632e-05 0.0001125565 0.00043312964
0002a0 39 d1 55 39 02 90 a5 37 b2 07 fb 39 d1 1c de b8
       0.00020391204 1.9736592e-05 0.00047880184 -0.000105911524
0002b0 ab 15 d8 38 92 30 e6 b7 b6 07 5c b8 0a de 02 39
       0.000103037186 -2.7440754e-05 -5.245927e-05 0.00012480482
0002c0 c3 b8 f1 39 1e ae f9 b7 e0 c9 83 38 54 cc 0e b8
       0.0004610476 -2.9764193e-05 6.284169e-05 -3.4045734e-05
0002d0 31 b1 98 37 e4 9a 23 b8 e1 9a 0e b9 1d b6 f9 37
       1.8202323e-05 -3.900648e-05 -0.00013599872 2.9767916e-05
0002e0 e2 a8 24 39 b6 23 e9 38 c0 02 5c b8 8b fe 91 39
       0.00015703173 0.000111169575 -5.245465e-05 0.00027846204
0002f0 95 e2 9b b8 f4 11 c1 b8 fa ef fb 36 6c d6 06 80
       -7.43318e-05 -9.206301e-05 7.50832e-06 -6.27933e-40
000300 16 50 68 39 a5 9b 47 39 9a 4a c9 b5 20 ff c1 b8
       0.00022155078 0.00019036101 -1.4997379e-06 -9.250478e-05
000310 e8 c2 80 b8 c2 57 96 b8 05 9d 58 b8 89 a9 21 39
       -6.13982e-05 -7.1689035e-05 -5.164465e-05 0.00015417313
000320 b9 c2 fa b8 96 44 18 b7 81 e9 62 39 ed a6 df b6
       -0.00011957199 -9.075875e-06 0.00021640027 -6.6653506e-06
000330 b8 80 e0 38 98 e5 47 38 32 0d f5 b6 66 35 d3 b8
       0.00010705128 4.7659123e-05 -7.303105e-06 -0.0001007121
000340 5d b6 b3 b7 f3 83 5c 39 55 cb 30 b9 ee 98 8c 38
       -2.1423382e-05 0.0002102999 -0.00016860415 6.7042056e-05
000350 17 68 19 38 d8 c0 83 38 9a 3d 2b b9 1a a7 f8 b8
       3.6574984e-05 6.282487e-05 -0.00016330779 -0.000118566866
000360 e1 5f 87 37 ff b1 35 b8 7b a5 d6 38 ae 77 3c b9
       1.6137901e-05 -4.3319535e-05 0.00010235138 -0.00017973661
000370 3d 8e 32 37 c8 1a 79 b8 4b 59 11 b9 6d b5 e0 39
       1.0642744e-05 -5.9391168e-05 -0.00013861542 0.00042859782
000380 d7 66 c6 38 de 5a cc 36 a0 dd 75 b8 0c e5 1b 3a
       9.460531e-05 6.090252e-06 -5.8618956e-05 0.00059469114
000390 74 2d 1c 39 50 64 99 39 56 6b 49 b9 44 55 91 b8
       0.00014894252 0.00029257173 -0.0001920884 -6.930021e-05
0003a0 67 67 3a b9 6a 24 54 38 ec e5 88 37 13 f8 12 b8
       -0.00017776863 5.0578652e-05 1.631953e-05 -3.504015e-05
0003b0 07 76 c8 b8 cb 19 cd b8 08 9b a9 b8 3c 47 2b b9
       -9.5587275e-05 -9.779966e-05 -8.087425e-05 -0.00016334368
0003c0 97 c3 0d b8 90 eb f4 38 e4 b9 84 38 21 c7 79 b8
       -3.3799177e-05 0.000116787036 6.328875e-05 -5.955168e-05
0003d0 aa b3 a9 b8 47 02 4e 39 2c e4 f7 b8 47 09 cf 39
       -8.092013e-05 0.0001964654 -0.00011820378 0.0003948903
0003e0 b1 18 71 b8 40 65 c8 39 74 87 1a b9 a8 5b 63 b8
       -5.7481873e-05 0.0003822241 -0.00014737045 -5.420638e-05
0003f0 35 e3 10 38 de c9 51 38 06 81 be b7 c1 20 32 b8
       3.454388e-05 5.0017487e-05 -2.2709846e-05 -4.246901e-05

layers.6.weight f4 [64, 256]
000000 8c f1 d6 3b 2b 54 02 3c 2c 19 ef 3b d5 de fa 3b
       0.0065595564 0.0079546375 0.007296702 0.007655958
000010 ba e3 fd 3b f7 de e5 3b 15 10 cd 3b 64 48 05 3c
       0.0077480944 0.007015105 0.0062580206 0.008134935
000020 ce 6a ed 3b bb 3e 01 3c e7 fb da 3b 92 e4 ec 3b
       0.007245398 0.007888491 0.006682861 0.007229396
000030 6b 26 e4 3b ab d5 d7 3b a1 bc 0b 3c 35 2d de 3b
       0.0069625876 0.0065867505 0.008528859 0.0067802914
000040 9d cf aa 3b 4e ca f8 3b 45 cb ec 3b 89 44 cf 3b
       0.0052127377 0.007592476 0.00722638 0.0063253087
000050 c4 99 df 3b 82 f3 e8 3b 6a d4 d1 3b f1 81 fa 3b
       0.00682375 0.0071091065 0.0064034956 0.0076448848
000060 9e 94 de 3b 94 95 eb 3b 99 02 eb 3b 74 84 db 3b
       0.006792619 0.007189462 0.0071719405 0.0066991393
000070 26 1d d7 3b 95 c5 c0 3b 03 15 fe 3b e5 15 d4 3b
       0.006564754 0.0058829286 0.0077539696 0.0064723366
000080 4d 77 c5 3b 34 3f d5 3b 25 6f e0 3b ea e8 d9 3b
       0.0060261847 0.0065077785 0.006849187 0.00665008
000090 ba 9b dd 3b bf 80 04 3c d9 d9 f7 3b 33 d8 e3 3b
       0.006762949 0.008087336 0.0075638113 0.006953263
0000a0 0a 8b e2 3b 50 d3 df 3b f0 43 e3 3b b7 cc ba 3b
       0.0069135474 0.0068306103 0.006935589 0.0057006734
0000b0 03 2d c4 3b a0 df bc 3b a2 ff ee 3b 24 11 e0 3b
       0.005986811 0.005763963 0.0072936574 0.006837981
0000c0 14 4c f5 3b ab ec d6 3b f5 81 f0 3b 0b a3 d2 3b
       0.007485876 0.0065589747 0.007339711 0.0064281276
0000d0 f3 2d eb 3b c3 cb 04 3c d4 53 dd 3b ab 3b d9 3b
       0.0071771084 0.008105221 0.006754378 0.0066294274
0000e0 12 b6 d4 3b eb b6 09 3c 49 ec b8 3b bc f8 0b 3c
       0.006491431 0.008405427 0.0056434018 0.00854319
0000f0 a6 0c bd 3b 7f e0 dd 3b 74 f7 d5 3b ee fd ea 3b
       0.00576933 0.006771147 0.006529743 0.007171384
000100 7d 7b d9 3b fa 3f e1 3b 54 90 00 3c 40 5a d4 3b
       0.0066370354 0.0068740817 0.0078469105 0.006480485
000110 94 be bf 3b 20 b2 02 3c 96 cd f9 3b 2f ba 00 3c
       0.005851576 0.007977039 0.0076233847 0.00785689
000120 bf c7 03 3c 33 e2 e0 3b 48 09 db 3b 19 51 fb 3b
       0.008043229 0.0068629025 0.006684456 0.0076695797
000130 a4 45 d3 3b 27 b4 ca 3b 6a 6c cf 3b 88 4c f9 3b
       0.006447511 0.0061860266 0.0063300626 0.007608
000140 1d c3 ea 3b 93 3b cf 3b 8f dd f5 3b 0b f2 c9 3b
       0.0071643726 0.0063242405 0.0075032185 0.006162887
000150 87 59 eb 3b af d3 b0 3b b0 c5 ef 3b 68 08 c8 3b
       0.0071823034 0.0053963284 0.0073172674 0.0061045177
000160 9c a6 ed 3b ed 56 cc 3b 97 b4 ee 3b ad 97 e0 3b
       0.0072525274 0.0062359483 0.0072847116 0.0068540187
000170 c0 6b f9 3b 7d 8f d3 3b 16 0e e5 3b 6f 95 bd 3b
       0.0076117218 0.006456314 0.0069902046 0.005785636
000180 8c a5 ec 3b d7 2c 10 3c f8 5e ed 3b b8 e9 f6 3b
       0.007221883 0.008799753 0.007243987 0.0075351857
000190 99 6f f3 3b e1 d4 dd 3b 1c 0c d9 3b 06 d6 fb 3b
       0.007429075 0.006769762 0.006623758 0.0076854257
0001a0 43 28 03 3c 40 89 e1 3b 8f fe e5 3b 24 e4 e1 3b
       0.008005205 0.0068828166 0.007018871 0.0068936516
0001b0 f5 da b5 3b bb 19 e0 3b 13 84 dc 3b 16 4f de 3b
       0.0055497834 0.006839005 0.0067296117 0.00678433
0001c0 3c 51 06 3c 59 7a f8 3b ba 7c d4 3b 10 6c ea 3b
       0.008198079 0.0075829444 0.006484595 0.0071539953
0001d0 cd 44 ed 3b d8 a4 da 3b f6 59 06 3c c0 0e 04 3c
       0.0072408677 0.006672483 0.008200159 0.008060157
0001e0 48 6e d7 3b ee 2e 02 3c 02 7a f3 3b 01 ad ce 3b
       0.006574426 0.007945759 0.007430316 0.0063072448
0001f0 df cd df 3b 9c b5 ec 3b f8 69 e5 3b 4f 65 cc 3b
       0.0068299617 0.007223798 0.007001158 0.006237663
000200 fc f7 fa 3b e7 b7 e3 3b 0a a0 00 3c 7d 56 b9 3b
       0.0076589566 0.006949413 0.007850656 0.005656062
000210 4b 69 df 3b 2f 17 04 3c 94 ba c7 3b 64 6d e9 3b
       0.006817972 0.008062168 0.00609524 0.007123636
000220 73 19 e8 3b 62 3e e7 3b df 24 af 3b 15 cf eb 3b
       0.007083112 0.007056997 0.0053449715 0.007196317
000230 81 b9 0b 3c 90 d7 e2 3b 41 8a c1 3b 9e c7 8a 3b
       0.008528114 0.0069226697 0.0059063737 0.004235222
000240 c3 cb e1 3b 3a 9b f6 3b bc aa 02 3c 4c fc d5 3b
       0.0068907454 0.0075258287 0.007975277 0.0065303203
000250 57 68 f4 3b b2 31 e6 3b 3f 62 ed 3b 5a 7f eb 3b
       0.0074587273 0.007024967 0.007244378 0.0071868123
000260 6e b8 e7 3b 13 b3 bf 3b c1 79 eb 3b e0 11 00 3c
       0.0070715463 0.0058502047 0.007186145 0.007816762
000270 97 16 d0 3b 57 34 f6 3b 9e 33 ac 3b 70 fa c5 3b
       0.006350349 0.0075135636 0.0052551767 0.0060418174
000280 3d 61 00 3c e0 cf dc 3b aa aa bf 3b 61 c5 de 3b
       0.007835683 0.006738648 0.005849202 0.0067984317
000290 70 ee e6 3b 32 11 fb 3b 46 47 f1 3b 97 62 cc 3b
       0.007047467 0.007661962 0.007363233 0.0062373388
0002a0 90 b5 e5 3b 5a e0 d0 3b 88 6e e9 3b 3c 50 03 3c
       0.0070101693 0.006374401 0.007123772 0.008014735
0002b0 e9 8c ed 3b d7 ad f3 3b 74 2c e7 3b 00 7b e9 3b
       0.007249464 0.007436495 0.00705486 0.0071252584
0002c0 05 4d ed 3b 62 81 b7 3b 25 07 fd 3b 74 87 d9 3b
       0.0072418475 0.0056001404 0.007721799 0.0066384617
0002d0 fc 0e ea 3b 5b f9 ec 3b 8a 5a f0 3b dd e7 e6 3b
       0.0071428996 0.007231874 0.007335012 0.007046683
0002e0 e3 ce db 3b 2f 8e cb 3b a8 39 e9 3b 87 ad ca 3b
       0.0067080124 0.006212018 0.007117469 0.006185237
0002f0 64 6a ed 3b d9 8a cc 3b 55 ba fc 3b aa 81 43 27
       0.0072453488 0.006242138 0.007712642 2.7131977e-15
000300 ef b4 00 3c 4a a3 db 3b 2f 98 9f 3b 8f c8 eb 3b
       0.007855638 0.006702815 0.0048704366 0.0071955393
000310 fa 04 eb 3b 44 52 df 3b 73 dd cc 3b d0 98 e5 3b
       0.007172224 0.0068152267 0.0062519847 0.007006742
000320 3d 40 c6 3b 1a 86 d0 3b 5a 6d e2 3b 3e 11 f0 3b
       0.0060501383 0.0063636424 0.0069100084 0.007326274
000330 38 6e e4 3b dc 7b ab 3b 41 f8 f7 3b 57 4e c1 3b
       0.006971147 0.005233271 0.007567436 0.0058992314
000340 1b 37 e9 3b 3e 8f f8 3b 25 ed f1 3b fd 28 e7 3b
       0.007117165 0.007585435 0.007383006 0.0070544467
000350 e9 8f fa 3b 40 11 a2 3b 93 0a 08 3c 41 b0 01 3c
       0.00764655 0.004945904 0.008303302 0.007915557
000360 45 21 cf 3b 25 2b cc 3b f3 cf c4 3b 6c a3 e0 3b
       0.0063211047 0.006230729 0.006006235 0.006855419
000370 7b c9 d8 3b fc f1 dd 3b ea 9c d3 3b 79 f9 eb 3b
       0.006615815 0.0067732316 0.0064579146 0.0072013703
000380 30 5f 00 3c c8 bc df 3b a2 25 c6 3b 26 ce de 3b
       0.0078351945 0.0068279244 0.0060469666 0.006799477
000390 cf aa e1 3b 38 72 f1 3b 34 06 00 3c 79 3b e2 3b
       0.006886817 0.0073683523 0.007813979 0.0069040623
0003a0 64 48 01 3c f5 9c f4 3b eb 2a de 3b a8 d2 ed 3b
       0.007890794 0.007465 0.0067800186 0.007257778
0003b0 54 7c e0 3b a2 af e9 3b 4a 5c f4 3b b5 d3 ec 3b
       0.0068507586 0.0071315328 0.007457291 0.007227386
0003c0 29 fe e8 3b ab df d5 3b 18 f3 d1 3b 14 28 de 3b
       0.0071103764 0.0065269074 0.006407153 0.00677968
0003d0 c2 97 bc 3b 65 c3 b2 3b 4f 4d dc 3b a3 02 06 3c
       0.0057553956 0.0054554217 0.006723083 0.00817934
0003e0 6e 03 01 3c 68 51 d8 3b d0 21 e8 3b 91 62 02 3c
       0.007874353 0.0066015013 0.007084109 0.00795807
0003f0 db ba e2 3b 28 0a f9 3b a9 2d ed 3b df d4 f6 3b
       0.0069192476 0.0076000877 0.007238109 0.0075327004

layers.6.bias f4 [64]
000000 55 3c 9b b9 0f a6 3e b9 d5 70 12 b9 50 af 82 b9
       -0.00029608855 -0.00018181674 -0.00013965678 -0.0002492615
000010 ff 89 88 b9 7c 9b 8e b8 a9 7f 2c b9 94 14 6e b9
       -0.00026042757 -6.800049e-05 -0.00016450755 -0.00022705115
000020 b2 43 4c b9 0a d8 7b b9 6a 54 94 b9 06 da 1c b9
       -0.00019480175 -0.00024017706 -0.00028291653 -0.0001495854
000030 86 0e 80 b9 ab 4c 91 b9 b4 db e8 b8 bd 34 3c b9
       -0.00024424883 -0.00027713677 -0.00011103545 -0.00017948724
000040 3e da 7c b9 9e 75 1a b9 63 04 88 b9 a6 32 94 b8
       -0.00024113894 -0.000147304 -0.0002594321 -7.066624e-05
000050 79 b0 9c b9 ea 77 2f b9 b2 df 37 b9 04 a1 90 b9
       -0.0002988612 -0.00016733972 -0.00017535573 -0.00027585786
000060 66 21 7d b9 6c 7a 49 b9 11 10 7f b9 15 16 b8 b9
       -0.00024140402 -0.0001921446 -0.0002432468 -0.00035111667
000070 f4 75 a8 b9 00 79 6e b9 72 20 47 b8 fe 76 4c b9
       -0.0003213134 -0.00022742525 -4.7475514e-05 -0.00019499284
000080 e4 5b 42 b9 46 44 83 b9 a3 0c 76 b9 e0 a1 7e b9
       -0.00018535514 -0.00025037135 -0.00023465096 -0.00024283631
000090 b7 72 29 b9 bf 24 8c b9 23 97 33 b9 29 dc 18 b9
       -0.0001615983 -0.0002673026 -0.00017127073 -0.00014577866
0000a0 c1 8f 7d b9 52 93 00 b9 9b b4 8e b9 ea 62 e9 b8
       -0.00024181513 -0.00012261912 -0.00027218912 -0.0001112873
0000b0 c4 5b 89 b9 f6 c3 5b b9 59 c1 8e b9 77 fd 25 b9
       -0.00026199047 -0.00020958469 -0.00027228406 -0.00015830049
0000c0 b4 81 27 b9 db da 4a b9 f4 7f 70 b9 d2 58 83 b9
       -0.00015974679 -0.00019345751 -0.0002293585 -0.00025052443
0000d0 3b b7 ad b9 e4 e8 19 b9 8e 61 ff b8 a5 0e 48 b9
       -0.0003313365 -0.00014677976 -0.000121775185 -0.00019078942
0000e0 df cc 02 b9 f7 be 83 b9 b5 85 14 b9 ce 1b 00 b9
       -0.00012474087 -0.00025128547 -0.0001416419 -0.0001221739
0000f0 98 13 60 b9 9f 80 01 b9 5b e4 88 b9 ef 0b 01 b9
       -0.00021369604 -0.00012350314 -0.0002611008 -0.00012306844

layers.9.weight f4 [32, 64]
000000 75 b2 ae 3c c0 ff a4 3c 7c 4c ad 3c f1 8d bb 3c
       0.02132533 0.020141482 0.021154635 0.022894831
000010 4c 85 a8 3c bd db b0 3c 07 98 a4 3c 05 35 a4 3c
       0.020571373 0.021589154 0.020092024 0.020044813
000020 5d 40 ab 3c d6 8a af 3c 43 52 a8 3c 2a c9 9f 3c
       0.020904714 0.021428507 0.020547038 0.019505102
000030 bc ef ad 3c 29 87 aa 3c 1d 3b ac 3c 3d 63 a9 3c
       0.021232478 0.020816403 0.021024281 0.020677203
000040 44 5c aa 3c 7c a2 ab 3c b1 89 b1 3c 3b e9 ad 3c
       0.020795949 0.020951502 0.021672102 0.021229377
000050 24 ec a6 3c a1 57 a5 3c 1c e4 ad 3c 2a e0 b2 3c
       0.020376272 0.020183386 0.021226935 0.021835405
000060 88 38 a6 3c f3 53 ab 3c 2d 54 ab 3c a3 b0 a4 3c
       0.020290628 0.020914054 0.020914162 0.020103758
000070 cd ef a4 3c b2 33 a8 3c 69 11 aa 3c 6b ec a7 3c
       0.020133877 0.020532463 0.020760255 0.020498475
000080 f2 17 a8 3c 56 ff a4 3c 10 eb ab 3c 28 4e aa 3c
       0.02051923 0.020141285 0.02098611 0.02078922
000090 43 f1 a4 3c 51 79 a4 3c e3 d5 a9 3c 08 e5 a1 3c
       0.020134574 0.02007738 0.020731872 0.01976253
0000a0 b8 32 a9 3c d8 e8 a4 3c b4 0e aa 3c 52 4f a5 3c
       0.020654067 0.02013056 0.020758964 0.020179424
0000b0 70 d9 a2 3c 70 dd a9 3c 8c b4 aa 3c 31 1d a8 3c
       0.019879073 0.020735472 0.020838045 0.020521732
0000c0 7b e6 ae 3c 7f 25 af 3c 31 ef b5 3c 1b de a5 3c
       0.021350136 0.021380184 0.022208782 0.02024751
0000d0 89 f7 af 3c 17 fb b0 3c 1c 59 b7 3c 26 01 af 3c
       0.021480339 0.021604104 0.022381358 0.021362852
0000e0 c9 41 b1 3c 06 dd ad 3c 0a 8a 9f 3c 28 d1 a2 3c
       0.021637814 0.021223556 0.019475002 0.019875124
0000f0 95 b7 ae 3c da af ad 3c 69 75 ab 3c db 9f af 3c
       0.021327773 0.021202017 0.020930009 0.02143853
000100 b2 48 a5 3c 7b f7 a8 3c 2e d0 a6 3c ec 78 ba 3c
       0.020176265 0.02062582 0.02036294 0.022762738
000110 22 d6 a2 3c f4 dd ad 3c 8f fe a8 3c 6f 01 a7 3c
       0.019877497 0.021224 0.020629195 0.020386426
000120 16 3b 9d 3c 17 6f ab 3c 2a d0 a6 3c f5 36 a1 3c
       0.019193213 0.020926995 0.020362932 0.019679526
000130 63 71 ae 3c f8 3f a8 3c 7a e6 a9 3c af e9 ab 3c
       0.021294301 0.020538315 0.020739783 0.020985452
000140 41 1b ac 3c 2a 0e a7 3c dd b0 a8 3c f4 fb ab 3c
       0.02100909 0.020392496 0.020592147 0.020994164
000150 bd 49 a8 3c f5 27 a7 3c 39 40 a5 3c 69 a1 ab 3c
       0.020542974 0.020404795 0.020172225 0.02095099
000160 e2 78 a1 3c 9d c0 a7 3c 0a 1f b0 3c 1c 1b a4 3c
       0.019710962 0.020477587 0.021499176 0.020032458
000170 a4 dc a7 3c e8 f7 a9 3c ba fd a8 3c 67 60 a5 3c
       0.020490952 0.020748094 0.020628799 0.02018757
000180 b6 8c ab 3c 81 57 a6 3c 73 45 a5 3c 1c 0c af 3c
       0.02094112 0.020305397 0.020174718 0.021368079
000190 39 da a6 3c 24 45 a6 3c 5f 2a b0 3c 54 af a7 3c
       0.020367729 0.02029664 0.02150458 0.020469345
0001a0 eb ab a1 3c c2 ee a4 3c 28 df aa 3c 41 e6 a6 3c
       0.019735297 0.02013338 0.020858362 0.020373465
0001b0 b1 71 a1 3c 1d a1 aa 3c 4a 4e b1 3c d1 2b a9 3c
       0.019707533 0.020828778 0.021643776 0.020650776
0001c0 0c 7e aa 3c 02 ad ad 3c 8a e6 b1 3c ef 5d a9 3c
       0.020812057 0.02120066 0.021716375 0.020674674
0001d0 bc f9 ab 3c d7 19 ae 3c 87 ab b4 3c 02 f3 a7 3c
       0.020993106 0.021252556 0.022054447 0.020501617
0001e0 07 0e b4 3c 3a 68 aa 3c 71 50 a3 3c d4 f2 a0 3c
       0.021979345 0.020801652 0.019935818 0.01964704
0001f0 55 00 a8 3c 69 fa ad 3c a2 b9 a8 3c ab b4 b0 3c
       0.02050797 0.021237569 0.02059633 0.021570524
000200 87 4d a9 3c 1e d4 a9 3c 85 a5 a6 3c f8 f7 b1 3c
       0.02066685 0.020731028 0.020342598 0.021724686
000210 75 00 a2 3c 07 14 a7 3c 09 67 9c 3c 2d e2 a0 3c
       0.019775609 0.020395292 0.0190921 0.019639099
000220 b4 d4 9f 3c d2 bf a4 3c 6f f3 a1 3c ff e5 9d 3c
       0.019510604 0.020110998 0.019769398 0.01927471
000230 16 9e a6 3c c1 db a2 3c 9b 4c a3 3c 69 4e a4 3c
       0.020339053 0.019880177 0.01993399 0.02005692
000240 f3 e3 ac 3c 74 45 a9 3c ac 54 a7 3c 15 25 b0 3c
       0.021104788 0.020663 0.020426117 0.021502057
000250 a2 fa a0 3c 17 da a3 3c 91 e5 a4 3c 9c 31 b3 3c
       0.019650761 0.020001454 0.020128997 0.021874242
000260 52 24 a1 3c 79 12 a2 3c 54 98 ae 3c 09 a5 9d 3c
       0.01967064 0.0197842 0.02131287 0.019243734
000270 d5 24 a0 3c 65 14 a1 3c a4 6c a6 3c 3e 9a a4 3c
       0.019548813 0.019663045 0.020315476 0.02009308
000280 54 67 a6 3c 08 9a 9c 3c f1 a5 a6 3c 51 48 ad 3c
       0.020312943 0.019116417 0.020342799 0.021152647
000290 e6 74 a5 3c a8 7c 9e 3c fe 43 a2 3c 5b 1a a8 3c
       0.020197343 0.01934655 0.019807812 0.02052038
0002a0 d4 2a a2 3c 89 ec a2 3c 0b af a4 3c dd 2f a6 3c
       0.019795813 0.01988818 0.020102998 0.020286495
0002b0 27 28 9d 3c 03 f4 a5 3c 74 1c aa 3c fd b2 a7 3c
       0.019184185 0.020257955 0.02076552 0.02047109
0002c0 76 e0 a9 3c e9 4d a9 3c 55 97 a4 3c 81 a4 a2 3c
       0.020736914 0.020667033 0.020091692 0.019853832
0002d0 2f bf ac 3c 7b c8 ab 3c 2e b6 ae 3c 95 7a a9 3c
       0.021087257 0.02096962 0.021327104 0.020688334
0002e0 9a 20 ad 3c 6d c2 aa 3c c7 11 9b 3c 1f ce 9d 3c
       0.02113371 0.020844663 0.018929375 0.019263325
0002f0 42 d9 a7 3c 90 cf a2 3c 79 ed a7 3c 12 34 ad 3c
       0.020489339 0.019874364 0.020498978 0.021142993
000300 d1 52 ac 3c 77 ed a3 3c c2 43 aa 3c 94 98 ad 3c
       0.021035584 0.020010693 0.020784263 0.021190919
000310 0c 08 9c 3c ac 86 a9 3c e6 b0 a3 3c a0 89 ad 3c
       0.019046806 0.0206941 0.019981813 0.021183789
000320 0e d1 a5 3c 12 c3 a8 3c 24 7c a6 3c 01 4b 9f 3c
       0.020241287 0.02060083 0.020322867 0.019444944
000330 2c 9a a8 3c 09 f0 aa 3c 39 00 aa 3c b7 93 a8 3c
       0.020581327 0.02086641 0.02075206 0.020578248
000340 f0 fe a9 3c 84 39 ac 3c 42 1a aa 3c f0 62 af 3c
       0.020751446 0.02102352 0.020764474 0.021409482
000350 c0 f6 ab 3c 67 5f a3 3c a6 07 a5 3c 1b 07 b3 3c
       0.020991683 0.019942952 0.020145249 0.021853974
000360 86 69 a3 3c a9 82 a8 3c 6e 34 af 3c b5 bd a2 3c
       0.019947778 0.020570116 0.021387305 0.01986585
000370 4c c5 a0 3c ff c1 a1 3c f1 4c aa 3c e0 6f a6 3c
       0.019625328 0.019745825 0.020788642 0.020317018
000380 3d 2c ad 3c 2c 05 ab 3c d1 49 ab 3c 59 f1 ac 3c
       0.021139259 0.02087649 0.020909222 0.021111177
000390 40 20 a5 3c 0a 8a a3 3c 15 e6 ab 3c 19 f6 a9 3c
       0.02015698 0.019963283 0.020983735 0.020747231
0003a0 c5 96 a6 3c 67 0b a7 3c 42 84 a9 3c 6c a7 a5 3c
       0.020335564 0.02039118 0.020692948 0.020221435
0003b0 aa a0 9e 3c 1c ee a7 3c d7 91 a9 3c 78 f9 a8 3c
       0.01936372 0.020499282 0.020699425 0.020626768
0003c0 d4 76 ac 3c 2c 0e ad 3c f4 c8 af 3c 49 3d a6 3c
       0.021052755 0.021124922 0.021458127 0.020292895
0003d0 51 52 ad 3c a6 30 ac 3c 27 b3 b5 3c a0 b1 a7 3c
       0.021157416 0.021019291 0.022180153 0.02047044
0003e0 d4 02 b4 3c f9 45 ac 3c 1b aa 99 3c b5 4a a7 3c
       0.021974005 0.02102946 0.01875787 0.020421365
0003f0 6d f1 a9 3c 67 0e ab 3c 4c be a7 3c a2 7a ad 3c
       0.020745004 0.020880891 0.020476483 0.02117664

layers.9.bias f4 [32]
000000 7f 4d f1 b7 e4 f1 90 b8 79 25 97 b8 ae 98 be b8
       -2.8765526e-05 -6.911511e-05 -7.207221e-05 -9.088345e-05
000010 5e f0 68 b8 35 89 21 b8 a9 41 2b b8 b7 30 9b b8
       -5.553697e-05 -3.8513175e-05 -4.0830728e-05 -7.40005e-05
000020 07 aa 21 38 a4 5f 57 b8 95 7a 78 b7 a9 ae 9d b8
       3.854374e-05 -5.1349067e-05 -1.4810493e-05 -7.5188764e-05
000030 93 49 91 b8 f8 4a a0 b8 3c b0 b4 b8 4c cb b6 b8
       -6.927843e-05 -7.6433585e-05 -8.615895e-05 -8.716303e-05
000040 14 17 cf b7 a0 91 df b7 2b 1d 58 b8 f3 f3 e5 b7
       -2.468707e-05 -2.6651483e-05 -5.1525578e-05 -2.7412525e-05
000050 b4 3d 11 b8 97 b1 99 b8 0c 9b 04 b7 e0 f5 b0 b8
       -3.462816e-05 -7.328687e-05 -7.903913e-06 -8.438132e-05
000060 e7 0f d7 b8 b3 e5 b3 b8 a2 d9 5e b8 5c 07 33 b8
       -0.00010254961 -8.57817e-05 -5.313161e-05 -4.268378e-05
000070 c1 bb 76 b8 c2 50 9a b7 1f 78 72 b8 ca 02 6b b8
       -5.882583e-05 -1.8395836e-05 -5.7809168e-05 -5.6030964e-05

layers.12.weight f4 [16, 32]
000000 ab 07 2d 3d 33 21 2c 3d 68 b6 28 3d 32 e7 2a 3d
       0.04224364 0.04202385 0.04118958 0.04172439
000010 b4 41 2c 3d f0 8f 28 3d 15 4b 29 3d 19 11 28 3d
       0.042054847 0.041152894 0.04133137 0.04103193
000020 c8 8b 27 3d 20 a5 2a 3d fc 90 29 3d 88 fa 2b 3d
       0.04090479 0.04166138 0.041398033 0.041986972
000030 20 52 2c 3d 2c af 2a 3d 1a bd 27 3d af 1c 22 3d
       0.042070508 0.041670963 0.040951826 0.039578136
000040 43 50 26 3d 3f 3d 25 3d 51 3b 2d 3d f3 9f 29 3d
       0.040603887 0.040341612 0.042292897 0.041412305
000050 92 49 28 3d 94 f6 27 3d 65 59 2c 3d 6b 88 28 3d
       0.041085787 0.04100664 0.04207744 0.041145723
000060 3d 4f 27 3d 51 3a 28 3d ed 1d 26 3d 1d 51 28 3d
       0.040847052 0.04107124 0.040555883 0.04109298
000070 a9 94 2a 3d 84 ac 2a 3d 33 84 28 3d a0 87 24 3d
       0.04164568 0.04166843 0.0411417 0.040168405
000080 53 82 27 3d 80 41 2a 3d 7a f2 21 3d cb c8 27 3d
       0.04089577 0.041566372 0.039537884 0.040962975
000090 49 bb 29 3d f2 89 22 3d b3 e4 24 3d c1 9a 22 3d
       0.041438375 0.039682336 0.040257167 0.039698366
0000a0 46 83 24 3d 65 77 25 3d ae 27 28 3d 94 23 26 3d
       0.040164255 0.040397067 0.041053466 0.040561274
0000b0 67 30 2a 3d 4f 87 26 3d 8b 10 25 3d 26 65 1d 3d
       0.041550066 0.040656384 0.04029898 0.03842654
0000c0 de f4 21 3d ac 32 23 3d cd d0 2d 3d 33 7b 25 3d
       0.039540164 0.039843246 0.042435456 0.040400695
0000d0 b6 ed 26 3d d9 3e 28 3d 82 11 2d 3d e0 5b 26 3d
       0.040754043 0.04107556 0.042253025 0.040614963
0000e0 16 e6 22 3d c9 08 26 3d b4 66 24 3d 83 d6 2a 3d
       0.03977021 0.040535722 0.040137008 0.04170848
0000f0 d9 7e 29 3d 89 13 29 3d 67 8b 22 3d a5 71 26 3d
       0.041380737 0.041278396 0.039683726 0.040635724
000100 3c 12 2c 3d 5d 4c 2a 3d e6 26 25 3d d7 ba 29 3d
       0.042009577 0.041576732 0.0403203 0.04143795
000110 e6 10 2b 3d de cb 2a 3d 6d 87 29 3d 48 23 23 3d
       0.041764162 0.04169833 0.041388918 0.03982857
000120 21 20 27 3d bf 85 24 3d 5b 50 2b 3d 15 61 2e 3d
       0.040802125 0.040166613 0.04182468 0.042573053
000130 5a cc 27 3d 4a a3 26 3d b0 4c 23 3d 98 6c 22 3d
       0.04096637 0.04068307 0.039868057 0.039654344
000140 e2 43 24 3d ba 00 27 3d b0 b8 2c 3d ec 09 22 3d
       0.0401038 0.040772177 0.04216832 0.039560243
000150 d3 2f 29 3d 94 82 26 3d e3 71 2c 3d 54 e5 22 3d
       0.041305374 0.040651873 0.0421008 0.039769486
000160 56 23 29 3d 4e f3 26 3d 21 8d 24 3d 40 a6 27 3d
       0.041293465 0.040759377 0.040173654 0.040930033
000170 df bc 27 3d 74 be 27 3d 32 a5 27 3d 7b 3b 27 3d
       0.040951606 0.040953115 0.040929027 0.04082821
000180 45 08 27 3d ac 71 28 3d 8b 95 27 3d bb 25 29 3d
       0.04077937 0.04112403 0.0409141 0.04129575
000190 c2 55 2b 3d bc fb 22 3d ac 30 27 3d 5b dd 24 3d
       0.041829832 0.039790854 0.0408179 0.040250164
0001a0 06 e1 2a 3d 54 aa 25 3d 54 17 29 3d 2b 2b 31 3d
       0.041718505 0.04044564 0.041282013 0.04325406
0001b0 44 49 2d 3d ec a9 29 3d e6 80 23 3d 74 61 21 3d
       0.0423062 0.041421816 0.03991785 0.03939958
0001c0 9c e5 1f 3d f3 84 21 3d b4 02 2e 3d a0 e0 27 3d
       0.039037332 0.03943343 0.042483047 0.040985703
0001d0 82 27 27 3d 52 c6 26 3d b7 e6 29 3d db 28 27 3d
       0.040809162 0.040716477 0.041479792 0.040810447
0001e0 e3 64 24 3d 25 d7 22 3d 6d 1b 27 3d 4d 30 2a 3d
       0.040135276 0.03975596 0.04079764 0.04154997
0001f0 88 b7 2c 3d ab a9 28 3d ff 0f 26 3d b9 e7 23 3d
       0.042167217 0.041177433 0.0405426 0.04001591
000200 e1 81 27 3d 66 50 2c 3d 80 93 2a 3d 14 b4 29 3d
       0.040895347 0.04206886 0.041644573 0.0414315
000210 a6 38 28 3d bb a7 28 3d 7c 5c 27 3d 62 cd 1f 3d
       0.04106965 0.041175585 0.040859684 0.039014228
000220 c6 32 25 3d 04 70 24 3d c9 0f 26 3d 04 ce 28 3d
       0.040331624 0.04014589 0.040542398 0.041212097
000230 d4 82 2a 3d 8e be 28 3d ca 80 23 3d 27 b5 22 3d
       0.041628674 0.041197352 0.039917745 0.03972354
000240 27 03 21 3d 13 46 25 3d 0b e2 29 3d bb e4 1f 3d
       0.039309647 0.04035003 0.041475337 0.039036494
000250 4a 70 22 3d a8 56 27 3d d7 55 2d 3d 75 b8 27 3d
       0.03965787 0.040854126 0.04231819 0.040947396
000260 fd 24 26 3d 86 50 26 3d e8 56 24 3d d4 a7 26 3d
       0.04056262 0.040604137 0.040121943 0.040687397
000270 5f f2 27 3d fb 0d 28 3d b2 77 21 3d f0 cb 23 3d
       0.041002627 0.041028958 0.03942079 0.03998941
000280 4b 62 28 3d d7 06 25 3d 95 ff 24 3d dc d2 2a 3d
       0.041109364 0.040289726 0.040282805 0.041704997
000290 dd fb 28 3d d5 de 28 3d 63 8e 26 3d a0 50 22 3d
       0.04125582 0.041228134 0.040663134 0.03962767
0002a0 03 b8 29 3d 30 2d 27 3d 99 7b 27 3d 22 34 2d 3d
       0.041435253 0.04081458 0.040889356 0.042286046
0002b0 6a ab 2c 3d 16 8c 27 3d 28 0f 27 3d 23 ff 1d 3d
       0.04215566 0.04090508 0.04078594 0.038573395
0002c0 78 e1 22 3d e5 9e 23 3d 33 bb 2c 3d 3a b8 2a 3d
       0.039765805 0.039946456 0.042170715 0.0416796
0002d0 3f 19 27 3d 6d 3b 28 3d 5c e8 2a 3d 18 98 26 3d
       0.04079556 0.041072298 0.0417255 0.04067239
0002e0 c6 59 22 3d 7d d4 25 3d 98 31 25 3d 7b 1f 23 3d
       0.039636396 0.040485848 0.0403305 0.039824944
0002f0 19 a7 25 3d 61 80 2b 3d 07 f0 28 3d 5e 7d 22 3d
       0.04044256 0.04187048 0.041244533 0.03967034
000300 40 e6 2e 3d 67 1f 2b 3d 5d bf 29 3d 70 0c 30 3d
       0.042700052 0.041777994 0.041442264 0.04298061
000310 11 81 2e 3d 95 0e 29 3d 51 7f 28 3d 3a 91 27 3d
       0.042603556 0.041273672 0.041137043 0.040909983
000320 d2 d2 2a 3d b9 76 28 3d 9a 64 2c 3d 11 fc 2f 3d
       0.04170496 0.041128848 0.04208813 0.042965
000330 20 26 2f 3d a6 2e 2c 3d 8d d4 26 3d 06 f7 24 3d
       0.04276097 0.042036675 0.040730048 0.040274642
000340 42 13 26 3d 47 82 26 3d 98 c5 30 3d 62 ef 29 3d
       0.04054571 0.040651586 0.04315719 0.04148806
000350 47 06 2b 3d d2 c1 2a 3d a3 b8 2f 3d 17 6d 2d 3d
       0.041754033 0.041688748 0.042900693 0.042340364
000360 c3 e1 2d 3d ad 71 2a 3d c9 ab 2a 3d c9 9a 2c 3d
       0.04245163 0.041612316 0.041667733 0.042139802
000370 3f 5c 2c 3d 51 bf 2d 3d b1 13 2b 3d 1d 82 25 3d
       0.04208016 0.04241878 0.041766826 0.04040729
000380 e4 1e 28 3d 30 96 29 3d 6c 26 23 3d e1 15 25 3d
       0.041045085 0.041402996 0.039831564 0.04030407
000390 3b 4c 29 3d df d8 24 3d bb 07 27 3d 21 d4 22 3d
       0.041332465 0.040245887 0.040778857 0.039753083
0003a0 88 8a 24 3d ee 2a 24 3d c4 7c 25 3d c4 4e 29 3d
       0.040171176 0.040080003 0.04040219 0.041334882
0003b0 32 c7 28 3d 39 f8 27 3d 74 21 24 3d 95 80 1e 3d
       0.041205592 0.041008208 0.040070966 0.038696844
0003c0 c4 28 26 3d f0 ac 24 3d 2a 73 2e 3d 21 5c 23 3d
       0.04056622 0.04020399 0.042590298 0.039882783
0003d0 75 bf 26 3d bb 62 24 3d 31 b2 29 3d bd 82 25 3d
       0.04070993 0.04013322 0.041429702 0.040407885
0003e0 11 9c 21 3d fc c1 27 3d 39 64 24 3d f3 00 25 3d
       0.039455477 0.040956482 0.040134642 0.04028411
0003f0 db af 27 3d c1 b6 26 3d e2 91 29 3d 7c f2 22 3d
       0.040939193 0.04070163 0.04139889 0.039782032
