deep_learning/trained_models/mlp/mlp_model_log_loc_feat_shelid_cap.pt (torch, 286510 bytes, 15 tensors)

layers.0.weight f4 [128, 135]
0	0x3aa8bc81	0.0012873561
1	0x3d673650	0.05644828
2	0x3d181176	0.037126027
3	0xbb1e79d3	-0.00241815
4	0x3bfb190b	0.0076628975
5	0xbbfc3ead	-0.007697901
6	0x3aa8f87d	0.0012891438
7	0xbb4aae62	-0.0030926694
8	0x3ba78464	0.0051122177
9	0x3b2bd936	0.0026221997
10	0x3b36bf39	0.0027884974
11	0x3ba23835	0.004950548
12	0xbbf7b194	-0.0075590108
13	0xbb8dc0a2	-0.004325942
14	0x38d7f384	0.00010297357
15	0x3adf7fb3	0.0017051607
16	0x3b03b1ee	0.0020095068
17	0x396e0b50	0.00022701663
18	0xbb3d77b0	-0.002891045
19	0x3b83be65	0.0040204995
20	0x3a8a2621	0.0010539928
21	0xbb22ff5a	-0.002487144
22	0xbb7d6c59	-0.0038669317
23	0xbbda7015	-0.0066661933
24	0x3a26acff	0.0006358176
25	0x3ab7ffdc	0.0014038044
26	0xb8c2b40f	-9.2841794e-05
27	0x3be228c4	0.0069018323
28	0x3ba23831	0.004950546
29	0xbc0cf361	-0.008602948
30	0x3b3c7392	0.0028755409
31	0xb95ebae5	-0.00021241193
32	0xbb167dc6	-0.002296315
33	0x3b1f7dd0	0.0024336465
34	0xbbd186a9	-0.0063942266
35	0xbbc9b505	-0.0061556124
36	0xbbbfc5cb	-0.005852436
37	0xbb079547	-0.0020688341
38	0x3b2ce2b9	0.0026380254
39	0xbb89f88f	-0.0042105387
40	0xbb121d98	-0.0022295471
41	0x3b499ef4	0.003076491
42	0x38693345	5.5599277e-05
43	0xba210eee	-0.00061438873
44	0x3b700689	0.003662499
45	0x3b39e91e	0.0028367708
46	0xbb55ae99	-0.003260529
47	0xbb4eed68	-0.003157461
48	0x3b818c36	0.003953482
49	0x3b2799e7	0.002557391
50	0x3a02a094	0.00049830345
51	0x3b3b2c0a	0.0028560185
52	0x3ad2c42b	0.0016080191
53	0xb9418f6f	-0.00018459347
54	0x3b0d952d	0.0021603808
55	0x3badcccb	0.0053039542
56	0x3a9735ec	0.0011536456
57	0x3add67b7	0.0016891871
58	0x3b8aa8a9	0.0042315316
59	0xbb4af588	-0.0030969102
60	0xba9b215b	-0.0011835502
61	0xbc033e4b	-0.008010457
62	0x3b9cecc0	0.004788965
63	0xbbc5d56d	-0.006037405
64	0xbb29b3b5	-0.0025894467
65	0xbb41ce69	-0.0029572493
66	0x3b374b0b	0.0027968313
67	0x3add5131	0.0016885159
68	0xbae3caee	-0.0017379203
69	0x3a5b2837	0.00083601795
70	0x3abd2be0	0.0014432631
71	0x3b6b797a	0.003593056
72	0x3b1134cd	0.0022156716
73	0x3a8b3ce9	0.0010623011
74	0x3a3e72ef	0.0007265051
75	0x3b64a8d4	0.0034890668
76	0x3a8257bc	0.000994436
77	0x3b8b4db7	0.0042512077
78	0xbb042349	-0.0020162633
79	0x3adc14b4	0.0016790838
80	0x3b6a8f92	0.003579114
81	0xbb561b64	-0.0032670135
82	0x3ad5bf8c	0.0016307696
83	0xbbbc749b	-0.005751205
84	0xbbcc6ecd	-0.0062387944
85	0x3b596c19	0.0033176003
86	0x3a6f0656	0.00091180706
87	0xbaeef13a	-0.001822985
88	0x3b0de0cd	0.0021648884
89	0xbb52940e	-0.0032131705
90	0xbaf2d1fa	-0.0018525713
91	0xbb0e881b	-0.0021748606
92	0xbbd931f2	-0.0066282684
93	0x3a95d659	0.0011431678
94	0xbb3754c7	-0.0027974115
95	0xba7f1f6b	-0.00097321597
96	0xbb0e4d0c	-0.0021713404
97	0xb6c5efe4	-5.8989845e-06
98	0xbb1d8cc9	-0.0024040213
99	0xbb1246a6	-0.0022319942
100	0x3ad0f6c3	0.0015942681
101	0x3b87a80c	0.004139906
102	0x3b65cf4d	0.0035066188
103	0xbb9be554	-0.0047575627
104	0x3b6eb216	0.0036422065
105	0xbb4ba00f	-0.0031070744
106	0x3ab993fd	0.0014158484
107	0x3bd4791c	0.006484164
108	0xbb0210de	-0.001984648
109	0x3bad4514	0.005287776
110	0x3b082800	0.0020775795
111	0xbb4612cd	-0.0030223608
112	0x3ba374eb	0.004988303
113	0x3b44d594	0.003003453
114	0x3951cbf9	0.00020007779
115	0xba236e6e	-0.0006234412
116	0xb98e9d79	-0.00027201677
117	0xbb98441a	-0.00464679
118	0x3b31f451	0.002715368
119	0x3babea63	0.005246447
120	0x3b8b13c7	0.004244301
121	0xbb05d1c0	-0.002041921
122	0x3b48f24d	0.0030662
123	0xba0a4114	-0.00052739796
124	0xba5b7fbd	-0.00083732215
125	0x3a7b1e66	0.000957942
126	0x38c85173	9.551914e-05
127	0x3cc62184	0.024185903
128	0xbb86121b	-0.004091514
129	0x3bdb7179	0.0066968766
130	0xbb7df7bd	-0.00387524
131	0xbc8647d0	-0.016391665
132	0x3c36685c	0.01113328
133	0xbd073ceb	-0.03301708
134	0xbbac6774	-0.005261356
135	0xb9af34da	-0.0003341798
136	0x3d131b60	0.03591478
137	0x3d1b7f79	0.037963364
138	0x3a629df7	0.00086447544
139	0xbb73fa49	-0.003722804
140	0xbae06938	-0.0017121201
141	0xbb974e56	-0.0046174927
142	0xbbe6d981	-0.0070449715
143	0x390f28d9	0.0001365276
144	0xbac10a2c	-0.0014727763
145	0xbb9aaacf	-0.004720069
146	0xbb8b207e	-0.0042458167
147	0x3b4f23ad	0.0031606958
148	0x3b658f6a	0.0035028108
149	0x3a301d78	0.00067182584
150	0xbafc841f	-0.0019265449
151	0xb8cbe8b2	-9.723137e-05
152	0x3c1438e0	0.009046763
153	0xbb000f47	-0.0019540356
154	0xbb75ff40	-0.0037536174
155	0x3ba730ab	0.005102237
156	0x3b064ecd	0.0020493746
157	0xbbba7464	-0.0056901444
158	0xbb7a3484	-0.0038178274
159	0xbbbfcd22	-0.005853311
160	0xba28b108	-0.0006435071
161	0x3aea88d6	0.0017893563
162	0x3b355a27	0.0027672143
163	0xb988c4e3	-0.00026086633
164	0xbb21faa2	-0.002471604
165	0x3aa42dcf	0.0012525859
166	0xbb80727a	-0.0039198967
167	0xbb3a349b	-0.0028412703
168	0x3b8047a1	0.003914789
169	0xbb36e897	-0.002790963
170	0xbb614a42	-0.0034376536
171	0xbb19cffc	-0.0023469916
172	0x3af9de73	0.0019063487
173	0xba44a8b3	-0.0007501945
174	0xbbcad7b9	-0.006190267
175	0xba967d8c	-0.0011481508
176	0x3b83c7d9	0.0040216264
177	0x3b5f4e56	0.0034073791
178	0x39ce4d30	0.0003934889
179	0xb9dfa4d6	-0.00042656687
180	0x3b3f3655	0.0029176672
181	0xbb660884	-0.003510029
182	0xbbc4d9fd	-0.0060074315
183	0x3a81878b	0.0009882314
184	0x3ad292e0	0.0016065501
185	0xbab0d382	-0.0013490769
186	0xbb3e6d5e	-0.0029056887
187	0x3b150698	0.0022739526
188	0x3b940e47	0.0045183036
189	0x3bd1a361	0.00639765
190	0xba792684	-0.00095043355
191	0xba1fc0f3	-0.00060941203
192	0x3ab99224	0.0014157933
193	0xba9d05f9	-0.0011979929
194	0xba7154d0	-0.00092060585
195	0x38e14a2e	0.00010742653
196	0xbbe30860	-0.0069284886
197	0xbab25f62	-0.0013608749
198	0xbb9d9378	-0.0048088394
199	0xba620426	-0.0008621834
200	0xb7934d9b	-1.7559903e-05
201	0x3ad00a68	0.0015872242
202	0x3a875ddd	0.0010327656
203	0xb9d0f1cc	-0.00039853004
204	0x3b540aec	0.0032355143
205	0xbc066342	-0.008202376
206	0x3b0efa6d	0.0021816746
207	0xbb3d9957	-0.002893051
208	0xbb1a0e7c	-0.0023507169
209	0xba73952f	-0.00092919444
210	0x3b86cea8	0.004113991
211	0x3a9b8b71	0.0011867118
212	0x3b8b973f	0.0042599733
213	0xbb84fe5e	-0.0040586432
214	0x3abe2924	0.001450811
215	0x3b78067c	0.0037845662
216	0x39d11137	0.00039876412
217	0x3b1d88a5	0.0024037745
218	0xbb60cdec	-0.0034302427
219	0xbb47b8a1	-0.0030475038
220	0x3b9d924e	0.0048087006
221	0xb924abfc	-0.00015704328
222	0xba1d4b2b	-0.00060002756
223	0x3bc0098b	0.0058605126
224	0xba9209d3	-0.0011141844
225	0xba1c69d4	-0.00059666974
226	0x3aea36df	0.0017869136
227	0xba87f84b	-0.001037368
228	0x3a5121a4	0.000797773
229	0xbb13a689	-0.0022529683
230	0x3aabea10	0.0013116021
231	0x3a0e3476	0.00054246874
232	0xbb06cbb9	-0.0020568206
233	0xb9c0febb	-0.00036810883
234	0xbb6bea3d	-0.0035997771
235	0x3b66e952	0.0035234285
236	0xba93e957	-0.0011284751
237	0x3b82cba5	0.0039915615
238	0xbb4b85b6	-0.003105504
239	0x3bc3410b	0.0059586815
240	0xbb272451	-0.0025503824
241	0xba61dcee	-0.000861599
242	0x3bf5fff3	0.007507318
243	0xbacd5af6	-0.0015667367
244	0x3b93d06e	0.0045109307
245	0xbb4a45c9	-0.003086435
246	0xbaa5c13b	-0.0012646088
247	0x390b65b7	0.00013293965
248	0x3b7ce270	0.0038587116
249	0xbb994679	-0.0046775904
250	0xbac1443d	-0.0014745068
251	0xbb556e04	-0.0032566795
252	0xbb15abf9	-0.00228381
253	0x3b83d120	0.0040227324
254	0x3abf3c08	0.0014590034
255	0x3a9636d8	0.0011460437

layers.0.bias f4 [128]
0	0x3d10b1e5	0.035325903
1	0x3c5529c5	0.013010447
2	0x3c9d7a24	0.01922328
3	0x3ca91248	0.0206386
4	0x3c8ccb64	0.017186828
5	0x3cb064ee	0.021532502
6	0x3caf94d0	0.021433264
7	0x3c87efd4	0.016593851
8	0x3ca98742	0.020694379
9	0x3c3af6b1	0.011411355
10	0x3c5232d1	0.012829498
11	0x3c1e4861	0.009660811
12	0x3c940471	0.018068524
13	0x3c8e596a	0.01737662
14	0x3c2fa404	0.010720257
15	0x3bd38dac	0.0064560976
16	0x3c4b53eb	0.012410144
17	0x3cb5be4f	0.022185473
18	0x3c92fa13	0.01794151
19	0x3c8ac110	0.016937762
20	0x3c628368	0.013825275
21	0x3cf35ef4	0.029708363
22	0x3ccee62f	0.025256244
23	0x3c3bb7a0	0.011457354
24	0x3cc49fb6	0.024001937
25	0x3bd5b48f	0.0065217684
26	0x3cdc84f1	0.02691886
27	0x3c7735c2	0.0150885
28	0x3bee6ee5	0.0072764033
29	0x3c8e4128	0.017365053
30	0x3c5756dc	0.0131432675
31	0x3c13d1da	0.0090222005
32	0x3c0d7f5e	0.008636324
33	0x3c07662c	0.008264106
34	0x3c919225	0.017769882
35	0x3c1a4779	0.0094164545
36	0x3c9f541b	0.019449284
37	0x3c89bb3e	0.016812917
38	0x3ce40454	0.027834095
39	0x3b537a0d	0.0032268793
40	0x3c03c343	0.0080421595
41	0x3cafe134	0.02146969
42	0x3bc65218	0.006052267
43	0x3cd46d6d	0.025931085
44	0x3bfc2bfa	0.007695672
45	0x3c9c2520	0.019060671
46	0x3c8d89c3	0.017277604
47	0x3bf127bf	0.0073594744
48	0x3c998906	0.018742096
49	0x3bbd614e	0.005779422
50	0x3ce91c6d	0.028455937
51	0x3c448826	0.011995351
52	0x3ca21c60	0.01978892
53	0x3c84ccfa	0.016211022
54	0x3c1de04b	0.009635995
55	0x3be0c03d	0.006858854
56	0x3b86e954	0.0041171703
57	0x3c477fce	0.012176467
58	0x3c58a3a0	0.013222605
59	0x3c901b04	0.017591007
60	0x3c442d77	0.01197373
61	0x3ca2639c	0.019822888
62	0x3c0ad1f5	0.008472909
63	0x3c1164a0	0.0088740885
64	0x3cb765e7	0.022387458
65	0x3c2281b8	0.009918623
66	0x3c97eb9d	0.018544966
67	0x3c2eaef2	0.010661827
68	0x3ce393c7	0.027780427
69	0x3bfec527	0.0077749672
70	0x3bb7ac9c	0.0056052934
71	0x3caf930c	0.021432422
72	0x3ca43812	0.020046268
73	0x3ca0d8ca	0.019634623
74	0x3c5c6a4d	0.013453078
75	0x3ca68888	0.020328775
76	0x3bd920aa	0.0066262083
77	0x3c2903f7	0.010315887
78	0x3c714ac3	0.014727297
79	0x3bea5e05	0.0071523213
80	0x3bcb1b4c	0.0061983224
81	0x3bf0dcd3	0.007350543
82	0x3c81520d	0.015786195
83	0x3c80e5bc	0.015734546
84	0x3c36ee9a	0.0111652855
85	0x3bf4331e	0.0074523827
86	0x3bf7b18a	0.007559006
87	0x3cfacc16	0.030614894
88	0x3c1e295d	0.009653416
89	0x3c721bab	0.014777104
90	0x3d21f771	0.03954262
91	0x3c3e1ef0	0.011604056
92	0x3ca983b5	0.020692686
93	0x3c4fc2cd	0.0126807215
94	0x3c1e54ea	0.0096638
95	0x3ca79b8b	0.02045991
96	0x3c01c8e6	0.007921433
97	0x3c2e6fb1	0.0106467465
98	0x3ced8273	0.028992867
99	0x3cf5674c	0.029956482
100	0x3ccceceb	0.025015315
101	0x3c5281b4	0.012848306
102	0x3c4be572	0.012444841
103	0x3c0ed35a	0.008717382
104	0x3d0e2e06	0.03471186
105	0x3caba57f	0.020952938
106	0x3c4f9283	0.012669208
107	0x3c2e84b3	0.010651755
108	0x3c1fb417	0.009747527
109	0x3c5a3ca5	0.013320123
110	0x3cc1bf3d	0.02365076
111	0x3c15df47	0.009147472
112	0x3c956304	0.01823569
113	0x3c78c5c2	0.015183868
114	0x3c3083ca	0.010773608
115	0x3c6a639c	0.014305975
116	0x3c899a9e	0.01679736
117	0x3ce73134	0.028221704
118	0x3c501336	0.012699893
119	0x3c0ad4ab	0.008473556
120	0x3cc9b739	0.0246235
121	0x3cba03ad	0.02270683
122	0x3c36aa05	0.011148934
123	0x3c928bdc	0.017888956
124	0x3c746354	0.01491626
125	0x3c280377	0.010254732
126	0x3c0366f3	0.0080201505
127	0x3be7fc41	0.0070796316

layers.3.weight f4 [256, 128]
0	0x3ba8f5b5	0.0051562437
1	0x3bad07ab	0.005280455
2	0x3b7c4931	0.0038495774
3	0x3bd6f7e3	0.006560312
4	0x3bc923cd	0.006138301
5	0x3ba141c1	0.0049211686
6	0x3b98fcb1	0.004668795
7	0x3b473d83	0.0030401654
8	0x3ba06393	0.0048946827
9	0x3ba55653	0.005045691
10	0x3ba3d0ff	0.0049992795
11	0xbb94b58b	-0.004538243
12	0x3bb2223c	0.00543621
13	0x3b9d24e1	0.004795656
14	0x3ba33a9a	0.004981351
15	0x3b6f5b40	0.0036522895
16	0x3b3139dc	0.0027042544
17	0x3ba71705	0.0050991797
18	0x3b551e59	0.003251931
19	0x3bae5bd2	0.0053210044
20	0x3ba7b405	0.0051178955
21	0x3ba25662	0.0049541453
22	0x3b872586	0.004124346
23	0x3bae9c26	0.005328673
24	0x3b8a90fe	0.00422871
25	0x3b86c816	0.0041132076
26	0x3bb40b83	0.0054945364
27	0x3bb52232	0.005527758
28	0x3b9e3bbc	0.0048288982
29	0x3bb1aba3	0.005422072
30	0x3b9a053b	0.0047003306
31	0x3bba9ebb	0.0056951917
32	0x3b950486	0.0045476584
33	0x3ba49aed	0.0050233514
34	0x3bab0031	0.0052185287
35	0x3af36c5a	0.001857172
36	0x3bb6fde3	0.005584465
37	0x3b6b4bf1	0.003590342
38	0x3ba69530	0.0050837025
39	0x3babce77	0.0052431184
40	0x3b93c4e0	0.0045095533
41	0x3b90c89e	0.0044184467
42	0x3b6329db	0.00346624
43	0x3bab24f4	0.005222911
44	0x3bb4aeed	0.005514017
45	0x3b683150	0.0035429783
46	0x3b76ef88	0.0037679393
47	0x3b84cf29	0.0040530157
48	0x3b91f849	0.0044546467
49	0x3b840d6f	0.0040299217
50	0x3b9c2060	0.0047646016
51	0x3b8f6b73	0.0043768226
52	0x3bb15043	0.0054111793
53	0x3b9b0c52	0.0047316933
54	0x3b8807dc	0.0041513275
55	0x3b86414b	0.004097139
56	0x3b8940ad	0.004188618
57	0x3bb4fc1e	0.005523219
58	0x3b894b60	0.0041898936
59	0x3b944552	0.004524865
60	0x3b93ffe7	0.00451659
61	0x3b9f9161	0.0048696254
62	0x3bc08cd4	0.005876163
63	0x3bae621e	0.005321755
64	0x3bb12e8a	0.005407159
65	0x3b93218a	0.004490082
66	0x3ba15465	0.0049233907
67	0x3bae2ba3	0.0053152605
68	0x3babc37c	0.0052418094
69	0x3b9d5e84	0.004802527
70	0x3b6d6d6f	0.0036228558
71	0x3ba30a02	0.0049755583
72	0x3bc561df	0.00602363
73	0x3ba6880e	0.005082137
74	0x3b96e4c3	0.0046049072
75	0x3b96a487	0.00459725
76	0x3b5d6e53	0.0033787682
77	0x3ba3507c	0.0049839597
78	0x3baaf799	0.005217504
79	0x3b9f3b9e	0.004859402
80	0x3b8c9478	0.00429016
81	0x3ba8c401	0.0051503186
82	0x3bab20e3	0.0052224263
83	0x3b8d9c1d	0.0043215887
84	0x3ba1d3ca	0.0049385773
85	0x3b9798a2	0.0046263495
86	0x3b836f10	0.0040110424
87	0x3bb3ce8d	0.0054872693
88	0x3ba2c797	0.0049676406
89	0x3b9b5e2c	0.004741451
90	0x3bb679ec	0.0055687334
91	0x3b9cbbbd	0.0047831223
92	0x3bb45895	0.005503724
93	0x3b974a39	0.0046170023
94	0x3b982678	0.0046432577
95	0x3ba44773	0.0050134
96	0x3b61f3b4	0.0034477534
97	0x3ba38af6	0.0049909307
98	0x3baa78e4	0.0052023996
99	0x3bb11b8c	0.005404895
100	0x3b980f82	0.0046405206
101	0x3ba9aa72	0.0051777894
102	0x3b26ae24	0.0025433386
103	0x3b8c6b20	0.004285231
104	0x3bb988c2	0.0056620548
105	0x3bae4ff1	0.0053195884
106	0x3bb46c74	0.0055060927
107	0x3b9f4c45	0.004861387
108	0x3bad84ab	0.0052953563
109	0x3b6142ac	0.0034372015
110	0x3baf5230	0.0053503737
111	0x3ba21853	0.0049467473
112	0x3b7e24ba	0.0038779215
113	0x3b8ecd6f	0.0043579857
114	0x3bb599da	0.005542022
115	0x3b48e4ca	0.0030653947
116	0x3bacc3a0	0.0052723438
117	0x3b8baa50	0.004262246
118	0x3bae526e	0.005319885
119	0x3bafc0fc	0.0053635817
120	0x3ba9626b	0.005169203
121	0x3b8860c1	0.0041619246
122	0x3ba9104d	0.005159414
123	0x3ba3bd82	0.0049969563
124	0x3baa225f	0.0051920856
125	0x3b9f1f83	0.0048560514
126	0x3baf7bfc	0.0053553563
127	0x3b9288c1	0.0044718687
128	0x3bbc9231	0.005754732
129	0x3ba75ae8	0.0051072724
130	0x3b6eec16	0.0036456636
131	0x3be1d911	0.0068923314
132	0x3bccf688	0.0062549748
133	0x3bb0e9ef	0.005398981
134	0x3b9c9269	0.0047781956
135	0x3b60598c	0.0034233062
136	0x3b8cb219	0.004293692
137	0x3bb20a0e	0.0054333275
138	0x3ba44f23	0.0050143166
139	0xbbac1a8a	-0.005252187
140	0x3bc9a655	0.0061538615
141	0x3b999fda	0.0046882452
142	0x3bb89d40	0.00563398
143	0x3b85d7e7	0.0040845755
144	0x3b25c22e	0.0025292742
145	0x3bb9a8c6	0.0056658713
146	0x3b6dd24f	0.0036288684
147	0x3bc5f3d0	0.0060410276
148	0x3ba41369	0.0050071967
149	0x3bad345c	0.0052857827
150	0x3b9299a0	0.00447388
151	0x3b95605a	0.004558605
152	0x3b912279	0.0044291583
153	0x3b9483cb	0.0045323125
154	0x3bb5e7a6	0.0055512963
155	0x3bb25617	0.0054423916
156	0x3b8dcdcb	0.004327511
157	0x3bc78577	0.0060889083
158	0x3ba1f99d	0.0049430863
159	0x3bcf24c0	0.0063215196
160	0x3ba0873c	0.0048989337
161	0x3bbd16cf	0.0057705413
162	0x3bc40857	0.0059824395
163	0x3b014652	0.0019725752
164	0x3bbcfa77	0.0057671624
165	0x3b636034	0.0034694793
166	0x3bb4f927	0.0055228653
167	0x3ba88dc4	0.005143853
168	0x3b9a8de2	0.004716621
169	0x3b8e62dc	0.004345281
170	0x3b79f264	0.003813886
171	0x3bc03dc0	0.005866736
172	0x3baa7868	0.005202342
173	0x3b6aef4b	0.0035848196
174	0x3b895bcc	0.0041918512
175	0x3b8c044d	0.0042729736
176	0x3b9ca117	0.0047799456
177	0x3b9b7ffd	0.004745482
178	0x3ba97e4c	0.0051725265
179	0x3b954516	0.004555355
180	0x3b9d5487	0.004801336
181	0x3b9cccb0	0.004785143
182	0x3b9ef58e	0.0048510497
183	0x3b8096c7	0.003924224
184	0x3b9c8f3c	0.004777817
185	0x3baf278c	0.0053452905
186	0x3ba0e988	0.0049106516
187	0x3ba5e6b9	0.0050629047
188	0x3ba05be9	0.004893769
189	0x3ba75582	0.005106629
190	0x3bd3e6ca	0.006466721
191	0x3bc15fb6	0.005901302
192	0x3bbfa6db	0.005848748
193	0x3bb06042	0.0053825686
194	0x3b952c10	0.004552372
195	0x3bbf117f	0.005830943
196	0x3babdb62	0.0052446583
197	0x3ba70c40	0.005097896
198	0x3b8ef951	0.004363217
199	0x3bba8d17	0.0056930888
200	0x3bcd5318	0.006266009
201	0x3bb0ce34	0.005395675
202	0x3b97c0d9	0.0046311435
203	0x3baca622	0.005268828
204	0x3b92778a	0.0044698166
205	0x3bc233e2	0.005926595
206	0x3b9f28e6	0.0048571704
207	0x3b9c4f52	0.004770198
208	0x3b83675d	0.0040101246
209	0x3bb7f66d	0.005614093
210	0x3b9ad101	0.0047246222
211	0x3b91ebe4	0.004453169
212	0x3bbb9a87	0.005725208
213	0x3bbca9dc	0.0057575535
214	0x3b955fc6	0.004558536
215	0x3bc7d947	0.0060988995
216	0x3b99df27	0.0046957913
217	0x3b9371e9	0.004499663
218	0x3bce1bad	0.0062899203
219	0x3ba09b67	0.004901338
220	0x3bc58685	0.006027999
221	0x3ba1cd6d	0.0049378187
222	0x3bab7758	0.0052327327
223	0x3baf586f	0.0053511183
224	0x3b61692c	0.0034394963
225	0x3ba5b02c	0.0050564017
226	0x3bb57203	0.005537273
227	0x3bbaaad0	0.005696632
228	0x3baaa66e	0.0052078282
229	0x3bbd87d3	0.005784014
230	0x3b1444b5	0.002262396
231	0x3b9a58ab	0.004710277
232	0x3bcc6cae	0.0062385416
233	0x3ba39b95	0.004992912
234	0x3bae23cb	0.0053143254
235	0x3bb1b82c	0.0054235663
236	0x3ba9e1b5	0.005184377
237	0x3b410207	0.0029450671
238	0x3bbe134d	0.0058006407
239	0x3ba2ae4c	0.0049646255
240	0x3b8877f3	0.0041646897
241	0x3ba4557f	0.0050150747
242	0x3bd5ec30	0.0065284
243	0x3b292746	0.0025810762
244	0x3baa95ac	0.0052058306
245	0x3b925835	0.0044660815
246	0x3bb72ca7	0.00559004
247	0x3bbb69c0	0.0057193935
248	0x3ba3e33c	0.0050014537
249	0x3b9c5631	0.004771017
250	0x3bbc35aa	0.005743702
251	0x3bc400ca	0.0059815394
252	0x3bb3e165	0.0054895156
253	0x3bb0eee9	0.005399574
254	0x3bab7b4e	0.005233205
255	0x3ba68493	0.005081722

layers.3.bias f4 [256]
0	0xb8d7bd1a	-0.00010287222
1	0xb91017ec	-0.00013741822
2	0xb91f09b4	-0.00015167036
3	0xb94c1cb3	-0.00019465647
4	0x38f617bf	0.00011734617
5	0xb94097ff	-0.0001836717
6	0x386e73f9	5.685163e-05
7	0xb8e1b79e	-0.000107630374
8	0x39635545	0.00021680172
9	0xb94b69d7	-0.00019399017
10	0xb908cd1a	-0.00013046377
11	0xb92b7935	-0.00016352984
12	0xb8a782e8	-7.987564e-05
13	0xb8571713	-5.1281484e-05
14	0x39895590	0.00026194425
15	0xb95c95aa	-0.00021036589
16	0xb850c493	-4.977414e-05
17	0xb6a63320	-4.9531372e-06
18	0xb9048354	-0.00012637425
19	0xb8c5fb29	-9.440474e-05
20	0xb7ae3d5b	-2.0770987e-05
21	0xb6b7e1be	-5.480105e-06
22	0xb974832a	-0.00023318516
23	0x38c13e64	9.214578e-05
24	0xb91c2a35	-0.00014893043
25	0xb92ebff7	-0.00016665446
26	0xb79643b8	-1.7912927e-05
27	0x361cb696	2.335209e-06
28	0xb778cfc5	-1.4830327e-05
29	0xb89e05de	-7.53512e-05
30	0xb86afa51	-5.6023073e-05
31	0x38e0aa95	0.00010712926
32	0x3912f6ef	0.00014015635
33	0xb9303171	-0.00016803086
34	0x3850a4d1	4.974456e-05
35	0xb8d29bb4	-0.00010042582
36	0xb942d9d8	-0.00018582435
37	0xb9167cb7	-0.00014351575
38	0x38fa2fbe	0.000119298216
39	0xb8d553c8	-0.00010172237
40	0x382a6a94	4.0630417e-05
41	0x39acf606	0.00032989698
42	0x394a3cad	0.00019286825
43	0xb901d148	-0.00012380362
44	0xb8c781b3	-9.513218e-05
45	0xb86ab3cb	-5.5957393e-05
46	0x38fa82f1	0.00011945319
47	0xb8296294	-4.0384548e-05
48	0x390f2874	0.00013652613
49	0xb736a5ca	-1.0886646e-05
50	0xb90dadbe	-0.00013511532
51	0xb96abe6d	-0.00022386918
52	0x388a6883	6.5998196e-05
53	0xb881a871	-6.182574e-05
54	0xb85d2606	-5.2725918e-05
55	0xb87b1ae4	-5.9868107e-05
56	0x380fc72d	3.4279354e-05
57	0x39089dd1	0.00013028762
58	0xb8cee55a	-9.8655655e-05
59	0x37240c65	9.778048e-06
60	0xb80df339	-3.384354e-05
61	0xb890a5de	-6.89735e-05
62	0xb64c8574	-3.0476049e-06
63	0xb90d8958	-0.00013497972
64	0x38b3cc6a	8.57346e-05
65	0x37fe4d6d	3.0315214e-05
66	0xb88b0f94	-6.630938e-05
67	0x397cc7ac	0.00024106976
68	0x3935fccd	0.00017355681
69	0xb8701bf3	-5.724649e-05
70	0xb900936f	-0.00012261955
71	0x375038cc	1.241099e-05
72	0x37f8c700	2.965657e-05
73	0x394544d0	0.00018813019
74	0x383e42f5	4.536189e-05
75	0xb91f641b	-0.00015200714
76	0xb92a8051	-0.00016260265
77	0xb8bafaed	-8.91591e-05
78	0x39559d54	0.00020371872
79	0xb75d820e	-1.3202907e-05
80	0xb81d1e96	-3.7460202e-05
81	0x37483974	1.1934306e-05
82	0xb7da98da	-2.6058802e-05
83	0xb934f992	-0.0001725911
84	0x8002960f	-2.37502e-40
85	0x38defbea	0.000106327076
86	0xb90821db	-0.00012982583
87	0x380be942	3.335742e-05
88	0xb95604ab	-0.0002041037
89	0xb8a570a9	-7.888798e-05
90	0xb9003094	-0.00012225128
91	0xb95f471f	-0.00021293432
92	0xb8fccbba	-0.000120542434
93	0xb94a03f3	-0.00019265692
94	0x39e7e076	0.0004422699
95	0x37966494	1.7928229e-05
96	0xb987ae1c	-0.00025878928
97	0xb883f7aa	-6.292698e-05
98	0x3986aaca	0.0002568572
99	0xb8d34151	-0.0001007343
100	0xb92237fe	-0.00015470383
101	0xb8bed34a	-9.099262e-05
102	0xb8b3ee30	-8.579751e-05
103	0x393f3f1d	0.00018238691
104	0x393913fa	0.00017650417
105	0x3975d9fc	0.00023446226
106	0xb87c4206	-6.014297e-05
107	0x38a1c63d	7.714003e-05
108	0x399bfbd6	0.00029751536
109	0x38f1b995	0.00011526343
110	0xb72a1f7b	-1.0140119e-05
111	0x3937945d	0.0001750751
112	0xb862fa6b	-5.411582e-05
113	0xb9387bd0	-0.00017593731
114	0xb91438a9	-0.00014135487
115	0xb94483bb	-0.0001874109
116	0xb874c9d7	-5.836211e-05
117	0xb93d1aca	-0.00018034424
118	0xb8c85138	-9.551871e-05
119	0x388b2cff	6.636418e-05
120	0xb905e0a8	-0.0001276756
121	0xb784e195	-1.5840671e-05
122	0xb8f4048e	-0.00011635675
123	0xb8ab5969	-8.170569e-05
124	0x3975c98c	0.00023440103
125	0xb8816d02	-6.1715036e-05
126	0xb9053be3	-0.00012706178
127	0x38b699f7	8.7071145e-05
128	0xb7ed4464	-2.8284448e-05
129	0xb822530f	-3.8701164e-05
130	0xb8fc0075	-0.000120163815
131	0x37dbe172	2.6211816e-05
132	0x3809c38f	3.2845473e-05
133	0xb8f6b8d6	-0.000117646225
134	0xb80a3576	-3.2951553e-05
135	0x38a2bd9f	7.760082e-05
136	0x3938b924	0.00017616578
137	0xb8b6c1bf	-8.714524e-05
138	0xb8b1191e	-8.444696e-05
139	0xb8f7e2b8	-0.000118201075
140	0xb796602a	-1.7926173e-05
141	0xb8102ae1	-3.437221e-05
142	0xb731f773	-1.0607636e-05
143	0xb84ec9d3	-4.930219e-05
144	0x391fa2c8	0.00015224062
145	0x38394077	4.4167475e-05
146	0xb8a78016	-7.9870384e-05
147	0xb8e26426	-0.00010795174
148	0xb967fe7c	-0.0002212468
149	0xb8f207db	-0.000115409224
150	0x38e42754	0.00010879213
151	0xb8745844	-5.8256337e-05
152	0xb91a52a4	-0.0001471737
153	0xb907200d	-0.00012886543
154	0x368ddef2	4.2280817e-06
155	0xb83e2009	-4.5329365e-05
156	0xb98923c2	-0.00026157318
157	0xb82409ac	-3.9109655e-05
158	0x39ec3f3f	0.0004506055
159	0xb7081d0c	-8.112995e-06
160	0xb88222f7	-6.205396e-05
161	0xb8d9bd17	-0.00010382587
162	0x3882b0d9	6.2318235e-05
163	0xb95264a0	-0.00020064646
164	0x38bda513	9.04297e-05
165	0x383fc5f5	4.572231e-05
166	0xb91ec3b1	-0.00015140955
167	0x39861e55	0.0002558107
168	0x39184b4c	0.000145239
169	0xb87aeea5	-5.98269e-05
170	0xb922cdbe	-0.00015526169
171	0xb953727d	-0.00020165178
172	0xb891e6ff	-6.957165e-05
173	0x38f76934	0.000117974734
174	0xb8272bd2	-3.9856714e-05
175	0xb8cc5532	-9.743347e-05
176	0xb7ae58c8	-2.0783758e-05
177	0x366abd8d	3.497905e-06
178	0xb7a772cf	-1.9961413e-05
179	0x3954deb1	0.00020300855
180	0xb908d6d5	-0.00013050002
181	0x397778b5	0.00023600722
182	0xb8e9c6fc	-0.000111473695
183	0x387f9b2a	6.0941245e-05
184	0xb97a2f20	-0.00023859413
185	0xb7efa81f	-2.8569308e-05
186	0x399a490b	0.0002942759
187	0x38364073	4.3452204e-05
188	0xb794c1f4	-1.7733291e-05
189	0x383356a5	4.275762e-05
190	0xb8c1efb6	-9.247607e-05
191	0xb8c473c9	-9.367575e-05
192	0x396ae9de	0.00022403101
193	0xb89d8653	-7.511363e-05
194	0xb9204160	-0.00015283143
195	0xb7a7c57a	-1.9999909e-05
196	0x3947416c	0.0001900249
197	0xb90296b4	-0.00012453907
198	0xb9601b7a	-0.0002137254
199	0x3937747d	0.00017495635
200	0xb8ccc008	-9.7632466e-05
201	0xb93ddcea	-0.00018106741
202	0xb930979f	-0.00016841151
203	0xb89e3fd3	-7.545915e-05
204	0xb9165690	-0.00014337362
205	0xb8b24ab6	-8.5016174e-05
206	0xb9238f8c	-0.00015598367
207	0xb94adefe	-0.00019347292
208	0x36c08b08	5.7382313e-06
209	0xb87c0da9	-6.0094204e-05
210	0xb97e2afa	-0.00024239338
211	0xb8fa00be	-0.00011921067
212	0xb9252bad	-0.00015751897
213	0x36ceb652	6.1605033e-06
214	0x3a5537ce	0.0008133621
215	0xb84d2f89	-4.892008e-05
216	0xb787bdaf	-1.6181582e-05
217	0x388dfcb5	6.770474e-05
218	0xb91074c7	-0.00013776413
219	0x3995bbe9	0.000285595
220	0xb7e7379b	-2.756324e-05
221	0x39e1ecbf	0.00043091734
222	0xb900f8f6	-0.00012299776
223	0xb8dc706a	-0.00010511356
224	0x3947eb08	0.00019065675
225	0x39336ee9	0.00017112088
226	0xb901307b	-0.00012320459
227	0xb97347f9	-0.00023201098
228	0xb92d8e48	-0.0001655157
229	0x38befcdd	9.1070055e-05
230	0xb9101299	-0.00013739838
231	0xb91ffd52	-0.00015257791
232	0xb8b6b6d8	-8.7124936e-05
233	0x38aadcd7	8.147366e-05
234	0xb74aefb1	-1.2095946e-05
235	0xb930a3fa	-0.00016845754
236	0xb71df50c	-9.414984e-06
237	0xb80ddf44	-3.3824952e-05
238	0xb8a2ac88	-7.7568984e-05
239	0xb8e82d24	-0.0001107103
240	0xb8c740ba	-9.501116e-05
241	0xb94345cc	-0.0001862265
242	0xb699dcaa	-4.585444e-06
243	0x38cf3e2f	9.882112e-05
244	0x38bf18f4	9.1122376e-05
245	0x387153b0	5.7536818e-05
246	0x38a71426	7.9669335e-05
247	0xb911d3f6	-0.00013907239
248	0xb807c7a1	-3.2372427e-05
249	0x391828ed	0.00014511096
250	0x384d03b0	4.8879243e-05
251	0x38a8c109	8.04682e-05
252	0xb876709b	-5.8755842e-05
253	0x3904a38e	0.0001264943
254	0xb927e429	-0.00016011357
255	0x38d5b298	0.00010189897

layers.6.weight f4 [64, 256]
0	0x3bd7d068	0.0065861233
1	0x3be791d2	0.0070669437
2	0x3c021799	0.007940196
3	0x3bed7fda	0.007247907
4	0x3bd3536e	0.0064491546
5	0x3c02c4b0	0.007981464
6	0x3bf104e7	0.0073553207
7	0x3bf6aafc	0.007527707
8	0x3be2d02b	0.006921788
9	0x3bf67354	0.0075210724
10	0x3bce0eff	0.006288409
11	0x3bf630ca	0.0075131403
12	0x3be6d706	0.0070446758
13	0x3beeba8d	0.007285422
14	0x3c009f1d	0.007850436
15	0x3c0fbe51	0.008773402
16	0x3be31237	0.0069296616
17	0x3bf7f7fc	0.007567404
18	0x3c076ce4	0.008265708
19	0x3bdca3f5	0.0067334124
20	0x3c14e112	0.009086864
21	0x3bf6826e	0.0075228726
22	0x3c0c7af6	0.008574238
23	0x3bd4368f	0.0064762305
24	0x3c10a357	0.008828006
25	0x3be04df8	0.006845232
26	0x3bfbf0bf	0.0076886113
27	0x3bd29efd	0.0064276443
28	0x3c04e985	0.008112316
29	0x3bfd28d1	0.007725813
30	0x3bde7217	0.006788503
31	0x3bfe95e4	0.007769333
32	0x3bffd04f	0.0078068147
33	0x3bf5f356	0.0075058145
34	0x3bdce183	0.0067407503
35	0x3bb0a7af	0.005391083
36	0x3bfa6958	0.0076419525
37	0x3c028373	0.00796591
38	0x3bdb094b	0.0066844574
39	0x3bf64881	0.0075159674
40	0x3c05d9b0	0.0081695765
41	0x3be9509b	0.0071202046
42	0x3c05adf6	0.008159151
43	0x3bef71db	0.007307274
44	0x3c0a1649	0.008428165
45	0x3bc099df	0.005877718
46	0x3bd1cedc	0.0064028334
47	0x3c03c705	0.008043055
48	0x3be3c005	0.0069503807
49	0x3bf2f713	0.0074147074
50	0x3c031129	0.007999697
51	0x3bf81784	0.0075711627
52	0x3c04592b	0.0080779
53	0x3bb9e450	0.005672969
54	0x3c018249	0.007904598
55	0x3bd70479	0.0065618125
56	0x3c21e44f	0.009881093
57	0x3bedba69	0.007254888
58	0x3beda5c9	0.007252429
59	0x3bfe2ae0	0.007756576
60	0x3bd296c6	0.006426665
61	0x3c0ce74d	0.008600068
62	0x3bd54a5d	0.006509109
63	0x3c023b0a	0.007948646
64	0x3c155b8d	0.009116066
65	0x3bccf5f3	0.0062549054
66	0x3bf245b9	0.0073935655
67	0x3c0f4f13	0.00874688
68	0x3bc7833f	0.006088644
69	0x3c02ac90	0.007975712
70	0x3bebb14c	0.0071927663
71	0x3be629b8	0.007024016
72	0x3bdb1096	0.006685327
73	0x3be3ca56	0.0069516106
74	0x3c035979	0.008016937
75	0x3c0554b7	0.008137873
76	0x3bf8e84d	0.007596052
77	0x3c01e9d2	0.007929282
78	0x3bf5bd2c	0.0074993577
79	0x3c118f01	0.008884192
80	0x3c05b924	0.008161817
81	0x3bf8b13e	0.0075894883
82	0x3be5e3cc	0.007015681
83	0x3c08429c	0.008316662
84	0x8001f5e4	-1.80044e-40
85	0x3be13de2	0.006873832
86	0x3bd7316f	0.0065671722
87	0x3bcaa525	0.0061842375
88	0x3c16d567	0.0092061525
89	0x3bff064b	0.0077827326
90	0x3bc6c79d	0.006066276
91	0x3c0e3ffb	0.008682246
92	0x3c03acce	0.008036805
93	0x3bff0140	0.0077821314
94	0x3c031acb	0.008001993
95	0x3c119f95	0.008888145
96	0x3bdf1c5d	0.006808801
97	0x3c04bb5d	0.0081013115
98	0x3bc65bce	0.0060534244
99	0x3bfd2316	0.00772513
100	0x3bdb81f5	0.0066988417
101	0x3be4b476	0.0069795204
102	0x3c012d3d	0.007884321
103	0x3bddcdd5	0.006768922
104	0x3bf8e46a	0.0075955885
105	0x3be974cc	0.007124519
106	0x3bf35f9f	0.0074271704
107	0x3bf572ef	0.007490508
108	0x3c01fc6a	0.007933715
109	0x3bf3b470	0.0074372813
110	0x3be2d735	0.0069226273
111	0x3bfdf760	0.0077504367
112	0x3bf45607	0.0074565443
113	0x3c0d53bb	0.00862592
114	0x3c0135e6	0.007886386
115	0x3be4a4c0	0.0069776475
116	0x3bf7080a	0.0075388
117	0x3c057153	0.008144694
118	0x3c11a824	0.0088901855
119	0x3bffd7bc	0.0078077
120	0x3bff01c9	0.007782195
121	0x3be34208	0.006935362
122	0x3bf762d1	0.0075496216
123	0x3bff1eed	0.007785669
124	0x3be1c5cb	0.006890034
125	0x3bdc066a	0.006714632
126	0x3be9e694	0.0071380828
127	0x3be863fd	0.0070919977
128	0x3bcba720	0.006214991
129	0x3be8f93e	0.00710979
130	0x3bce5d22	0.0062977234
131	0x3be15a53	0.0068772226
132	0x3becd26d	0.007227233
133	0x3bfcacc8	0.007711027
134	0x3c11ea55	0.008905967
135	0x3bd191a7	0.006395537
136	0x3beb94b0	0.007189356
137	0x3bfb8f11	0.007676967
138	0x3bec3eb4	0.007209623
139	0x3bd2cff1	0.00643348
140	0x3bfc0187	0.0076906118
141	0x3c069d08	0.00821615
142	0x3bdcd1be	0.0067388704
143	0x3bd03a35	0.006354595
144	0x3bccee2a	0.0062539773
145	0x3bd826c1	0.0065964167
146	0x3c015333	0.007893371
147	0x3c12fabb	0.008970912
148	0x3be7ab06	0.007069948
149	0x3bfb2f10	0.0076655224
150	0x3c009d8e	0.007850064
151	0x3be09427	0.0068535986
152	0x3c078cac	0.008273285
153	0x3bfbdfd5	0.007686595
154	0x3c0e773a	0.008695418
155	0x3bf7cedb	0.007562501
156	0x3c099e4f	0.00839956
157	0x3bea28a1	0.0071459566
158	0x3bd0e89e	0.0063753864
159	0x3bd49260	0.006487176
160	0x3be8fc11	0.007110127
161	0x3be62cd8	0.0070243888
162	0x3bee783f	0.007277518
163	0x3bda39f5	0.006659741
164	0x3bcab8a3	0.006186561
165	0x3bfaa11e	0.007648601
166	0x3bd57446	0.006514105
167	0x3be7c55c	0.0070730876
168	0x3bf6f8d0	0.007536985
169	0x3bba15bd	0.005678861
170	0x3bd532ba	0.006506291
171	0x3bf123b3	0.007358992
172	0x3bdeb007	0.0067958864
173	0x3c09dadc	0.008413997
174	0x3c0b0513	0.0084850965
175	0x3be6528d	0.007028884
176	0x3bf63c33	0.0075145005
177	0x3beb9c8a	0.007190292
178	0x3bc51225	0.006014126
179	0x3bd97b4b	0.006637012
180	0x3bd1e863	0.0064058765
181	0x3bf74ecd	0.0075472356
182	0x3bc029f6	0.005864377
183	0x3be3e2f3	0.0069545447
184	0x3c022abf	0.007944762
185	0x3c054d35	0.008136083
186	0x3be6c455	0.0070424476
187	0x3c081224	0.008305106
188	0x3c008b96	0.00784578
189	0x3bec61db	0.0072138137
190	0x3c021f4a	0.00794203
191	0x3bd0fad4	0.0063775573
192	0x3bfe44a1	0.007759646
193	0x3bff94cd	0.007799721
194	0x3bf12f2a	0.0073603587
195	0x3c079c0d	0.0082769515
196	0x3bffc145	0.007805022
197	0x3bfbfea1	0.0076902662
198	0x3bf285e5	0.0074012154
199	0x3bfe6b37	0.007764246
200	0x3c079039	0.008274131
201	0x3bf492d7	0.0074637937
202	0x3bff3e39	0.0077894
203	0x3c07b65c	0.008283224
204	0x3c0d6d4b	0.0086320145
205	0x3bb44e2c	0.005502483
206	0x3c045f56	0.0080793705
207	0x3bfb2b6b	0.007665088
208	0x3c118200	0.008881092
209	0x3c07ffb5	0.008300711
210	0x3c06f3ba	0.00823682
211	0x3bea03a9	0.0071415496
212	0x3be93402	0.0071167955
213	0x3bfb2abf	0.007665008
214	0x3c043a43	0.008070531
215	0x3be75d96	0.007060717
216	0x3bf836f1	0.007574909
217	0x3bdc2406	0.0067181615
218	0x3c068691	0.008210794
219	0x3bd8a844	0.0066118557
220	0x3befa5d1	0.007313468
221	0x3c15642c	0.009118121
222	0x3c1605a8	0.009156622
223	0x3c026082	0.00795758
224	0x3bf61eac	0.0075109806
225	0x3c0063c6	0.007836288
226	0x3c09d924	0.008413587
227	0x3c1302ae	0.008972807
228	0x3c0d6d75	0.008632054
229	0x3be80c99	0.00708158
230	0x3bca948e	0.00618226
231	0x3be6d951	0.007044949
232	0x3bddbba9	0.0067667556
233	0x3bb63070	0.0055599734
234	0x3bdf9bdf	0.006824001
235	0x3bf3c910	0.00743974
236	0x3c0437d8	0.008069955
237	0x3c0e6b0e	0.008692516
238	0x3bf5ec7a	0.007504997
239	0x3be5b95f	0.0070106233
240	0x3be80b53	0.007081428
241	0x3bf88584	0.0075842757
242	0x3c03c5ce	0.008042766
243	0x3bf77185	0.0075513744
244	0x3bee8bcb	0.007279848
245	0x3c00bd96	0.007857701
246	0x3bff839b	0.007797671
247	0x3bd72031	0.006565117
248	0x3bf87777	0.0075826007
249	0x3be2753c	0.006910948
250	0x3bd9a06f	0.0066414396
251	0x3c02ddeb	0.00798748
252	0x3c0c6792	0.008569615
253	0x3c008721	0.007844717
254	0x3bef410f	0.0073014568
255	0x3be06e79	0.006849107

layers.6.bias f4 [64]
0	0x389a8136	7.36736e-05
1	0xb987368b	-0.00025789844
2	0xb76c045f	-1.4067714e-05
3	0xb982242a	-0.00024822477
4	0xb937b1db	-0.00017518496
5	0xb84f4add	-4.9422368e-05
6	0xb9510cdf	-0.00019936588
7	0xb9546ac7	-0.00020257673
8	0xb93d4e02	-0.00018053505
9	0xb9923656	-0.00027887773
10	0xb60518d4	-1.9832996e-06
11	0xb887c371	-6.4737054e-05
12	0xb910f69e	-0.00013824782
13	0xb9566fd8	-0.00020450295
14	0xb926acbc	-0.00015895342
15	0xb91a0b26	-0.00014690738
16	0xb97051c2	-0.00022918641
17	0xb936c8d7	-0.00017431691
18	0xb95536b3	-0.0002033364
19	0xb93a2bbc	-0.00017754635
20	0xb94440b8	-0.00018716126
21	0xb9390f69	-0.00017648716
22	0xb8e86093	-0.000110806104
23	0xb98aece1	-0.000264979
24	0xb9632b3a	-0.0002166451
25	0xb8e0a5ef	-0.0001071206
26	0xb90be9aa	-0.0001334312
27	0xb9470291	-0.00018979075
28	0xb9253af0	-0.00015757582
29	0xb950ec7e	-0.00019924526
30	0xb9829d02	-0.00024912512
31	0xb8ac4e2b	-8.216159e-05
32	0xb973c0c5	-0.00023246098
33	0xb8e23893	-0.000107870575
34	0xb92aaebd	-0.00016277558
35	0xb94bfd2a	-0.000194539
36	0xb9770895	-0.00023558953
37	0xb924dcc1	-0.00015722496
38	0xb93bc3ab	-0.00017906602
39	0xb94c2dd7	-0.00019472033
40	0xb95829da	-0.00020614956
41	0xb97e7258	-0.00024265924
42	0xb9385a01	-0.00017581136
43	0xb93d86f7	-0.00018074723
44	0xb8502087	-4.9621358e-05
45	0xb90bd1fc	-0.00013334298
46	0xb953ecbf	-0.00020210723
47	0xb98a6f30	-0.00026404252
48	0xb881d81b	-6.191452e-05
49	0xb991bccf	-0.00027797229
50	0xb88f21b8	-6.825052e-05
51	0xb8ccbecc	-9.763017e-05
52	0xb9404aee	-0.0001833846
53	0xb96145d0	-0.0002148368
54	0xb98c91de	-0.0002681156
55	0xb967e5d6	-0.00022115497
56	0xb922aecc	-0.00015514641
57	0xb9264acb	-0.00015858856
58	0xb8de738a	-0.00010607306
59	0xb8b278bf	-8.510192e-05
60	0xb94c3c9d	-0.00019477536
61	0xb7da988b	-2.6058658e-05
62	0xb8b6bdbe	-8.7137785e-05
63	0xb88b77af	-6.650329e-05

layers.9.weight f4 [32, 64]
0	0x3caaca63	0.020848459
1	0x3cae2ecb	0.021262547
2	0x3cab4332	0.020906065
3	0x3ca6a54d	0.020342493
4	0x3ca62087	0.020279182
5	0x3c9dfa16	0.01928429
6	0x3ca111e3	0.01966185
7	0x3cb1b8fb	0.02169465
8	0x3ca3c60c	0.019991897
9	0x3caa5e81	0.020797016
10	0x3cac54c1	0.021036508
11	0x3ca8a580	0.020586729
12	0x3ca9cbad	0.020727003
13	0x3ca85607	0.020548834
14	0x3ca9d089	0.02072932
15	0x3cb0d7b3	0.021587228
16	0x3cb78daa	0.022406418
17	0x3ca83d03	0.020536905
18	0x3ca7c115	0.02047781
19	0x3ca925f8	0.020647988
20	0x3ca6b819	0.020351456
21	0x3caa6cde	0.020803865
22	0x3ca3d618	0.019999549
23	0x3ca468d0	0.02006951
24	0x3c9ca6f7	0.019122584
25	0x3ca1099c	0.019657902
26	0x3caf3e3f	0.021391986
27	0x3cb11277	0.02161525
28	0x3c99f1f3	0.018792128
29	0x3ca31a61	0.01991004
30	0x3ca23d7c	0.019804709
31	0x3c9d1b99	0.019178199
32	0x3ca30b2c	0.019902788
33	0x3caca8b7	0.021076543
34	0x3ca74b60	0.020421684
35	0x3ca09f97	0.019607348
36	0x3ca6a8a6	0.02034409
37	0x3ca34ba8	0.019933537
38	0x3ca0008c	0.01953151
39	0x3ca601f4	0.020264603
40	0x3ca7e740	0.02049601
41	0x3ca2485b	0.019809892
42	0x3ca66314	0.020310916
43	0x3ca741e4	0.020417161
44	0x3ca940e8	0.020660833
45	0x3cab2090	0.02088955
46	0x3ca56cc0	0.020193458
47	0x3c9be1ec	0.019028626
48	0x3ca2632a	0.019822676
49	0x3ca054d0	0.019571692
50	0x3ca478d5	0.020077148
51	0x3caaae13	0.020834958
52	0x3ca099e7	0.019604636
53	0x3ca54dc4	0.020178683
54	0x3c9b2472	0.018938277
55	0x3ca75e98	0.020430848
56	0x3cacfe56	0.02111737
57	0x3cae0824	0.021244116
58	0x3caca4a2	0.021074597
59	0x3c9ffef5	0.019530753
60	0x3caa5e8a	0.020797033
61	0x3c9bcbf2	0.019018147
62	0x3c9f1551	0.019419344
63	0x3c9ebdd5	0.019377628
64	0x3ca92c56	0.020651024
65	0x3cac4f6f	0.02103397
66	0x3cac2f40	0.021018624
67	0x3cadcf76	0.02121709
68	0x3cabb51b	0.020960381
69	0x3c9b84b4	0.018984176
70	0x3ca43bd0	0.020048052
71	0x3cabf211	0.02098945
72	0x3caa9990	0.020825177
73	0x3cad9fc0	0.021194339
74	0x3cacf586	0.021113168
75	0x3caa6b11	0.020803006
76	0x3cac153b	0.021006217
77	0x3cafec3c	0.02147495
78	0x3cabcd0d	0.0209718
79	0x3cb46b4b	0.022023818
80	0x3cb54473	0.022127366
81	0x3ca888cf	0.020573048
82	0x3ca86142	0.020554189
83	0x3cac34bf	0.021021245
84	0x3ca455dc	0.020060472
85	0x3ca66c07	0.020315183
86	0x3ca61d8c	0.02027776
87	0x3ca59201	0.020211222
88	0x3ca273e5	0.019830653
89	0x3ca90663	0.020632928
90	0x3cb2820c	0.021790527
91	0x3caca914	0.021076716
92	0x3ca7118c	0.02039411
93	0x3caa9ce2	0.02082676
94	0x3ca70db9	0.020392286
95	0x3c9ed606	0.019389164
96	0x3cab34ca	0.020899195
97	0x3cac7f2c	0.021056734
98	0x3ca9115e	0.020638164
99	0x3c9fc48c	0.0195029
100	0x3ca75afb	0.020429125
101	0x3ca6f85f	0.020382104
102	0x3ca6caee	0.020360436
103	0x3ca4d099	0.020118998
104	0x3c9fec8c	0.019521974
105	0x3ca3b2dd	0.01998275
106	0x3ca4a513	0.020098245
107	0x3cabab8b	0.020955821
108	0x3ca77523	0.020441597
109	0x3cab87ff	0.020938871
110	0x3ca76107	0.020432008
111	0x3ca78b57	0.020452185
112	0x3ca32881	0.019916775
113	0x3ca341fa	0.019928921
114	0x3ca365d1	0.01994601
115	0x3ca70b68	0.020391181
116	0x3ca277e4	0.019832559
117	0x3ca8735f	0.020562826
118	0x3ca32b7a	0.019918192
119	0x3cab1695	0.020884791
120	0x3ca69ff6	0.020339947
121	0x3cadde13	0.021224057
122	0x3cab8874	0.02093909
123	0x3ca62a37	0.020283801
124	0x3cab1fde	0.020889219
125	0x3ca179a2	0.01971132
126	0x3caaeba3	0.020864313
127	0x3cac34c4	0.021021254
128	0x3cb06f23	0.02153737
129	0x3cb1d0ca	0.021706004
130	0x3cb24e2a	0.021765787
131	0x3ca97409	0.020685213
132	0x3ca76db8	0.02043806
133	0x3ca0bc52	0.019621048
134	0x3ca3e57a	0.020006884
135	0x3cb0b97c	0.02157282
136	0x3ca55998	0.020184323
137	0x3cace3c3	0.021104699
138	0x3cb635e0	0.022242486
139	0x3cb09d28	0.021559313
140	0x3ca8c824	0.020603247
141	0x3cadec85	0.021230945
142	0x3ca8f182	0.020622972
143	0x3cafd4b6	0.021463733
144	0x3cbef530	0.023310274
145	0x3ca26e71	0.019828053
146	0x3ca65584	0.020304449
147	0x3caf11be	0.021370765
148	0x3cae2a76	0.021260481
149	0x3cab7f51	0.020934733
150	0x3cab724c	0.020928524
151	0x3cac14ee	0.021006074
152	0x3ca15666	0.019694518
153	0x3ca4f369	0.020135598
154	0x3cb46cc7	0.022024525
155	0x3cadeb4f	0.021230368
156	0x3ca796b6	0.020457607
157	0x3ca971e9	0.0206842
158	0x3caaa41b	0.020830205
159	0x3ca4bf7f	0.020110844
160	0x3cac519d	0.02103501
161	0x3cb171c9	0.021660702
162	0x3cac90e3	0.021065181
163	0x3ca5614e	0.020188
164	0x3cad3ee6	0.021148156
165	0x3ca289db	0.019841125
166	0x3ca2c1d0	0.019867808
167	0x3ca93e5a	0.020659614
168	0x3ca498cf	0.020092396
169	0x3caa4870	0.020786494
170	0x3cb244b1	0.02176127
171	0x3cb0433e	0.021516439
172	0x3cafd8bf	0.021465657
173	0x3cacb193	0.021080768
174	0x3caa3d28	0.020781115
175	0x3ca68cbc	0.02033078
176	0x3ca47f2a	0.020080168
177	0x3caab986	0.020840418
178	0x3caef567	0.021357251
179	0x3cadbd38	0.02120839
180	0x3ca15559	0.019694017
181	0x3ca99bc6	0.020704161
182	0x3ca27cc0	0.019834876
183	0x3cb0268f	0.021502761
184	0x3cafddc8	0.021468058
185	0x3cb4325c	0.02199667
186	0x3cb75d2a	0.022383291
187	0x3ca94d27	0.020666672
188	0x3caa371a	0.020778228
189	0x3ca448b9	0.020054208
190	0x3cafc361	0.021455469
191	0x3caf89e0	0.021428049
192	0x3cab0d07	0.020880235
193	0x3cb3a0d5	0.021927277
194	0x3ca803f9	0.020509707
195	0x3ca16fc3	0.019706612
196	0x3ca4d076	0.020118933
197	0x3ca07e40	0.01959145
198	0x3ca9b93c	0.02071821
199	0x3cb0f7c1	0.021602513
200	0x3c9f2770	0.019427985
201	0x3cab6832	0.020923708
202	0x3caa5c53	0.020795977
203	0x3ca78c46	0.02045263
204	0x3cac7d67	0.02105589
205	0x3cb16ae0	0.021657407
206	0x3ca5550f	0.02018216
207	0x3cac7f9c	0.021056943
208	0x3cae004d	0.021240378
209	0x3ca4c97b	0.020115605
210	0x3ca2354c	0.019800805
211	0x3ca919ad	0.020642126
212	0x3ca633fe	0.020288464
213	0x3ca8d0d7	0.020607395
214	0x3ca43c8e	0.020048406
215	0x3ca53893	0.020168578
216	0x3c9e0db3	0.019293642
217	0x3ca1fca2	0.019773785
218	0x3cae47a6	0.021274399
219	0x3cac5d18	0.021040484
220	0x3ca0933d	0.019601459
221	0x3c9fde7e	0.019515272
222	0x3ca29d35	0.019850353
223	0x3c94a766	0.018146228
224	0x3ca6cb24	0.020360537
225	0x3caf7c7b	0.021421662
226	0x3cac7cbb	0.02105557
227	0x3c9af357	0.018914862
228	0x3ca4c6e4	0.02011437
229	0x3c9b438b	0.018953105
230	0x3ca6716b	0.020317754
231	0x3ca85ee6	0.020553064
232	0x3ca345dd	0.019930774
233	0x3ca17120	0.019707263
234	0x3ca39cb5	0.019972185
235	0x3ca414c9	0.020029442
236	0x3ca5c84c	0.02023711
237	0x3ca5faa2	0.020261113
238	0x3cab7c44	0.020933278
239	0x3ca3ab11	0.019979032
240	0x3ca15ada	0.019696642
241	0x3ca9cd7b	0.020727864
242	0x3ca5efdb	0.020255974
243	0x3ca522e9	0.020158248
244	0x3c9eea22	0.019398753
245	0x3ca42c54	0.020040669
246	0x3c9eda75	0.019391278
247	0x3cabac52	0.020956192
248	0x3ca80e68	0.020514682
249	0x3ca9b4ce	0.020716097
250	0x3cae0866	0.021244239
251	0x3c9d3d13	0.019194162
252	0x3ca8b02a	0.020591814
253	0x3c9a9dc3	0.018874055
254	0x3caa571f	0.020793496
255	0x3caa30a7	0.020775152

layers.9.bias f4 [32]
0	0x3883fc47	6.293557e-05
1	0xb807967c	-3.2326658e-05
2	0x38544ef1	5.061826e-05
3	0xb6fca803	-7.5297444e-06
4	0x37529f0c	1.2554006e-05
5	0x36843092	3.939561e-06
6	0xb8cb387a	-9.690314e-05
7	0x36aede0e	5.2114547e-06
8	0xb7cda5d7	-2.451513e-05
9	0x37a6f28c	1.9901687e-05
10	0xb7c9cef7	-2.4057443e-05
11	0xb7c382e4	-2.3306762e-05
12	0xb80c3628	-3.3429038e-05
13	0xb8de34ad	-0.000105955965
14	0xb78f5764	-1.7087623e-05
15	0xb78ecaa3	-1.702208e-05
16	0xb7bf1c3e	-2.2782126e-05
17	0x375ac1d0	1.3038938e-05
18	0x37366382	1.0871214e-05
19	0xb791d444	-1.738419e-05
20	0xb7b56e07	-2.1628117e-05
21	0x378785df	1.6155593e-05
22	0xb8d83206	-0.00010309
23	0xb778eae6	-1.48366435e-05
24	0xb828e356	-4.0266044e-05
25	0x3693fbf7	4.410274e-06
26	0x37e94fbc	2.7812894e-05
27	0x36893d17	4.09003e-06
28	0x37a3bda3	1.951942e-05
29	0x380bd99b	3.3342843e-05
30	0x38062995	3.1986816e-05
31	0x380ad43e	3.309943e-05

layers.12.weight f4 [16, 32]
0	0x3d22c8e6	0.039742373
1	0x3d291f52	0.041289635
2	0x3d283fa9	0.041076336
3	0x3d2322a2	0.03982795
4	0x3d27b9f4	0.040948823
5	0x3d268494	0.04065378
6	0x3d23f6f2	0.040030427
7	0x3d298fb9	0.04139683
8	0x3d276299	0.040865514
9	0x3d2692bd	0.040667284
10	0x3d283d92	0.041074343
11	0x3d2886fc	0.041144356
12	0x3d2d9def	0.042386945
13	0x3d2df8a1	0.04247344
14	0x3d215eae	0.039396934
15	0x3d23f4dd	0.04002844
16	0x3d21fe10	0.039548934
17	0x3d22e18a	0.039765872
18	0x3d25507e	0.040359966
19	0x3d20ce8f	0.03925949
20	0x3d2bc614	0.04193695
21	0x3d230eb7	0.039808955
22	0x3d262dcc	0.04057102
23	0x3d276c81	0.04087496
24	0x3d2cb7f2	0.04216761
25	0x3d2c23ac	0.042026207
26	0x3d22776c	0.03966467
27	0x3d2ad490	0.04170662
28	0x3d20727c	0.03917168
29	0x3d2c9dd8	0.04214272
30	0x3d2162a0	0.039400697
31	0x3d279ece	0.040922932
32	0x3d23a9e3	0.03995694
33	0x3d25d235	0.040483672
34	0x3d27effc	0.04100035
35	0x3d23c897	0.03998622
36	0x3d24af7c	0.040206417
37	0x3d2293ca	0.039691724
38	0x3d222538	0.039586276
39	0x3d2abc07	0.041683223
40	0x3d23ef8a	0.040023364
41	0x3d25edfd	0.040510166
42	0x3d25ca97	0.040476408
43	0x3d258f6a	0.040419973
44	0x3d2abaf1	0.041682187
45	0x3d29a957	0.04142126
46	0x3d21378c	0.039359614
47	0x3d221468	0.039570242
48	0x3d25ed23	0.040509354
49	0x3d255087	0.04036
50	0x3d236e73	0.039900254
51	0x3d249e73	0.04019017
52	0x3d26807a	0.04064987
53	0x3d26e66b	0.040747087
54	0x3d266f2c	0.040633366
55	0x3d28de49	0.041227613
56	0x3d2bfc5f	0.041988727
57	0x3d2a3354	0.041552857
58	0x3d1f9af8	0.03896615
59	0x3d255c3b	0.04037116
60	0x3d23f24e	0.040026
61	0x3d23e717	0.040015306
62	0x3d2a3296	0.04155215
63	0x3d25f29d	0.040514577
64	0x3d26a7d7	0.04068741
65	0x3d29e560	0.041478515
66	0x3d2c82bb	0.04211686
67	0x3d29becd	0.041441727
68	0x3d287022	0.041122563
69	0x3d294d4e	0.04133349
70	0x3d23d641	0.03999925
71	0x3d29eb59	0.04148421
72	0x3d2bfb51	0.04198772
73	0x3d2d908e	0.042374186
74	0x3d29a312	0.04141528
75	0x3d290dfb	0.0412731
76	0x3d303da4	0.043027535
77	0x3d2e6ab8	0.042582244
78	0x3d2d99d4	0.04238303
79	0x3d2a9f07	0.041655567
80	0x3d2a612f	0.041596588
81	0x3d26077f	0.040534493
82	0x3d27d480	0.04097414
83	0x3d28fa17	0.04125413
84	0x3d2c17ce	0.04201489
85	0x3d293f04	0.041319862
86	0x3d2ab71b	0.04167853
87	0x3d2de075	0.042450387
88	0x3d2fb4fd	0.042897213
89	0x3d2dfd79	0.04247806
90	0x3d2bafd9	0.04191575
91	0x3d27fd68	0.04101315
92	0x3d29630e	0.04135423
93	0x3d2d3759	0.04228911
94	0x3d2a5d3a	0.041592814
95	0x3d2ca724	0.042151585
96	0x3d2209be	0.039560072
97	0x3d25bd93	0.040463995
98	0x3d297870	0.041374624
99	0x3d20357f	0.039113518
100	0x3d2435c4	0.040090337
101	0x3d20f1d4	0.039293125
102	0x3d22c79f	0.039741155
103	0x3d29fcc3	0.041500818
104	0x3d27eb84	0.04099609
105	0x3d2abe33	0.041685294
106	0x3d2668d0	0.0406273
107	0x3d2cec3a	0.04221747
108	0x3d2b7d12	0.041867323
109	0x3d2842c2	0.04107929
110	0x3d24e5da	0.040258266
111	0x3d2215cc	0.03957157
112	0x3d27f987	0.041009452
113	0x3d28c15d	0.04120003
114	0x3d281acb	0.041041177
115	0x3d281081	0.041031364
116	0x3d270a10	0.04078108
117	0x3d256135	0.040375907
118	0x3d237ccd	0.03991394
119	0x3d2a8986	0.04163506
120	0x3d296c2a	0.04136292
121	0x3d26d306	0.04072859
122	0x3d2383bd	0.039920557
123	0x3d2875e5	0.041128058
124	0x3d24c019	0.04022226
125	0x3d29e581	0.041478638
126	0x3d273ae2	0.04082764
127	0x3d29439b	0.04132424
128	0x3d25f75c	0.040519103
129	0x3d2636e4	0.04057969
130	0x3d27fb24	0.04101099
131	0x3d2321bb	0.03982709
132	0x3d21cb18	0.039500326
133	0x3d22c965	0.039742846
134	0x3d1fa9b6	0.03898021
135	0x3d239f5a	0.03994689
136	0x3d265b5f	0.040614482
137	0x3d2680a5	0.04065003
138	0x3d247765	0.040152926
139	0x3d250d04	0.040295616
140	0x3d23aba8	0.039958626
141	0x3d2b9947	0.041894224
142	0x3d236246	0.039888643
143	0x3d22582f	0.03963488
144	0x3d27ff88	0.041015178
145	0x3d21ff21	0.03954995
146	0x3d260066	0.040527724
147	0x3d24e002	0.040252693
148	0x3d27fe7a	0.041014172
149	0x3d24fad1	0.04027826
150	0x3d22fb02	0.03979016
151	0x3d2a3b56	0.041560493
152	0x3d29af57	0.041426983
153	0x3d2bd2ed	0.0419492
154	0x3d271651	0.040792767
155	0x3d245052	0.040115662
156	0x3d236087	0.039886978
157	0x3d2604bf	0.04053187
158	0x3d23e3a6	0.040012024
159	0x3d27baa9	0.040949497
160	0x3d284571	0.04108185
161	0x3d2b45c6	0.041814588
162	0x3d30f6ac	0.043203995
163	0x3d26703d	0.040634383
164	0x3d291043	0.041275274
165	0x3d28a55c	0.041173324
166	0x3d268aa7	0.040659573
167	0x3d289703	0.04115964
168	0x3d2934a2	0.04130996
169	0x3d2eafb6	0.04264804
170	0x3d2d4965	0.042306323
171	0x3d2eb834	0.04265614
172	0x3d2b8bf3	0.041881513
173	0x3d300e0b	0.042982142
174	0x3d2a0b0b	0.041514438
175	0x3d264522	0.040593274
176	0x3d26b850	0.040703118
177	0x3d26d89d	0.040733922
178	0x3d2858fd	0.04110049
179	0x3d2a7d2f	0.04162329
180	0x3d2634ad	0.04057758
181	0x3d288f50	0.0411523
182	0x3d2b76be	0.04186129
183	0x3d2c27ee	0.042030267
184	0x3d2ebd10	0.042660773
185	0x3d2ee831	0.042701904
186	0x3d2b62dd	0.04184233
187	0x3d2d2ff8	0.042282075
188	0x3d27213c	0.04080318
189	0x3d29b31b	0.041430574
190	0x3d296623	0.04135717
191	0x3d2da691	0.04239518
192	0x3d28abea	0.041179575
193	0x3d26ae1b	0.040693384
194	0x3d309b57	0.043116894
195	0x3d2670c9	0.040634904
196	0x3d263cc3	0.04058529
197	0x3d28195d	0.041039813
198	0x3d24d866	0.040245436
199	0x3d2a448b	0.041569274
200	0x3d276d8c	0.040875956
201	0x3d2e1203	0.042497646
202	0x3d25f2c4	0.040514722
203	0x3d29cb14	0.041453436
204	0x3d2dade5	0.042402167
205	0x3d32a32d	0.043612648
206	0x3d2b0f2b	0.041762512
207	0x3d2ca510	0.042149603
208	0x3d2b9d39	0.041897986
209	0x3d255351	0.04036266
210	0x3d2cab9b	0.042155843
211	0x3d2b76e9	0.04186145
212	0x3d23c3ad	0.039981533
213	0x3d2bd5aa	0.041951813
214	0x3d2a9be6	0.041652583
215	0x3d279a50	0.04091865
216	0x3d2f7128	0.042832524
217	0x3d2f4f4c	0.042800233
218	0x3d2663f7	0.040622678
219	0x3d2734d8	0.04082188
220	0x3d25f355	0.040515263
221	0x3d29b37e	0.041430943
222	0x3d286618	0.04111299
223	0x3d2d4816	0.042305075
224	0x3d25f837	0.04051992
225	0x3d25b049	0.04045132
226	0x3d2bdf5e	0.041961066
227	0x3d228721	0.03967965
228	0x3d22bd5a	0.03973136
229	0x3d24cac8	0.04023245
230	0x3d26725c	0.040636405
231	0x3d2420bc	0.04007028
232	0x3d28a8b1	0.0411765
233	0x3d31956e	0.043355398
234	0x3d2c4586	0.04205849
235	0x3d2d3620	0.042287946
236	0x3d2a85f9	0.041631673
237	0x3d2e6a21	0.04258168
238	0x3d291e79	0.041288827
239	0x3d264d85	0.040601272
240	0x3d263252	0.040575333
241	0x3d23ccff	0.03999042
242	0x3d27cede	0.04096877
243	0x3d277522	0.04088319
244	0x3d2a7e99	0.04162464
245	0x3d271957	0.04079565
246	0x3d245eb7	0.04012939
247	0x3d2fb373	0.042895745
248	0x3d29987b	0.041405182
249	0x3d2a351b	0.04155455
250	0x3d298ab2	0.041392036
251	0x3d2b70cb	0.041855615
252	0x3d21c32c	0.03949277
253	0x3d27c46e	0.040958814
254	0x3d2a409a	0.041565515
255	0x3d28edac	0.041242287

layers.12.bias f4 [16]
0	0x37e5fe5a	2.7417369e-05
1	0x3841685c	4.6111978e-05
2	0x387bf6cd	6.0072914e-05
3	0x380a3424	3.2950324e-05
4	0xb7804653	-1.5291536e-05
5	0x383ea7da	4.5455854e-05
6	0xb7cb73e8	-2.4253459e-05
7	0x38150298	3.5526784e-05
8	0x383f088b	4.5545905e-05
9	0x37f135d6	2.8754508e-05
10	0xb7155801	-8.901582e-06
11	0x387fda16	6.0999846e-05
12	0x3868db34	5.551726e-05
13	0x384afb39	4.8394522e-05
14	0x3858e57d	5.171214e-05
15	0x367fb1a5	3.8101364e-06
