deep_learning/trained_models/mlp/mlp_model_log_cap.pt (torch, 38087 bytes, 9 tensors)

layers.0.weight f4 [32, 12]
00000000: 3ba0 8a3e f3f6 9f3e 69c9 16bb 33c7 a9ba
00000010: ddd4 2c3e 690b e13d fd85 cb3d 0cbc 1a3e
00000020: 118a a63d 05a6 d3bb e3c2 2cbe 508f afbc
00000030: 7826 8f3e edf2 9e3e e93a 1dbb 6721 033b
00000040: bf24 2d3e b7b7 e73d 01e6 b5be cacc ed3d
00000050: ebc1 da3d d4b9 b3bd c79b 28bd 3104 83bc
00000060: 06fc 173e ce83 843e e9b3 c1ba 646a 7e3a
00000070: 1428 b1bd a9d2 61be 3b30 89be b08e 14be
00000080: 5488 4bbe 80b4 0c3d e8d4 c0bd baa8 99bc
00000090: 7ce7 b63e ff42 0fbe 15e3 f33b e433 f339
000000a0: 67c6 32be 534b 573d a88a 7f3d f597 4f3d
000000b0: ceb9 363d 0686 453c 547b 283d b275 93bb
000000c0: 0de1 913e 0ce2 693e 4b6c 12ba 03c9 12ba
000000d0: 49aa fa39 3879 1f3c d544 663c 449a 103c
000000e0: 731f 073c 0182 e53b 8cf4 9fbc b53e b2bb
000000f0: 169a 82be 298b 11bf 4a25 fdba 1dcd afb9
00000100: 8880 fe3d e340 2f3e 0982 313e e301 183e
00000110: 13b1 1a3e e19d bdba 295c 2dbb 5e2c 48bb
00000120: a2bc c93e 3d7c a0be a221 b43b 77db 5b3a
00000130: fa00 85be ddce f13a c1de 553c 76ac 443b
00000140: 62a2 2fbc 602b 8a3c 6d1b 7b3e 8297 4abc
00000150: a2c3 4b3e 3219 b83e 00e3 d238 3260 5a3a
00000160: 7d6e 883e 66a9 753d ac3d a73e 366a 873e
00000170: 8468 443e f5e4 6ebc 7484 cdbd 7248 083d
00000180: 82fe b63e 9333 833e 9757 8cba 950d fdb9
00000190: e0c8 15bd e115 4dbd 73f9 48bd 0f09 28bd
000001a0: a870 35bd ce50 e23b 9218 c5bc 898d a3bb
000001b0: 39b9 6e3e ee06 9f3e 09d7 22ba bbc3 363b
000001c0: 94c0 743d 8de6 a6be 96b9 653d 1e03 a63c
000001d0: d897 893c 9f28 153d 771a 39bd 36ea 1c3b
000001e0: 6661 a93e 27e5 aa3e 496d d53a 21d7 c439
000001f0: 2dc9 193b 0680 57bd 2008 e5bc 5e39 20bd
00000200: 6ab4 27bd 7b4d d43d 9247 fbbc 3774 063d
00000210: 40cb 523e ebbf dd3e caac 99b9 6682 f039
00000220: 2971 313e c579 91bd ee76 edbc 2315 d63d
00000230: 20ff 163d 1aef 043c abdb 9039 0d92 233d
00000240: ab55 903e a198 d53e 3888 a73a d085 053b
00000250: 365c a3be 3256 923d 5b2f 3f3d 3afc 72be
00000260: 620c 973d b026 d5bc a73f f7bc a258 983d
00000270: 0dbd de3e 1ca6 29be c72f de3a 14f9 5f3b
00000280: fe2e 863d 8535 a4be f751 733e c43e 4a3e
00000290: 9b34 4b3e 530d 06bc 0c35 f93d 578f 76bb
000002a0: b7a7 c63e 837c c03e 69b2 92bb 3bbc 113a
000002b0: 23f8 90be 78e6 213e 4114 113e 86bc 083e
000002c0: 0b52 54be 7feb dd3b e199 87bd 4fae 32bc
000002d0: 9cf3 813e a379 9f3e 827c 4cbb 342d c7b9
000002e0: e9d1 873d de5a a53c 33d4 2c3d 631b 763c
000002f0: 6ef0 a0bc 3138 523d ffdf 08bd 174d ba3b
00000300: 0f5f b53e 2887 b53e 9c6e dfbb 4b94 b23a
00000310: 549c 393e 7bb0 53be 4df0 b2bd 761e 0abd
00000320: eb29 6abc b66b 7cbd 7d33 bb3d 0536 713e
00000330: 7660 ab3e d6d3 be3e eff2 163b f40d b73a
00000340: 85a3 d93d c4a2 03be f4e1 bf3d 5ce1 903d
00000350: 641f 6cbc 26b4 263a a5a8 11be 5b3c 023d
00000360: 606e 903e a4fd 923e 825e ad3a 386a 1fb8
00000370: 39ca 75bd e238 c2bd 51e6 cdbd 1b3e abbd
00000380: f66c a4bd 3178 213c 2099 4abc 2bce 373a
00000390: bdb7 c73e 1c9e d83d 34f8 16bd 7917 72b9
000003a0: 4483 2b3c 1718 063d 9a16 1ebe a03b 4fbd
000003b0: 491b 80bc eb06 193d 945d cb3d e139 e4bd
000003c0: 3591 4e3d c3a8 aa3e 174d 15bb 4533 e3ba
000003d0: b44c 013e f9cd 773d 1ef3 873c edb9 d43d
000003e0: dd76 583d 166d 8a3c 5461 69bd 656a 0bbd
000003f0: 8bcd d63e 6843 a1bd 9883 aeb8 bd3f 2c39
0.2707537 0.31243095 -0.0023008233 -0.0012953043 0.16878076 0.109885044 0.099376656 0.15110797
0.08131803 -0.006459 -0.16871218 -0.021430641 0.27959037 0.31044713 -0.0023991412 0.0020008923
0.16908549 0.11314338 -0.35527042 0.11611326 0.10681518 -0.08775678 -0.041164186 -0.01599321
0.14842233 0.2588181 -0.0014778349 0.00097051845 -0.086502224 -0.22053017 -0.2679461 -0.14507556
-0.19876224 0.034351826 -0.09415609 -0.018757213 0.35723484 -0.139904 0.007442842 0.00046387233
-0.17458497 0.05256207 0.062388092 0.050682027 0.04461079 0.012055879 0.04113324 -0.0045001144
0.28492013 0.22840136 -0.0005585595 -0.0005599411 0.00047810588 0.009733491 0.014054497 0.008825842
0.008247244 0.007004023 -0.019525789 -0.005439604 -0.25508183 -0.56852967 -0.0019313481 -0.00033531422
0.12426859 0.17114596 0.1733476 0.1484447 0.15106611 -0.0014466607 -0.0026452637 -0.0030544023
0.39401728 -0.31344786 0.0054971734 0.000838689 -0.25977308 0.0018448491 0.013053597 0.0030010021
-0.010719867 0.016866386 0.24522181 -0.012365224 0.19898847 0.35956722 0.000100558624 0.0008330374
0.26646796 0.059976004 0.3266424 0.2644822 0.19180495 -0.014580955 -0.10035029 0.033272214
0.3574105 0.25625286 -0.0010707256 -0.0004826604 -0.036568522 -0.050069693 -0.04906602 -0.041024264
-0.04429689 0.0069066053 -0.024059568 -0.0049912375 0.23312844 0.31059974 -0.00062118523 0.002788766
0.05975397 -0.3259777 0.05608519 0.020265158 0.016796038 0.036415692 -0.045191254 0.0023943312
0.33082122 0.33377954 0.001628318 0.00037544317 0.0023465857 -0.052612327 -0.027957976 -0.03911721
-0.04094354 0.10366341 -0.030673776 0.032825675 0.20585346 0.43310484 -0.00029311172 0.00045873522
0.17328323 -0.07103304 -0.028987374 0.1045325 0.0368644 0.008113647 0.00027629486 0.039934207
0.2819036 0.4171801 0.0012781685 0.0020373948 -0.3190629 0.07145347 0.04667602 -0.2372903
0.07375409 -0.026019424 -0.030181719 0.0743878 0.4350361 -0.16567272 0.0016951495 0.0034175562
0.06551932 -0.32072082 0.23761736 0.19750506 0.19844286 -0.008181888 0.12168321 -0.0037622058
0.3879983 0.37594995 -0.0044768346 0.00055593596 -0.28314313 0.15810573 0.14167883 0.13353166
-0.20734422 0.006772458 -0.06621147 -0.010905816 0.25381172 0.3114749 -0.0031202142 -0.00037989917
0.06631834 0.02018493 0.042194556 0.015021178 -0.019645896 0.05132312 -0.033416744 0.0056854594
0.35424086 0.3545468 -0.0068186056 0.0013624517 0.1812604 -0.2067279 -0.0873724 -0.033720456
-0.014292221 -0.06162616 0.0914068 0.23555763 0.3347203 0.37270993 0.0023032983 0.001396595
0.10626892 -0.12855059 0.09369269 0.07074234 -0.014411781 0.00063592417 -0.14224489 0.03179584
0.2820921 0.28709137 0.0013227018 -3.8007478e-05 -0.060007308 -0.09483506 -0.10053695 -0.08361455
-0.08028595 0.009855316 -0.012365609 0.00070116174 0.3900737 0.10577032 -0.0368578 -0.00023087663
0.010468308 0.032737818 -0.1543831 -0.050593972 -0.01563801 0.037360113 0.09929958 -0.11143852
0.05043145 0.3333188 -0.0022781545 -0.0017334005 0.12626916 0.060499165 0.01659542 0.10387025
0.05284773 0.01689772 -0.056977585 -0.034037013 0.41953692 -0.07874185 -8.321478e-05 0.00016426943

layers.0.bias f4 [32]
00000000: 67ff 9bbe 8555 9ebe e813 91be 5d26 7c3d
00000010: f83c 873e 9b52 d0be ef7c 11be 4878 42be
00000020: 3ca5 ad3e be70 17be 75e2 3e3e 290a 3bbe
00000030: 75b2 10be 3be0 a0be 2627 233d df6a 213d
00000040: fb88 35be 87ca 07be 722d 563e 699f 93be
00000050: bb8b acbe 47c4 6c3d dab6 e3bd e10e 82be
00000060: b954 eebe 4e62 29be 3d1f f9be 68a6 3cbe
00000070: d0e3 7dbe 5930 803c 3af7 a8be cd39 193e
-0.30468294 -0.3092462 -0.283355 0.061560024 0.26413703 -0.40688023 -0.14207815 -0.18991196
0.33915126 -0.14789101 0.18641074 -0.18265595 -0.14130576 -0.31421074 0.039832257 0.03940856
-0.17728035 -0.13260852 0.20915774 -0.28832558 -0.33700356 0.057804372 -0.111188605 -0.25401977
-0.46549013 -0.16541407 -0.48656645 -0.18422854 -0.24793935 0.015648054 -0.3300112 0.14963455

layers.3.weight f4 [64, 32]
00000000: bcf4 d0bd ca34 94be c3d2 f6bd 77b8 b93d
00000010: d8e5 b03d 4ea2 60be 190c e23d dc65 933d
00000020: 7bd8 b03d d550 1f3d 19e6 093e 9855 06bc
00000030: b533 953e f624 023e 2493 7e3e 2ed3 c23d
00000040: 99f6 18be fc7a e9bc 32bf ea3d e6be 233e
00000050: b2a0 45bd 5796 893c 91a2 c03d 6618 8bbd
00000060: 55d3 21be 200a cd3c 2042 24be e219 153e
00000070: 6d7c b23c a9e9 56bd 179f 83be 46a7 833d
00000080: 0519 813d 4ba0 c93d 44bb 1f3e b0d5 2abe
00000090: 180a 9fbd ee19 99be 1a62 f5bd eb5b 593d
000000a0: 52e0 8a3c 2bb6 9dbd 2cbe 98bd 51c4 e43c
000000b0: 1208 cdbd 3a1b 8cbe e371 60be 24a1 083e
000000c0: d488 29bd 7ae4 4abd c988 ff3d 29a4 f5bd
000000d0: c480 8c3d d489 b1be 5357 4d3d 0714 87bd
000000e0: 2061 6cbe 152b b9bc 2531 86be 2f1d 4ebd
000000f0: c350 943d d843 543d a146 8b3e 0c5f c83d
00000100: 8f7d 19be 19d6 fbbd 667a 4bbe 8f4b 053e
00000110: 581d 403e 8370 a2be bea4 df3d e364 d2bd
00000120: e863 1a3e e512 0dbd 6fee 0f3e 62d6 00be
00000130: a8d3 f63d 931e 653e be90 9b3e abad 193d
00000140: 6d14 88bc 33e8 40be 2281 3e3e 3c5f 293e
00000150: cda0 0fbe 1199 623b 91c4 623e 7c61 19be
00000160: 41a3 86be 00f8 a5bd 5232 61be 6362 683d
00000170: 6194 993c 6963 c63d 6848 18be b659 473d
00000180: f133 0ebd fec9 2f3e f1a1 b13d d532 bc3c
00000190: 708f e43c fd33 9fbe 22b2 a43c 556f 093d
000001a0: f5d8 b8bd cc22 c83d 966f 73bd 858f 683d
000001b0: 4274 ea3c e977 70be 01d0 933c d604 b03c
000001c0: 76f8 d2be 0027 ca3d fc99 9fbc ebf5 9ebc
000001d0: 1181 f93d 670c eb3a deec 063d 2e24 383d
000001e0: eade 25be cf71 4c3d 5d7e 98be 5473 81be
000001f0: 6e61 90ba 4996 a53d 28e4 873e ca8d dd3c
00000200: e67f 413d a424 763e a200 e53d 1b8e aabd
00000210: 26ea a13d a070 6dbe 36ef e0bd a78a 34bd
00000220: 676d 553d 3b7a 103e 6a0f 553e afdd 8ebd
00000230: fb7a c5bd 897a 45be 887f 9e3c e322 903b
00000240: 9de7 c63d 5540 68bd db78 7fbd 5ed8 18bd
00000250: 1e38 f53c 8a6c e539 fec2 babd b95c 4abe
00000260: 1074 e8bd ac25 0f3e f557 2dbe bf36 d4bd
00000270: 05f4 3abb f40d eabd b33b 253d b9d4 f4bd
00000280: 4772 c4bd 4351 b3bd c506 b5bd d29c e93d
00000290: 4af6 a43d dc1b 99be 2652 e23d ec86 4b3b
000002a0: 22ee b43d edac 86bb e7f1 143e 7d6a 84bd
000002b0: e544 943e effe 1b3e a266 bd3e 6ede 20bd
000002c0: 1ed5 373c 78ca 32bc bbaa 303e 10bd 333d
000002d0: e539 23be 4663 b63c 644d 283e b659 8dbd
000002e0: c114 69be cf1d 8bbd e41c 4cbe 0892 653d
000002f0: b425 4cbd 35f5 53bc 56be afbd 2f38 f03d
00000300: 10cf de3d 3075 06be c398 033e c8c2 cb3c
00000310: ed77 5b3d 2b46 56be 6a4c 6ebe addd 76bd
00000320: 0983 fc3c 3b28 743d 6fa9 eb3b 1e7a 8e3d
00000330: 9301 853d b170 b9be 3b04 683d 912c c33d
00000340: 661d 6cbe b399 8dbb d351 0a3e e2e8 9c3d
00000350: 4f58 8d3d f009 df3b 0f5e 7f3d 477d d9bb
00000360: 5380 c0bd 25eb 383e c26c 46be 63ae d23c
00000370: 4c2d 113e 1dae bb3d 70a6 d9bd 0fd7 48be
00000380: 5a65 1c3d 9ccc acbd 3031 8a3d 41a8 b6bc
00000390: 1b3f ebbc 982c 10be a463 dabc 209c 48bd
000003a0: f62b 883e a8a9 823c ccd7 97bd cfed a83e
000003b0: 63d3 103b 36e2 fabc 1625 4abd c401 413b
000003c0: c500 58bd d4e6 8dbd 143b c5bd 4958 e8bc
000003d0: cbe9 e23d 50b1 6fbc 6e96 c1bc 671f dcbd
000003e0: d2e1 c8bd 6786 c8bd 475d 2bbe d197 bdbc
000003f0: 3bdd 97ba bfb8 57bd cb3b 0fbe 575f a8bc
-0.102029294 -0.28946525 -0.12051918 0.09068387 0.08637589 -0.21936914 0.11037464 0.071971625
0.086350404 0.038895447 0.13466682 -0.008199118 0.29141012 0.12709412 0.24860817 0.095129356
-0.1493782 -0.028501026 0.11462249 0.1599079 -0.048248954 0.01679532 0.09406007 -0.06791763
-0.15803273 0.025029242 -0.1604085 0.14560655 0.021787846 -0.05246893 -0.25707313 0.06428389
0.063036 0.098450266 0.1559878 -0.16683078 -0.07765597 -0.29902595 -0.11981602 0.053066175
0.016952667 -0.077007614 -0.074581474 0.027925642 -0.10011305 -0.27364522 -0.21918444 0.1334272
-0.041390255 -0.0495343 0.124772616 -0.11994202 0.068604976 -0.34675467 0.050132107 -0.06595617
-0.23083925 -0.02260355 -0.2620937 -0.0503208 0.072419666 0.051822513 0.27202323 0.09783754
-0.14989303 -0.12296695 -0.1987091 0.13017105 0.18761194 -0.31726465 0.10920094 -0.10273149
0.15077174 -0.034441847 0.14055799 -0.1258178 0.12052089 0.22374944 0.30383867 0.03751914
-0.016611302 -0.18838577 0.18603948 0.16540235 -0.14026184 0.0034576098 0.22145297 -0.14978594
-0.26296428 -0.08103943 -0.21991852 0.056734454 0.01874751 0.0968693 -0.14871371 0.04866954
-0.034717504 0.17166898 0.08673466 0.022973457 0.027900428 -0.3109435 0.020104472 0.03355344
-0.09025756 0.09772262 -0.05943259 0.056777496 0.02861989 -0.23483242 0.01804352 0.021486681
-0.41205186 0.0987072 -0.019482605 -0.019404372 0.121828206 0.0017932773 0.032940738 0.04495638
-0.16198316 0.049913224 -0.29783908 -0.252833 -0.0011015364 0.08085305 0.26541257 0.02704515
0.047241114 0.24037415 0.11181761 -0.08327886 0.079059884 -0.23187494 -0.10983126 -0.04407754
0.052106287 0.14109127 0.20806661 -0.069758765 -0.09642597 -0.19285025 0.019347921 0.00439869
0.097121455 -0.056701977 -0.062371116 -0.03731572 0.029933985 0.00043759152 -0.09119223 -0.19761933
-0.11350262 0.13979214 -0.16928084 -0.103620045 -0.0028526795 -0.114284426 0.040340137 -0.11954636
-0.09592109 -0.08755734 -0.08839182 0.11406864 0.080547884 -0.29904068 0.11050825 0.0031055762
0.08834483 -0.00410997 0.14545403 -0.064656235 0.28958812 0.15233968 0.36992365 -0.039274625
0.011220245 -0.01091253 0.17252629 0.043881476 -0.15940054 0.022264134 0.16435772 -0.06901877
-0.22761823 -0.06792795 -0.19932896 0.05604747 -0.049840644 -0.01293688 -0.085812256 0.11729466
0.10879338 -0.13130641 0.12851243 0.024873152 0.053581167 -0.20925204 -0.23271337 -0.06027
0.030824201 0.05960868 0.007191829 0.06956886 0.06494441 -0.3621879 0.05664466 0.09529985
-0.2305809 -0.004321301 0.13507776 0.07661606 0.06901609 0.0068066046 0.06234556 -0.0066372487
-0.09399476 0.1805845 -0.19377425 0.02571792 0.14177436 0.09164069 -0.106274486 -0.19613288
0.038182594 -0.08437464 0.06747663 -0.022297027 -0.028716614 -0.14079511 -0.02665884 -0.048977017
0.2659604 0.015950039 -0.07414207 0.32993934 0.0022098653 -0.030625444 -0.049351774 0.0029450515
-0.05273511 -0.069287926 -0.09630409 -0.02836241 0.11079749 -0.014629677 -0.0236313 -0.10748177
-0.09808697 -0.0979126 -0.16734801 -0.02314368 -0.0011586318 -0.052666422 -0.13987653 -0.020553274

layers.3.bias f4 [64]
00000000: 7bda ac3b 90e2 243a eafd 463c 9ff9 ab39
00000010: 9a50 9739 58ac 163c 6ee1 973a ca09 83bd
00000020: d367 50bd 64e7 303b 4f62 4a3b ea44 353a
00000030: 8fb2 a039 1caf d93a 09f8 743b e399 163b
00000040: 200f 90bd 5c15 bb3a 6dab 973a fa9d 5eb8
00000050: 3e91 283b 5522 1cb9 ecf4 bebb 2500 0c3b
00000060: 4334 f63a 1a51 8bbc a4fd 2c3b e2e0 4d3b
00000070: 5d45 0e3a e82c da3a 5be4 cbb8 bc1a 13bb
00000080: ffb4 a03b 6230 f33a b713 be3a 9477 b73a
00000090: e8ad 1c3b 20c1 7f3b ce20 02ba 403f 523a
000000a0: dd4a c63a 0a7b 3e3a d203 073a faef f73a
000000b0: fe5d a037 a3c3 bf3a 8f57 823b 306c 01bc
000000c0: 1252 12b8 22cf 323b 7bf0 333b a7e6 073b
000000d0: 15e4 45bb e47f b9bb b1d0 d73a be2f 0f3b
000000e0: 9311 673a 8a05 96ba cc5f 19bd 5afe f4bc
000000f0: 6396 a23a fb59 953b b052 263c 6200 9dbb
0.0052750683 0.0006289864 0.012145499 0.00032801644 0.00028861017 0.009196363 0.0011587569 -0.063983515
-0.050880264 0.0026993388 0.003088135 0.0006914871 0.00030650615 0.0016607973 0.0037379286 0.0022979907
-0.07034135 0.0014273333 0.0011571475 -5.307605e-05 0.0025721337 -0.00014890109 -0.005827537 0.002136239
0.0018783886 -0.017006446 0.0026396299 0.0031414558 0.0005427206 0.0016645463 -9.722329e-05 -0.0022446355
0.004904389 0.0018553848 0.0014501725 0.0013997429 0.0023907367 0.0039025024 -0.0004963995 0.0008020289
0.0015128512 0.0007266259 0.00051504106 0.0018916123 1.9117255e-05 0.0014630448 0.003977723 -0.007899329
-3.4885546e-05 0.0027284105 0.002745657 0.0020736845 -0.0030195762 -0.0056609977 0.0016465393 0.0021848525
0.00088145694 -0.0011445743 -0.037444875 -0.02990644 0.0012404438 0.0045578456 0.01015155 -0.0047913054

layers.6.weight f4 [64, 64]
00000000: 55bd 78bb ecda 343e 0068 ff3c 324f 723d
00000010: 4092 0a3e 4872 323c 9ea2 473d af9d 743e
00000020: 2d42 793d 3014 803d 868c ae3d a9de ccbc
00000030: 4301 1b3e 46d2 633d a7ae e73c e3aa cd3d
00000040: 63fe 8f3d 6955 6e3d bc83 c8bb 71ac 18bb
00000050: 0777 c23a 0eea 073e 5690 acbc 6593 a23d
00000060: eec9 343e 13d8 ff3d b3c7 0e3e 71ff 5cbd
00000070: 96ce 9e3d ec32 a63d a59e 2c3c 551c 4a3d
00000080: 8e05 b53d c8e1 143d a0a4 ea3d 52f5 ec3c
00000090: 3a4d da3c 0203 d53c 0b5e 8e3d c642 7b3d
000000a0: 5efb 8f3c 4181 013e 6f0f 3cbb 1ada 1f3d
000000b0: 5e42 ac3d f037 653c 711a 183d 642d 123e
000000c0: 045b 843d 0390 3c3b 9e3c c63c 4de2 cdbc
000000d0: 1022 b73c 1b66 b13d 3d46 9f3d d1d3 363d
000000e0: 7f27 8b3d a74d 803d 4b39 9f3d 0e65 ee3d
000000f0: c869 d83d 1d4b 983d d6d0 70bb 741b 9c3d
00000100: ce26 3abe 6ce4 963c 57e6 88bd 7fd7 2dbd
00000110: 92a1 173d 4344 8ebd a642 04bd f3bc c53c
00000120: fbd4 8d3d b00c f83b 9aed 94bb 5d06 623d
00000130: fce5 0bbd 9c13 afbd 5ac1 073d 9a95 2b3d
00000140: 391d 44bd e8f3 683d e9ee 003c 9bf9 6fbc
00000150: ecb3 94bd c0cb 2e3d 3dd1 6bbc 0f15 023d
00000160: 4d3c c33d 3e06 3d3d 5499 1e3d 355d d83e
00000170: c385 233c ffc8 303c 39a2 22bd 6425 10be
00000180: 41af 2ebd 716e 583d c13b 3f3c 307b dc3b
00000190: 6167 80bc e602 7539 3c03 59bd 60ce 433d
000001a0: 6792 6cbd aa7b 70bd 1b9a 26bd 5fd8 e53b
000001b0: ec55 013c a3ed d53c 38c9 0abe a0f2 46bc
000001c0: 72a5 bd3c 2db3 eebb 5c19 26bd bc64 c5bd
000001d0: d4ab 1ebc f286 ac3b 895d 8ebc b546 e33b
000001e0: 965c cb3c 9c6f 483d b952 6cbd e4dd 783b
000001f0: 09dd 163d 5d5e c23c e0ee f8bd 752b 0f3d
00000200: 1c51 b93d 42ad 0a3e 2b16 2a3d 5862 e73d
00000210: d430 8a3d b8c9 283c 854c bf3d 7982 0e3e
00000220: eb0e 463e 8188 d4bb 1565 ff3d 298f f73b
00000230: 4cc8 bc3d e5af 843d 59c5 21bd 913f 313d
00000240: b0af c13d 12fb b53d d5ef 0c3e 10da cf3d
00000250: 80c5 b83d ccd0 163e ad53 bd3d 29ab f73a
00000260: 2f80 473e 318c ee3d 8eb6 8a3d e8f4 96bc
00000270: d441 673e 2f07 22bc 9014 193d 1212 4d3d
00000280: 23f6 113e 8fdf 18bd 1e22 053d 26c1 33bd
00000290: a98c b93d cae8 313d a1f6 5b3d ad1c 8c3b
000002a0: a38c af3d ab8f 0e3e e02a 213e 00ea 7f3d
000002b0: 8a9a 483e 37da cd3d 1341 a73d e83d c53d
000002c0: cff0 043e 3a12 e13c 1bf2 9a3d 4b8b e63d
000002d0: 8a91 133e 71f5 123e 15a8 dd3d 2e1d 103e
000002e0: 24fb a53b 1259 da3d d4d8 ac3d 46df 9b3d
000002f0: 306f f13d c3e3 3d3d f9de d93c 7a50 0a3e
00000300: 028e 6bbc 73b1 af3d df69 30be 7d5e 1bbd
00000310: 918c b63d 3e15 50be afd7 f7bd f7db 8ebd
00000320: e28b df3c 228b e1bc 29ea 7ebd 8e0c 743d
00000330: 8a5b 003c 0f78 2abd f276 18bd f379 813d
00000340: adaa ab3c 83dc 853d b02b bb3d ac36 413d
00000350: dd89 ea3c 7d7e 6abd 256e 233c 09ae 94bc
00000360: e751 213d 7d8c 5fbd 00bb a3bc 7c40 d13e
00000370: 973d 1b3d 51a6 9ebc f022 c8bc 71b2 74bd
00000380: 76cd bbbc c5e9 5e3c e780 7c3b 585c bebd
00000390: 64ae 85bd 0a3b 133d d92e 16bc 3916 d6bc
000003a0: efe2 4cbd 6c41 13bd 2c37 22bd 242a 843d
000003b0: 0b2f a9bb 2b06 d1bc 4882 753d 3d9c 853d
000003c0: 85cc 6e3d 825e 6dbd 2c6f 2f3c c13a 50bd
000003d0: 0cd0 2f3d 4dbe 6a3b 8ef6 c9bc 64d9 393d
000003e0: f217 09bd ef5a a4bc 336d 6abd eff9 6c3d
000003f0: aac6 3abd 1d33 cd3c f723 9fbb 0433 9d3d
-0.0037954648 0.17661637 0.03117752 0.059157558 0.13532352 0.010891505 0.04873907 0.23888277
0.060854126 0.062538505 0.085228965 -0.025008516 0.151372 0.055620454 0.028281523 0.1004236
0.07030942 0.058186922 -0.0061192196 -0.0023296142 0.0014836498 0.13272879 -0.021064918 0.079382695
0.17655155 0.12492385 0.13943367 -0.053954545 0.07754247 0.08115181 0.010535871 0.049343426
0.0883895 0.036348134 0.11457181 0.028925572 0.026648153 0.02600241 0.06951531 0.061342977
0.017575916 0.12646963 -0.0028695723 0.039026357 0.08411096 0.013990387 0.03713459 0.14275128
0.06462672 0.002877236 0.024198826 -0.025132323 0.02235511 0.08662053 0.07777069 0.044635598
0.06794643 0.06264811 0.077746 0.116403684 0.10567051 0.07436202 -0.003674557 0.07622424
-0.18178865 0.018419467 -0.06684559 -0.04244184 0.03701932 -0.06946614 -0.032290123 0.02413795
0.069253884 0.007569872 -0.004544926 0.05518185 -0.034154877 -0.08548662 0.03314338 0.041890718
-0.04787943 0.056873232 0.007869461 -0.014646913 -0.0726088 0.04267478 -0.014393148 0.031758364
0.09532986 0.04614853 0.038720444 0.4225861 0.009980622 0.010790109 -0.03970549 -0.14076763
-0.042647604 0.0528397 0.011671961 0.0067285523 -0.015674295 0.000233661 -0.0529816 0.047804236
-0.057756808 -0.058711685 -0.04067431 0.007014319 0.0078940205 0.02611429 -0.13553321 -0.012142807
0.02315018 -0.007284543 -0.04055153 -0.09638354 -0.009684522 0.00526511 -0.017378585 0.006935919
0.024824422 0.048934564 -0.057696078 0.0037974054 0.03683189 0.023726637 -0.12154937 0.034953553
0.090486735 0.13542655 0.041525047 0.112980545 0.067475945 0.010302 0.09340767 0.13916959
0.19341628 -0.006485999 0.12470452 0.007554908 0.09217891 0.06478862 -0.039494846 0.043273512
0.09457338 0.088857785 0.13763364 0.10149014 0.09022045 0.14728087 0.092444755 0.0018895614
0.19482492 0.11647833 0.06773101 -0.018427327 0.22583705 -0.009889408 0.037373126 0.05006606
0.1425405 -0.037322577 0.03250324 -0.043885373 0.09060032 0.043434896 0.053702 0.0042758794
0.08571746 0.13921992 0.15739012 0.06247902 0.19590202 0.10051387 0.08166709 0.09630948
0.12982486 0.027474511 0.07565709 0.11257037 0.14410987 0.14351441 0.10823075 0.14073631
0.0050653387 0.1066152 0.08439794 0.076109454 0.117887855 0.04635979 0.02659558 0.13507262
-0.014377119 0.08578768 -0.17227887 -0.037931908 0.0891353 -0.20320603 -0.12101685 -0.06975549
0.027288381 -0.027532164 -0.06223503 0.059582286 0.007834325 -0.041618403 -0.03722281 0.06322088
0.020955408 0.065362 0.09139192 0.04717128 0.028630191 -0.057249535 0.009974991 -0.018149393
0.03938475 -0.05457734 -0.01998663 0.4086951 0.037900534 -0.019366415 -0.024430722 -0.059740487
-0.02292512 0.01360554 0.003852898 -0.09294957 -0.06527403 0.035944976 -0.009166443 -0.026133643
-0.05002111 -0.035951063 -0.039603397 0.0645335 -0.0051630787 -0.025515636 0.0599387 0.06523941
0.058300514 -0.057951458 0.010707658 -0.050837282 0.04292302 0.0035818995 -0.0246537 0.045373335
-0.0334701 -0.020062892 -0.057233047 0.057855543 -0.045599617 0.025048787 -0.0048565823 0.07675746

layers.6.bias f4 [64]
00000000: 7660 843a 545c 983e edeb 563a cf86 8f3e
00000010: 1105 0b3e d271 393a f2bd b13e 56d2 90b8
00000020: 648a 3cb8 d542 653e ac1d d637 3f71 ad39
00000030: 2c45 443a 6832 933a 86b6 383e 7f4e 023b
00000040: ff77 0139 1a41 d539 d2a4 703c 38bc df35
00000050: 1db8 2737 8939 40b8 9545 263e aa8a c739
00000060: dcae b5b8 6949 4c3a 7db6 adb8 d78c 0b39
00000070: a98f ad39 4330 0bb8 28fb 9c3e 565d 8c3a
00000080: 329a 6c3a 6cd3 feb8 ac91 6239 93a6 d7b9
00000090: 5355 4d3a 83e4 e2b8 821b 1cb9 6c78 b439
000000a0: eb3e 393a fa24 4b3e bb14 c53e ff9b 27bf
000000b0: ad0d 9f39 9a46 0b3a ed63 f439 960e c338
000000c0: 8557 213e 6b05 a639 dc04 853e 9c9c 4337
000000d0: a231 2a38 044c 1c3c 922b a638 9fa0 d739
000000e0: d72a 163a 9e44 1738 549f 4939 9bd0 a338
000000f0: d8e8 7fb8 4a3f 8b3e 44ba 1c37 e6c9 a4b8
0.0010099548 0.2975794 0.0008198608 0.28032538 0.13576151 0.00070741505 0.3471523 -6.905633e-05
-4.495158e-05 0.22388776 2.5524605e-05 0.00033081506 0.0007487114 0.0011230232 0.18038377 0.0019883213
0.000123471 0.0004067503 0.014687734 1.6669574e-06 9.996843e-06 -4.582995e-05 0.16237481 0.0003805955
-8.663323e-05 0.00077929214 -8.283274e-05 0.0001330854 0.00033104167 -3.318513e-05 0.30660367 0.0010708969
0.00090256624 -0.00012151044 0.00021607307 -0.00041132103 0.00078328437 -0.000108190834 -0.00014887567 0.00034421997
0.00070665654 0.19838324 0.3849238 -0.65472406 0.00030337033 0.00053129497 0.00046613757 9.3010414e-05
0.15756042 0.00031666024 0.2598027 1.1659369e-05 4.0577383e-05 0.009539608 7.9236124e-05 0.00041127668
0.00057284295 3.606511e-05 0.00019228208 7.8113015e-05 -6.101359e-05 0.27196723 9.341693e-06 -7.857736e-05

layers.9.weight f4 [32, 64]
00000000: 47df a4bd 660e 7d3c 7d30 e038 b735 43bd
00000010: 2280 e73c 5fea 87bd ceb1 12bd a3fb afbc
00000020: 3535 3e3d 4b30 73bd 7a86 9a3d 08e4 51bd
00000030: c574 483d c06f 4d3d 015b 4abd ee37 ff3b
00000040: 8ca0 18bd 1051 a23d 0dbb e7bc 512a 0a3d
00000050: 096e b33d 9107 aa3d ec28 eebd f728 a33d
00000060: 73ab 0ebd c19a be3c 6885 833d 2b2f 75bd
00000070: 8bfd 2c3c 4d1a 58bd 70da 903c 6b88 27bb
00000080: 88ce d03d 6032 4abd 5945 57bd 8a5e 0d3d
00000090: 7889 cd3d 1503 b0bd df6d 503d a0cf 7a3d
000000a0: 67a0 953d 4436 d53d eeac 05bd fed5 20be
000000b0: 24b7 fa3b d499 7c3d e752 983d 9fe2 a0bd
000000c0: e2f3 a43d 411f 4039 a7f3 debc 2627 513c
000000d0: c35e 0d3d 79c5 1f3d 7592 cc3b 82e0 8abd
000000e0: b4ed f1bc ed09 6abb e78e 7fbd 8a63 3e3d
000000f0: ffb4 e4bc b102 a6bd b262 2b3e 8082 fdbc
00000100: feb2 b93d 24a7 f6bc 6d17 803c 8c05 dabd
00000110: 4815 0d3d a7cd 9d3d 0f6a b0bd c65b 36bc
00000120: a7b4 a9bb f422 94bd 324c 8e3c dfdb bdbc
00000130: 1d8c 233c ceee b63d e362 ef3c 6877 8cbc
00000140: aae2 63bc 64ea 623d 586e c1bd 62a3 8cbd
00000150: d279 cbbd f97c 87bd 3479 863d de29 ea3d
00000160: 8dbe 5cbd 7cfb 17bd 0268 de3d c0c9 123c
00000170: 172c 363d 9f21 c23d b6a7 053e 6ebf bb3d
00000180: 5e04 b7bd 213d 9abd d100 29bd b51b 96bd
00000190: 9a85 16bd 5684 b23d dc51 acbd 1ffc 42bd
000001a0: 288f 433d dee6 16bd dd8e 8abc aeff 89bd
000001b0: b512 06bd d72a 86bc c5c8 973d 3cd3 6b3c
000001c0: b920 a0bd 3f9c 8bbd 84c0 4b3d d060 6dbc
000001d0: 471b 603d a8b7 703d c112 9a3d eacd 45bd
000001e0: a660 463c c7ed b53d ce2f 60bd 6bfe 3c3d
000001f0: cc36 a13d a336 33bd e8c2 5a3d a3bb ca3d
00000200: ff37 3abf 1e6c c9bc 7dfa 5cbf ca56 6c3d
00000210: 4726 a4bd af54 0ebf 7e8e 3dba b399 46bf
00000220: f149 70bf 3c89 f2bc 6149 73bf ffbd 5fbf
00000230: 9dc2 34bf 4993 69bf 7eb2 34bb fd7b 56bf
00000240: bec9 46bf dfd9 54bf 282e 193e b30b 54bf
00000250: 4e66 5dbf 897d 67bf c89a 023d b0f6 62bf
00000260: 7d38 47bf 754b d3be 81c5 47bf 6f81 51bf
00000270: ff09 61bf 96fa 43bf 0427 e63c c387 60bf
00000280: c40f febe f1fd 1fbf fc67 56bf de95 28bf
00000290: 8557 83bf 3176 1abf 7258 38bf 7386 58bf
000002a0: 2c4c 61bf 807b eebd ffda 483d d3e5 9b3d
000002b0: a3b1 5ebf a994 26bf 850a 5fbf 17ed 1fbf
000002c0: 669d 763d cb11 f9be aa4d a43d 8612 52bf
000002d0: a525 47bf 3094 773e 12c8 3fbf 3c7a 31bf
000002e0: 684f 57bf ceae 33bf 10fc 32bf 3d13 55bf
000002f0: bcb6 67bf 6897 9fbd e2ae 32bf 2b14 5abf
00000300: 4cf9 1cbe 5930 22bb 80e7 f0bd aae5 0abe
00000310: 80fa 14bd f45d 3bbb 911b 893b 17d3 a53c
00000320: f340 103d 02e9 ddbd 119d 18bd 8e54 1c3d
00000330: 4747 0e3d b3a6 803c 6a6c a9bd 9df2 c9bd
00000340: 869a 573c d4e9 e73c 787f ebbd 2051 6bbd
00000350: 0a23 11be 993b 4f3c a94c 233c bded 9fbd
00000360: 2d4d 1a3b c71b efbd 2346 55bd ee67 3e3d
00000370: 5d0e 7bbd fe2c cd3c 5269 9a3c 1fd6 e6bd
00000380: 9dc2 0dbe 99b6 523d 2568 55bd 2672 16be
00000390: b867 04bd 0b04 eabd 4e27 c2bc ea2f 5cbb
000003a0: f2f7 afbd 1d30 07bd 6cf2 a6bd e215 ecbb
000003b0: 74c1 933c 1016 0abe 028b 0dbe 8872 1fba
000003c0: c649 303d b219 1ebe dfb9 bcbc b0de 0f3c
000003d0: 851f f03c c61e c7bd f1f8 c53b 0174 10be
000003e0: 5e52 a5bb d1c8 df3b 5e50 0dbe 2f60 f5bd
000003f0: 1bf2 3abd 377f 3bbd 381f c63d 70c4 1fbc
-0.08050399 0.015445327 0.00010690184 -0.04765865 0.02825934 -0.066364996 -0.0358141 -0.021482294
0.04643746 -0.059372228 0.075451806 -0.05124286 0.048939485 0.0501554 -0.049403194 0.0077886498
-0.037262484 0.07925618 -0.028287435 0.033731762 0.08761222 0.083022244 -0.11628899 0.07966798
-0.034831475 0.023267152 0.064219296 -0.059859436 0.010558496 -0.052759457 0.017682284 -0.002556349
0.10195643 -0.049364448 -0.05255637 0.034513988 0.10035986 -0.08594338 0.05088603 0.061233163
0.07305985 0.10410741 -0.03263562 -0.15706632 0.0076512266 0.06167014 0.07437687 -0.078557245
0.080543295 0.0001832219 -0.027215792 0.012765681 0.0345142 0.039006684 0.006243045 -0.06781103
-0.029532291 -0.0035711483 -0.06239214 0.046481647 -0.027918337 -0.08105982 0.16736868 -0.030946016
0.09067343 -0.030108996 0.01563617 -0.10645589 0.034444124 0.07705241 -0.08613979 -0.011130279
-0.005179006 -0.07233229 0.017370317 -0.023176132 0.009982136 0.08932267 0.029221958 -0.017146781
-0.013909021 0.055399314 -0.094448745 -0.068671 -0.09935345 -0.066156335 0.065660864 0.11433767
-0.05389266 -0.03710507 0.10859682 0.008959234 0.04447564 0.09479069 0.13052258 0.09167372
-0.0893638 -0.07531191 -0.041260544 -0.073295034 -0.036748506 0.08716647 -0.08414051 -0.047603723
0.047743946 -0.036841266 -0.016913826 -0.0673822 -0.032732684 -0.01637785 0.074113406 0.014393624
-0.07818741 -0.06816911 0.049744144 -0.014488414 0.054713514 0.0587689 0.07523108 -0.048292078
0.012108004 0.08883243 -0.05473309 0.04614107 0.0787178 -0.043753278 0.053408533 0.0989907
-0.72741693 -0.024587687 -0.86319715 0.057699956 -0.08015113 -0.55597967 -0.0007231011 -0.77578276
-0.93862826 -0.029606454 -0.9503384 -0.87399286 -0.70609456 -0.91240364 -0.002757221 -0.8378294
-0.77651584 -0.83144945 0.14959013 -0.8283035 -0.8648423 -0.90425926 0.031885892 -0.88657665
-0.7782057 -0.41268507 -0.7803574 -0.81838125 -0.8790588 -0.7655424 0.028094776 -0.87707156
-0.49621403 -0.6249686 -0.8375242 -0.6585368 -1.0261084 -0.60336596 -0.72009957 -0.84580153
-0.88006854 -0.116446495 0.049036976 0.07612195 -0.869898 -0.6507059 -0.87125427 -0.62471145
0.0602087 -0.48646387 0.08022626 -0.82059515 -0.77791816 0.24177623 -0.7491466 -0.6932714
-0.8410554 -0.70188606 -0.69915867 -0.8323248 -0.90513206 -0.0779255 -0.697981 -0.85187024
-0.15329474 -0.0024748056 -0.11762905 -0.13564172 -0.036371708 -0.0028589936 0.0041841944 0.020242257
0.03521819 -0.10835458 -0.037259165 0.038166575 0.034735944 0.015704488 -0.082726315 -0.09860728
0.0131594 0.02830974 -0.11498922 -0.057450414 -0.14173523 0.0126484865 0.009967008 -0.07809017
0.0023544536 -0.1167522 -0.05206884 0.046485834 -0.061292995 0.025045868 0.018849049 -0.11271309
-0.1384377 0.05144367 -0.052101273 -0.14691982 -0.032325476 -0.114265524 -0.023700383 -0.0033597895
-0.08592214 -0.03300487 -0.08151707 -0.007204757 0.018036582 -0.13484979 -0.13822559 -0.0006082435
0.043039106 -0.1543949 -0.023037849 0.00878112 0.029311905 -0.097226664 0.006041639 -0.14106752
-0.0050452193 0.006829359 -0.13800189 -0.11981236 -0.045641046 -0.04577562 0.09673923 -0.009751424

layers.9.bias f4 [32]
00000000: 0bb3 273f 63bd 443f c906 8e3e c78c 8cbd
00000010: ab10 163f a3d7 303f 233f 403f 75d3 b43e
00000020: bd02 0f3f a8ce 253f a447 9d3e 3ed1 143f
00000030: a38b 3cbe b177 353f 0cdd 183f 009a f3bd
00000040: 4e36 213f fb24 193f 8f75 3a3f 86c2 233f
00000050: c927 053e 3697 363f 67ce 853e 99cb 493f
00000060: 39a5 4f3e f2df 2c3f 09ef eebd f11a debf
00000070: 1efa 193f fbd0 3e3f b7ed 0c3f f406 3d3f
0.6550757 0.7685148 0.27739552 -0.06862789 0.58619183 0.69079036 0.7509634 0.3531758
0.55863553 0.6476846 0.3071872 0.5813178 -0.18412642 0.7088576 0.5971229 -0.118946075
0.6297349 0.5982205 0.7283563 0.63968694 0.13003458 0.7132448 0.26134035 0.7882629
0.20277871 0.67529213 -0.11666686 -1.7351972 0.60147274 0.7453763 0.55050224 0.73838735

layers.11.weight f4 [1, 32]
00000000: ef26 873e 2faa 6d3e 6148 6fbf 3a0d 1dbd
00000010: e399 483e 321c 933e f6bc 983e 3f44 81bf
00000020: f91e 3f3e 7d5d e83d 3b49 63bf 5dc7 44bf
00000030: 92d1 9bbd 808f 9c3e 9c36 243e 0333 4dbd
00000040: 7a76 263e f62b 6d3e 6d1e 58bf 67c6 493e
00000050: 10f1 bb3d 4427 8f3e 055b 473e 7be3 603e
00000060: f65f 55bf b837 613e 5858 87bc 2dc8 1fbf
00000070: 6773 423e 68f0 aa3e b6c0 6abf 8733 a23e
0.2639689 0.23209451 -0.93469816 -0.038342692 0.19589953 0.2873245 0.29831666 -1.0098952
0.18664159 0.113459565 -0.88783616 -0.76866704 -0.07608332 0.30578232 0.16036457 -0.050097477
0.16256133 0.23161301 -0.84421426 0.1970459 0.091768384 0.27959645 0.19468315 0.21961777
-0.8334955 0.21993911 -0.016521618 -0.6241482 0.18989335 0.3338654 -0.91700304 0.31679937
