deep_learning/mlp_model_log.pt (torch, 38343 bytes, 9 tensors)

layers.0.weight f4 [32, 14]
00000000: e55d efbe fafc a13d defe 0abf ab1c 063d
00000010: 442e a73c 945f 52ba ee4e 143d 5be1 d63d
00000020: e543 183e f139 a13d ec80 a73d e21d a9bc
00000030: 3228 a7bd 9e98 f4bc 9b27 863e f4a2 0a3d
00000040: cbe7 b73e a963 1b3e 43e7 dabc 7cb2 b83c
00000050: 09bc 293e 7ec5 593e c391 473e c2dd f43d
00000060: 985b 133e 2d6f 903d 59d2 6abd df41 4e3d
00000070: a15c f33e 5315 1ebd e3fa e1bd 4558 19bd
00000080: 5cad d93a 7aa5 9fbb dd4e 2abe f027 4bbc
00000090: 104a 24bd fb96 9bbd 30d6 aebd a654 7f3d
000000a0: e65b c93d be51 53bd 1d3c eabe 5e48 6bbc
000000b0: 6be1 e0be 0ad6 4cbd ffdc a53b 75d8 103b
000000c0: fade e6bd ca93 4fbe f469 2bbe 4a8d 30be
000000d0: 47cb 33be 946e e33b ffd3 2abc c344 c1bb
000000e0: 6476 15bf c8d2 d73b bfa1 d9be cfb7 153d
000000f0: b188 07bc 361d 2c3c b3d1 b6bd 4f84 dcbd
00000100: 0683 55bd a8be d0bd 162e dabd a267 acbb
00000110: 17e9 9c3c 4c2d 93bc 274b dabe bb09 22bc
00000120: 3a9e 55be 3403 4bbc 56ba 223c 888d 093b
00000130: 9aab 923d a785 f6bd 59b2 6dbd 44cf e1bd
00000140: b2fd aebd 8cf8 86bb 6dba 473e 6bfa 343d
00000150: b39c 6dbe 170d 32bd a657 1dbe fff3 563d
00000160: b0b9 85ba d72a e6bc dd44 c93d 9e3d 4e3e
00000170: c1de a83b e224 2c3e 9405 0c3e 1e55 03bc
00000180: 954d 043d c24d 9cbd bea0 343e ec8f 18bd
00000190: c513 df3e da47 0b3d be7e 31bc 5ea3 983d
000001a0: ac41 483e fd02 383d 5f79 8cbe 4d2c 3e3d
000001b0: cb6d 413d 9d25 8abd baa8 273b b643 9e3d
000001c0: 8a2b dc3e 1a80 273d e9f7 3fbd d741 043e
000001d0: 7462 273c 062b cdbc c431 bf3a 2dff 96be
000001e0: 2065 ef3d c759 923d 3e36 a13d e510 7c3b
000001f0: 4a3e 22bd 83e3 573b 236e 82be a00c 41bd
00000200: 91dd 4a3e 2827 283e 0a8e 8b3c 032a aabb
00000210: e863 81be a6a7 5ebd 12fd 0c3e 185d d73d
00000220: db50 b23d a2ad 073c e13a 0cbe 5969 9abc
00000230: 7401 2ebe e1e5 6abe 6c03 d73e af21 62bd
00000240: 3e92 b83c 1b1e 36bc db5c 62bb 8602 89bd
00000250: 32f2 93bb ab4d 85bc a79c 48be f82d b4bd
00000260: ad9b 64be 232d 0cbe 35a4 343e a8b5 8dbd
00000270: 0c60 a93e 50b9 8fbd 66b9 1e3e 07c5 b63d
00000280: 2d51 993e c84c 92bc 48c9 91bd 6611 9d3d
00000290: 9518 c6bd b8b0 94bd ef98 543d e372 bd3d
000002a0: af4a cdbe f940 4bbd a446 ae3d d762 21be
000002b0: bde7 d0bc 0a7a 70bc e4e0 f5bd e8e1 013e
000002c0: be50 113e 4f3d b53d ba55 803d 7593 0ebc
000002d0: 3e60 df3d 5cc4 cabd 96a3 443e 4c4a 003e
000002e0: 5e54 4dbe a604 373e f699 203d 2ff8 3c3d
000002f0: 2301 0cbd 1b90 05be 206a 403d b3fe a53d
00000300: 1f56 6b3d 658c 83bd 520b 37bd f46b e3bd
00000310: 2323 b1bd 8e1e 25be a98f a03e 368d 9cbd
00000320: 0681 193d 7f91 57bb 147c abbd de71 71be
00000330: ad6f 27be d689 dfbd 0b3f 80be 457c 0fbe
00000340: 249b 57be 2775 71bd 45f6 c63d 2f4f 3ebe
00000350: 4473 453e 08f4 f5bd 00fb 313e 70a2 41bd
00000360: b2e7 513e 8b09 913b 8b1b 943d 13e0 793d
00000370: 21b9 a3bd 76f3 0ebd 3d48 0cbe b46a b93d
00000380: 163b 613e 384a 493c 9d59 ed3e a51d 783d
00000390: 97c9 21bc d5c4 0fbd a039 863e bd6d 4a3e
000003a0: d420 f8bd 01db 2f3e d61a 223e 3b32 21be
000003b0: a61a 28be d69c 323d 5e9f a23c 0870 b1bd
000003c0: 0d45 b83e a3bb cc3c c010 a63d 77be c53c
000003d0: f681 4a3d ff05 8c3d 124b 293e f3d2 0d3e
000003e0: d5ee cabd 6301 143c fe97 1dbe 9dd2 70be
000003f0: 24e3 963e a8b3 6f3d 43be 793e 9d5a f7bd
-0.46751323 0.079095796 -0.54295146 0.032742184 0.020407803 -0.00080251065 0.036208086 0.10492202
0.1486965 0.078723796 0.08178887 -0.020644132 -0.081619635 -0.02985793 0.26202092 0.03384681
0.35919032 0.15174736 -0.026721602 0.022546045 0.16575636 0.21266744 0.19489197 0.119563594
0.14390409 0.07052455 -0.05732951 0.05035579 0.47531608 -0.038594555 -0.11034181 -0.037437696
0.0016607451 -0.0048720213 -0.16631646 -0.012399659 -0.040109694 -0.075971566 -0.08536947 0.062336586
0.09831981 -0.051591627 -0.45748988 -0.014360515 -0.4392198 -0.05000881 0.005061745 0.0022101675
-0.11272998 -0.20271221 -0.16739637 -0.17241398 -0.17558013 0.006940672 -0.01042652 -0.0058980896
-0.58383775 0.0065864064 -0.42506215 0.036552247 -0.008272336 0.010505011 -0.08926716 -0.10767423
-0.052126907 -0.10192615 -0.106533214 -0.0052613774 0.019154115 -0.017965935 -0.42635462 -0.009890015
-0.2086114 -0.0123909 0.009932121 0.00209889 0.07161637 -0.12037211 -0.058031414 -0.11025861
-0.08544482 -0.0041189846 0.1950471 0.04418413 -0.23204307 -0.043469515 -0.15365466 0.052478787
-0.0010202434 -0.0280966 0.09827588 0.20140693 0.0051535075 0.16810945 0.13674003 -0.008015899
0.03230055 -0.076320186 0.17639443 -0.03724663 0.4356977 0.03400407 -0.01083344 0.07453035
0.19556302 0.044924725 -0.2743635 0.046428967 0.047223847 -0.067454554 0.0025582747 0.077277586
0.43001968 0.04089365 -0.046867285 0.12915741 0.010216344 -0.02504493 0.0014586975 -0.2949156
0.1168921 0.0714603 0.07871674 0.0038462218 -0.039610185 0.0032942004 -0.25474653 -0.04713118
0.19811083 0.16421187 0.017035503 -0.0051929965 -0.25271535 -0.0543591 0.13768414 0.10515803
0.08706828 0.008281143 -0.13694336 -0.018849062 -0.16992742 -0.22939254 0.41994798 -0.055207904
0.022530671 -0.011115576 -0.003454021 -0.066899344 -0.004514956 -0.016272387 -0.19591008 -0.0879783
-0.2232501 -0.13689093 0.17640765 -0.06919414 0.3308109 -0.070177674 0.15500411 0.08924299
0.29944745 -0.017858878 -0.071184695 0.07669334 -0.096726574 -0.07260269 0.05190366 0.092504285
-0.40096042 -0.04962251 0.085095674 -0.1576036 -0.025501126 -0.014677534 -0.12005785 0.12683833
0.14190957 0.08849584 0.06266351 -0.008702149 0.109070286 -0.09900734 0.19203028 0.12528342
-0.20051715 0.17872867 0.03920933 0.046135124 -0.03418077 -0.13043253 0.04697621 0.08105221
0.05745518 -0.064232625 -0.04468853 -0.11104575 -0.0864928 -0.16124937 0.31359604 -0.07644121
0.037476562 -0.003289312 -0.083732754 -0.23578593 -0.16351195 -0.10914962 -0.25048098 -0.14012249
-0.21055275 -0.058949616 0.09714941 -0.18584894 0.19282252 -0.12009436 0.17380905 -0.047274053
0.20498541 0.0044261864 0.07231816 0.06100471 -0.07994295 -0.03490015 -0.13699432 0.09053555
0.21995196 0.012285762 0.46357432 0.060575146 -0.009874723 -0.035099823 0.2621584 0.19768424
-0.121156365 0.17173387 0.1583055 -0.15741818 -0.16416416 0.0436066 0.019851383 -0.086639464
0.35990182 0.024991816 0.081086636 0.024138672 0.049440347 0.06837081 0.16532543 0.13850002
-0.09908835 0.009033534 -0.15390012 -0.23517843 0.2947017 0.058520943 0.24388985 -0.1207783

layers.0.bias f4 [32]
00000000: 9b54 77be 3214 783e bd54 733e ecc3 8ebe
00000010: 22ea 89be 9360 38be 941c 94bd f934 fdbd
00000020: 18d1 8b3b 7736 3dbd 9693 53be 756a 64be
00000030: 931f e4bd 2147 ecbd 0a33 2bbe 73fe 4abe
00000040: eb64 9fbd 030e eabd c2c3 943d 686d e0bd
00000050: 7d7c 4a3e c70a cabd 6921 b8bd 07f2 aabd
00000060: 8c37 d2bd de88 4cbe 432c 9dbe ecbe 403e
00000070: d8ee e53d bc8f 3abd ef60 bebd 3ef2 99be
-0.24153368 0.24226454 0.23762794 -0.27883852 -0.26936442 -0.1800559 -0.07232013 -0.12363619
0.0042668693 -0.04619452 -0.20661768 -0.22306235 -0.11138835 -0.11537004 -0.16718689 -0.19823627
-0.077829204 -0.11428454 0.072639 -0.109583676 0.19774051 -0.09865337 -0.089907475 -0.08346944
-0.10264501 -0.19974086 -0.30697832 0.18822831 0.112271965 -0.045547232 -0.09295832 -0.3006763

layers.3.weight f4 [64, 32]
00000000: d4d9 25be ff9a 88bd 757e 2f3e 20f5 d2bd
00000010: 0f01 49be 0395 8ebc daf1 b43b 44f9 d63d
00000020: 65ef 963d c4d7 a83d 9203 cd3d 98f4 083d
00000030: fccf 62bd 0334 37be d6b4 eebd 909c 143d
00000040: e36e 803d 9ce9 19be e1f8 8e3c 7d59 da3d
00000050: 763b 0fbd 205f 273e 6cfe 3a3e 7f50 e53b
00000060: a2d4 c23d 86ac 5cbd 65f7 d03d fb1e 1d3e
00000070: b0b1 29be b30b 8d3d 4e69 2cbe c4a2 47be
00000080: 0f41 10be 7ff6 b53d 179e ba3d 9b51 26be
00000090: ddc9 c6bd 3b2c 0dbe f140 a1bd e4da 0ebe
000000a0: f016 d5bc 41bb df3d 4893 623d 6274 7f3d
000000b0: 4968 92bc 2b43 ebbd cee1 45bd b789 313e
000000c0: aa75 063e 625f d53d 3864 0f3e 1288 063e
000000d0: 357c 39bb 9231 dfbc 8daf 1a3e 9a86 113a
000000e0: a95c 22bd f102 b83c 3745 9dbc 6ff6 273e
000000f0: 072e 1fbc c9ac f0bb 7f42 d93d 4112 10bd
00000100: b735 a4bd 18d1 2d3e b990 19bd e869 52be
00000110: 175c 5bbd f750 76bd ed29 16bd d983 373d
00000120: bd7a 11be 523c 65bd cd7a 26be d466 c13c
00000130: db14 9a3c dc91 7c3c cc7a 633e 33d8 0bbe
00000140: c68f d2bb 859c 10be 21fd cbbb 65e6 fabd
00000150: a801 6b3e ab51 eb3d 2c3f 99bd 107b d9bc
00000160: 8f31 a53d c13d 433d 333c 053e 2b1b d5bd
00000170: 15f6 2dbe aeac 363d e529 72bd 5c6e b9bd
00000180: a1fd 5abc 42e7 dc3c acdc c33d b446 2ebe
00000190: 035a f3bd 7a59 b6bd cdaf debc 80c7 3ebd
000001a0: 2ab0 613d 3677 01be f515 293d d47d 39bc
000001b0: ae69 c5bd a119 d33d 8e15 413e db62 953b
000001c0: 9cb6 66be ae2b 21be 8717 b83a 7392 f43c
000001d0: 6da2 143e 4a53 21bb ea68 a43d b1da 56bd
000001e0: 03e3 e1bd 7c85 1e3e f5ff 713d 5b84 103e
000001f0: 4acd e03d fab1 123d 884d 1bbe 15f9 74bd
00000200: 14c0 a8bd bcd0 383e 9e51 9cbc 9acb e8bd
00000210: 85a5 c2bd 7f66 80bd 3a5e 56bd cf20 09be
00000220: 34b8 483e d273 bbbc c80b 553e 8256 0a3e
00000230: 479b c33b 77ca 17be 5a03 11be 8ba5 eb3c
00000240: 9b7b 41be 809c f73c d7f4 b7bd f1f7 16be
00000250: 52a8 973c 957e fa3c 1c62 c2bd 177c e5bd
00000260: 19cc 503d d0f8 2c3e 2f85 81bd 96b0 97bc
00000270: fe14 24be 08af bbbd 4090 3dbe a80c 0cbe
00000280: cbed 293d 0aa1 8bbd f29c 85bd 6af4 0ebe
00000290: ef2e cd3c ed0a 38bd 974a f5bc 2838 f13d
000002a0: 1f0a 07be 3036 043e 1aa8 a4bd c3a0 9bbd
000002b0: fceb 173d 7044 97bd 176b e4bd 2377 223e
000002c0: f0b5 103e 68f2 43bd 7acc 803d dfab ae3d
000002d0: c791 123e d541 143e 6aac 633c cf21 39be
000002e0: 658e 933d 082d 773d 556f 3e3e 7c51 b4bd
000002f0: 6a96 2abd c4f9 e43d 2e2c 183e 3a32 d4bd
00000300: 1ecc 82be a4c9 bf3c 6e3a 35bc 9f9c 47be
00000310: 1e51 60be 322f 06be 2e11 923c 44a9 4f3e
00000320: 5b06 c73d 7bc3 30be d8c7 083c 86d8 f9bd
00000330: ff50 1abe 15eb 37be 6b1f 35be c966 30bd
00000340: 9754 993d 0ebf 093e 856d 68bc 8249 253d
00000350: 47d0 d13d 9376 6e3d 40b8 5a3b c37f 5dbb
00000360: 9ae6 483d bbff 75bb 2f15 b7bc df78 813d
00000370: 2f85 e63d 4f49 b03b e7c1 3bbd a10a b7bd
00000380: af13 81be ed3a dd3d 9eb3 893d e51e ccbd
00000390: 6687 c3bd b131 e7bd 0133 d2bd f14b acbc
000003a0: 58bd 16bd 99f6 013b ddd7 cb3d 42fd 9dbd
000003b0: eea8 fcbd d858 453c d830 2bbe fc2d 0a3d
000003c0: 93f2 be3d 7486 303e 43f4 18bd 465f 8fbd
000003d0: 7fd5 73bd dfb5 92bd c0bb 573d fe25 b53d
000003e0: 67c3 9e3d e33b 13be 448d 563e 10f7 03be
000003f0: d74d 013e f207 8ebd 9189 9c3d dcc7 51be
-0.16196376 -0.06670188 0.17138083 -0.1030066 -0.1962931 -0.017405039 0.005521995 0.104967624
0.0736988 0.08244279 0.100104466 0.033436388 -0.05537413 -0.17890935 -0.116555855 0.036282122
0.0627115 -0.15030521 0.01745266 0.106616 -0.034968816 0.16344881 0.18261117 0.0069981213
0.09513213 -0.05387547 0.10203437 0.1534385 -0.16571689 0.06886997 -0.16837046 -0.19495684
-0.14087318 0.08884906 0.091121845 -0.16242068 -0.09706471 -0.13786404 -0.07873715 -0.13950688
-0.026011914 0.10924388 0.05531624 0.06236685 -0.017871993 -0.11487421 -0.048311047 0.1733769
0.13130823 0.104185835 0.14003074 0.13137844 -0.0028302793 -0.027245317 0.1510603 0.0005551368
-0.03963915 0.02246234 -0.019198043 0.164026 -0.009715564 -0.0073448163 0.10608386 -0.03517366
-0.08018058 0.16974294 -0.037491534 -0.20548213 -0.05355462 -0.060135808 -0.036661077 0.044803474
-0.14206977 -0.05596573 -0.16257782 0.023608603 0.018808773 0.015415635 0.22214812 -0.13656692
-0.0064258305 -0.14122207 -0.0062252437 -0.122509755 0.2294985 0.11490186 -0.07482752 -0.026547939
0.08066093 0.047666315 0.13011245 -0.104055725 -0.16988404 0.044598274 -0.059121985 -0.090542525
-0.013366134 0.026965741 0.09563574 -0.17019159 -0.11882403 -0.08903785 -0.027183438 -0.046576977
0.055099644 -0.12643132 0.041280705 -0.011321504 -0.096392974 0.10307623 0.18855879 0.0045589036
-0.22530597 -0.15739319 0.0014045098 0.029854989 0.14515086 -0.0024616295 0.08027823 -0.052454654
-0.11029627 0.15480608 0.05908199 0.1411299 0.10976656 0.035814263 -0.15166295 -0.059807856
-0.08239761 0.18048376 -0.019081887 -0.11366959 -0.095042266 -0.062695496 -0.052335955 -0.13391422
0.19601518 -0.022882376 0.20805275 0.13509563 0.0059694382 -0.14823328 -0.14161435 0.02876546
-0.18894808 0.030225992 -0.08982246 -0.1474302 0.018512879 0.030577937 -0.09491369 -0.11205309
0.050975893 0.1689179 -0.06324231 -0.01851682 -0.16023633 -0.09164244 -0.18512058 -0.13676703
0.041486543 -0.06817825 -0.065240756 -0.13960424 0.025046794 -0.044932295 -0.029942794 0.11778289
-0.13187455 0.12911296 -0.08039875 -0.07599022 0.037090287 -0.073861 -0.11153238 0.1586576
0.14131904 -0.0478386 0.06289001 0.085288756 0.14313422 0.14478238 0.013896087 -0.18079303
0.07204894 0.06034568 0.18597157 -0.088046044 -0.041647352 0.111804515 0.14860603 -0.103611425
-0.25546354 0.02341158 -0.011061294 -0.1949334 -0.21905944 -0.13103941 0.017830458 0.20279413
0.09718009 -0.1726207 0.008348428 -0.12199502 -0.1506996 -0.1796077 -0.17687766 -0.043066774
0.07486837 0.13451788 -0.014186268 0.040353306 0.10244804 0.05821855 0.0033373982 -0.0033798076
0.049048044 -0.003753646 -0.022348968 0.063218825 0.112558715 0.005379833 -0.045839217 -0.08937574
-0.2521033 0.10802255 0.067237124 -0.0996683 -0.095473096 -0.11288775 -0.102636345 -0.021032305
-0.036801666 0.0019830822 0.09953282 -0.07714321 -0.12336908 0.012045108 -0.16717851 0.03373526
0.09323611 0.1723879 -0.03734232 -0.07000594 -0.059529778 -0.071635954 0.052669287 0.08845137
0.07752114 -0.14378314 0.20952326 -0.12887216 0.1262735 -0.06935109 0.07643426 -0.20486397

layers.3.bias f4 [64]
00000000: e7a5 cfbd f48a adbd 11cd 11bb 9212 943d
00000010: 21e1 793c c5d2 adbd e844 b93d 9af1 9c3c
00000020: 73b6 4ebd dd3a c43d a122 2c3d cecc 903c
00000030: b258 7d3d 3fa5 e8bd f19d 78bd 8e3d 03bc
00000040: f174 b23d fc06 d03d ce85 56bc fc53 32bd
00000050: fabd 82bd c827 df3d c5a3 bdbd 254c 383d
00000060: 1647 f6bb 6994 93bd bff2 ce39 bf47 bdbd
00000070: 40ed dcbd 6180 2ebd 4179 1b3e c761 393d
00000080: 4c4f 84bd f323 c53d 6031 ad3d 33d9 623d
00000090: 311b ac3d 4dad df3c 9d2c 8f3d e581 493d
000000a0: 38d8 ec3c 6210 303e fb48 7abd f489 653c
000000b0: 55b7 2cbd d851 05be 0baa 183e faec 3f3d
000000c0: 4dff 5e3d 084a e03d 2e24 11bd b2ea afbb
000000d0: db0a 0d3e 743f 7f3d 47a4 323d ec8c c33d
000000e0: e89a 07bd 2210 9bbc 20f0 07be 893e 1b3c
000000f0: ef14 0c3e 1bf4 d33c 1d13 a03d a912 c03c
-0.10139065 -0.08473769 -0.0022247473 0.072301045 0.015251429 -0.08487467 0.09046346 0.019158173
-0.050466966 0.0958154 0.042025212 0.017675783 0.061852165 -0.11359643 -0.0606975 -0.008010281
0.08713711 0.10157582 -0.013093425 -0.043537125 -0.063838914 0.108962595 -0.09259752 0.044994492
-0.0075157983 -0.07206041 0.00039472242 -0.092422 -0.10787439 -0.0426029 0.15182973 0.045259263
-0.06460437 0.096259974 0.08456683 0.05538292 0.08403624 0.027304316 0.06990931 0.049196143
0.028911695 0.1719375 -0.061104756 0.014009941 -0.042167027 -0.13019502 0.14908616 0.046856858
0.054442693 0.1095162 -0.035434894 -0.005368554 0.13773672 0.062316373 0.0436137 0.09548363
-0.033106714 -0.018928591 -0.13275194 0.009475359 0.1367986 0.025873234 0.078161456 0.023446398

layers.6.weight f4 [64, 64]
00000000: 5ce7 cb3c 11c5 3bbd 0af2 7bbd c85e 0bbd
00000010: 348e 1e3e 50b4 7ebd 4b99 983d 72c5 73bd
00000020: a471 81bd 78be 6fbd 2604 bdbd 289b 31bc
00000030: 1e4b de3d 6a1e 6abc ccb1 c2bd 4cfd 873d
00000040: da4d e9bd b5b9 bebd 5fdb cf3c 89a8 323d
00000050: cdec d53c 037d 723d b20b 933d 0f6e f4bd
00000060: d9df aebd 63c5 a63d ffb4 f23c 43ee ddbd
00000070: c75b c03d 55d9 ccbb a57f 55bc d910 943d
00000080: 8291 a7bd 9f87 c93c 0930 f23c fdd5 ad3c
00000090: 22ba 8ebd 5eb0 fb3d a925 3d3d efec 3cbd
000000a0: ab76 fb3b ab99 8a3d dfd2 1f3a 4a36 06bb
000000b0: ef01 bc3d 9610 bf3d ba0d d13c bdad b83a
000000c0: 29cb f3bd 6b03 b7ba 2d9f bbbd 6d05 eabd
000000d0: 69e1 013d 0834 633d ea14 8f3d 3a9e 413d
000000e0: 63fd c43d 58de a23d e6ff 903d 3569 d5bd
000000f0: 7cd1 a43c 2447 0b3e 2277 97bd c1b6 ec3d
00000100: 4728 1a3e e8a2 37bd e046 ff3c 1351 a6bc
00000110: b180 a23d a69a 203e 4f9a de3d 0bd6 ee3d
00000120: ae4c edbd 2a43 9fbd c648 60bd 7ea4 c73d
00000130: 9c92 dcbc f891 ee3d 0c48 ce3b 5c1a 083e
00000140: 6c18 18ba 745c 913d 5135 cc3c 82dc 4bbd
00000150: 0995 993d 1363 063c 383f 12bb 8555 8fbd
00000160: 2e94 97bd 4ea1 f23d d62d 3b3d 6a7a 383d
00000170: a115 0a3e a329 d93b e5f6 b43d 2d6e a4bd
00000180: 7b09 b43d da86 e7bd 9f82 30bd 874e b1bb
00000190: 89dd 143d af82 79bd 9e73 a5bd b3b0 b1bc
000001a0: 50bd 00bc 30e8 003e 071c 8c3d 2c7f d03d
000001b0: d893 4a3d 210c 8dbd cc0e 50bd 22bb 683d
000001c0: 5694 6cbb 3c32 d83d e1e6 073d d8b0 bdba
000001d0: 6ebb 003e a86d d83d c93b 9dbd 0af0 0b3e
000001e0: 6a64 7fbd e972 8dbb cc89 39bd a471 553c
000001f0: f1d8 163a d5d3 1f3e 6620 44bd c1c7 f83d
00000200: 8826 373d d1cb 8b3d 379e fb3c aaff f1bd
00000210: b743 c13d 1b93 c8bd 758d f9bd 4adb e7bc
00000220: 8d12 c63d d990 11be 64bf 8dbc 29ff b2bc
00000230: e901 38bd 7803 32bd 9a60 a0bd af94 66bd
00000240: 497a 7f3d 4d03 103d 08b3 16bd 2e91 dc3c
00000250: 5564 ec3d fb42 8b3d 4cd4 383d fdbb c83d
00000260: fbd9 93bd c4c9 a2bc 7f87 34bd 44e8 333d
00000270: 8da0 b73c 761b 823d fc24 0cbe 88d2 80bd
00000280: f64b 933b 261f 13be d20d 82bd 5480 1cbe
00000290: 006a 4bbd d94b f83d c1f3 9abd ecb1 59bd
000002a0: 691e 2ebd ddac 1f3c bad9 8e3b b0ea f3bd
000002b0: a758 d53d 0923 1ebd fc4b 92bc 45c8 b63d
000002c0: 2f09 e5bc fe46 3dbd 8a87 c13d af4c b2bd
000002d0: d336 2dbe b5c3 e4bd c22e 59bc 1c2a 2abd
000002e0: 66d4 75bd becf f3bd 83bf ae3c c0cb c7bc
000002f0: a513 2a3d 3f8f 343d 3984 6e3d 8eb8 84bd
00000300: 7455 363d a8e0 91bd 3374 993d 656c 903d
00000310: 4ab2 273d 03d0 98bd 468c 00be 2f62 833d
00000320: 062c 213d 0992 8bbd 543f 053e 451e debd
00000330: ed11 b0bd a112 003e 20f6 e8bc 3164 003e
00000340: c9f4 9c3d 3bcb b43d c6ca 0c3e 46c5 8f3d
00000350: d1bd dc3c 0f8a 8dbd 7eba b1bd 7604 c83d
00000360: 61ea 833d bed0 d4bc 4865 9a3d 4e5c d5bd
00000370: 3a76 8ebd d238 443c 2bf2 86bd ee65 f6bd
00000380: 115f 38bd c3d1 8dbc be52 653d 00f4 edbd
00000390: 6762 783d db7f cebc 6130 d33d 6465 2c3d
000003a0: 6eb1 39bd 0d05 c73d 6e52 ffbb 7c67 10bd
000003b0: 8b01 babd c9e5 383e aa9a e83b 340b 5b3d
000003c0: 3be2 fdbd 862e fc3d 9312 2bbd ff1e ed3c
000003d0: 727b 933d c185 563d 13e5 453d 0525 8cbd
000003e0: d1af efbd 2c6c 113e e15e 8ebd 8e5b d13b
000003f0: b4d5 a23d a168 d03d 3677 8ebd 297f 78bc
0.024890594 -0.045842234 -0.061510123 -0.034025937 0.15483934 -0.06218368 0.07451113 -0.05951447
-0.06320503 -0.058531255 -0.09229307 -0.010840215 0.10854171 -0.014289478 -0.09506568 0.066401094
-0.11391802 -0.093127646 0.025373159 0.04361776 0.026113892 0.05920125 0.07179965 -0.119350545
-0.08538789 0.08143117 0.029627321 -0.108364604 0.09392505 -0.006251494 -0.013030921 0.07229776
-0.0818205 0.024600802 0.02956392 0.021220202 -0.06969096 0.12289499 0.046178494 -0.046124395
0.0076740584 0.06767591 0.0006096791 -0.0020479136 0.09180056 0.093293354 0.02551924 0.0014089864
-0.11903984 -0.0013962811 -0.0916122 -0.11426816 0.03170911 0.055469543 0.06986411 0.047270037
0.09618642 0.07952565 0.07080059 -0.10420457 0.020119421 0.13601357 -0.0739577 0.11558295
0.15054427 -0.044833094 0.031161726 -0.020302331 0.07934702 0.15683994 0.10869276 0.11661919
-0.11586891 -0.077764824 -0.054756902 0.09748171 -0.026925378 0.11648935 0.0062952098 0.13291305
-0.0005801979 0.07097712 0.024927767 -0.04977084 0.07499129 0.008202332 -0.0022315513 -0.069987334
-0.0740131 0.11847173 0.04569801 0.04503862 0.13484813 0.006627278 0.08836154 -0.08028827
0.08790871 -0.11305018 -0.04309332 -0.0054109725 0.036344085 -0.060915645 -0.08078693 -0.021690702
-0.007857636 0.12588573 0.06841283 0.10180506 0.0494574 -0.06887079 -0.05079536 0.05681909
-0.0036099157 0.105564564 0.033179168 -0.0014472259 0.12571499 0.1056779 -0.07677419 0.13665786
-0.06235162 -0.004316677 -0.04529743 0.013027582 0.00057543727 0.15608151 -0.04788246 0.12147475
0.04471448 0.06825984 0.030715091 -0.11816342 0.09436744 -0.09793683 -0.12185184 -0.028302807
0.09671507 -0.14215411 -0.017303176 -0.021850185 -0.044923697 -0.04346034 -0.07830925 -0.05629414
0.06237248 0.035159398 -0.03679183 0.026924696 0.11542574 0.06799885 0.045124337 0.09801481
-0.07219311 -0.0198716 -0.04407453 0.043922678 0.022415424 0.06352894 -0.13685983 -0.06290156
0.0044951392 -0.14367351 -0.06350292 -0.15283328 -0.049661636 0.12123842 -0.075660236 -0.053148195
-0.04250947 0.009745804 0.004359451 -0.119099975 0.104173 -0.03860763 -0.017858498 0.08924917
-0.02795848 -0.04621028 0.0944968 -0.087060325 -0.16915445 -0.11170141 -0.013255777 -0.041544065
-0.060017012 -0.11904858 0.021331554 -0.024389148 0.04152264 0.044081923 0.058231566 -0.064805135
0.04451509 -0.07122928 0.07492866 0.070519246 0.040941514 -0.0746155 -0.1255351 0.064152114
0.039348625 -0.06814963 0.13012439 -0.10845617 -0.08597169 0.12507106 -0.028437674 0.1253822
0.076638766 0.08827826 0.13749227 0.07020049 0.02694598 -0.06911098 -0.08678149 0.09766476
0.064411886 -0.025978442 0.07538849 -0.10417996 -0.06956144 0.011976438 -0.065891586 -0.1203116
-0.045012537 -0.017311936 0.055987112 -0.11618805 0.06064072 -0.02520745 0.10311962 0.04208888
-0.045335226 0.0971776 -0.007791809 -0.03525494 -0.090823255 0.18056406 0.0070985155 0.05347748
-0.12396666 0.12313561 -0.04176576 0.028945444 0.0720128 0.05237365 0.048314165 -0.068429984
-0.11703456 0.1420142 -0.069516905 0.006389088 0.07950917 0.101762064 -0.069563314 -0.015167036

layers.6.bias f4 [64]
00000000: 5586 393d d138 0dbd d85a ab3d 0dfc 573b
00000010: a86f a73d 9ea9 6fbb 0f96 c3bc e3bd 3a3b
00000020: 4aa1 8c3d 876e 3cbc 0008 f8ba 4c24 923d
00000030: f792 843b 4a0d e33d 16c5 693d e28b a139
00000040: 5a2a d53d 8ece 853d 6941 56bb 063e 32ba
00000050: 51b5 37ba a9cd 92ba 9d6e aa3c d2bf 943c
00000060: f290 30bb fc20 4c3d eb65 1bbc d970 653c
00000070: 9fbc 0ebe d56d 17bb 79b6 233d a519 ee3c
00000080: 2bba f53d 61fe c4bb d250 bd3d 487c 403e
00000090: f2d4 ed3d f4df 943c fe54 fabb a9bb 31bb
000000a0: 4cac 513e 608b a5bc 454d 7b3c 4b8b 17bc
000000b0: 5c24 ca3d bfc2 2fb8 5e82 d93c 70d1 b7bc
000000c0: d8f3 02bb 00f3 423d e960 cd3a da43 5aba
000000d0: f3bb 69ba e2c9 b039 d17c cdb9 c7a5 5b3d
000000e0: 6f24 0bba 6ee6 f53d b64b 2c3e 9271 66bd
000000f0: 65b5 d03a 7d1e a7b9 d15a 25bc 7e63 703d
0.045294125 -0.034478012 0.083669364 0.003295663 0.081755936 -0.0036569606 -0.023875264 0.002849453
0.06866701 -0.011500961 -0.0018923283 0.07135829 0.00404584 0.11086519 0.05707272 0.00030812534
0.104084685 0.06533538 -0.0032692796 -0.00067994033 -0.0007007914 -0.0011200208 0.020804698 0.018157873
-0.0026941863 0.049836144 -0.009484748 0.014003956 -0.1393914 -0.0023106236 0.03996894 0.029064963
0.11998399 -0.0060117696 0.09243931 0.1879741 0.11612882 0.018173195 -0.0076395264 -0.002711991
0.20475882 -0.02020806 0.015338247 -0.009249519 0.09870216 -4.1904623e-05 0.026551422 -0.022438735
-0.0019981768 0.047595024 0.001566914 -0.0008326151 -0.0008916251 0.0003371975 -0.00039193642 0.053624894
-0.0005307858 0.120068416 0.16825756 -0.056260653 0.00159232 -0.00031875438 -0.010092453 0.058688633

layers.9.weight f4 [32, 64]
00000000: 6e19 d73c 95cc cf3b e52e b53d cb31 c93d
00000010: 6fed be3d 2371 9bbc 68fb 883d dd57 943d
00000020: ee48 0cbe 9ca0 3abd 13fa 0bbe 0587 fa3d
00000030: cd4d 013e ea9c c43c f66b 9abd b10a ccbd
00000040: 370f dfbd 1e89 103b b688 12bc a51c 8cbd
00000050: f86e c13d 7b03 d93d afdf 5c3b ea08 1e3d
00000060: 0a8d 96bd 351e ef3d c38d 953d 7779 0cbd
00000070: 1f87 f4bd 326d 9d3d d140 33bd 890f b03d
00000080: bb8c f9bc 9635 f2bd caaa d83d d8c9 753c
00000090: 4faf 56bb c9ee 0f3c 9e70 903d 43cc e1bd
000000a0: ac15 9bbc e9f8 7f3a 78d5 fabc 92ea bd3c
000000b0: 4270 813d 5562 403d 829d 153d ee68 95bd
000000c0: 86b3 5fbd 9083 7e3c 7d2c ca3c eae3 23bd
000000d0: 8291 e53d 418d cfbd 2173 f0bd f054 3a3d
000000e0: 6067 08be 86ba ec3c 1c9f 7abd b67a 473d
000000f0: 355d ae3d 0df0 acbd 6ac1 cabd db1c e9bd
00000100: c43c 52bd 9929 083c 50c1 e2bc 5910 273e
00000110: 0247 43bc 540e 953d 2b1d ac3d 7e80 a5bd
00000120: 49f4 52bd 202d fe3d dfcd c33d c774 953d
00000130: 74d1 f6bc 3548 d5bd 6a85 f23d c06e f23d
00000140: 514b 993d b5a1 1a3e 8904 443d 9703 ec3c
00000150: 01f5 2ebb 9597 8e3c 3810 b23d 252c 98bd
00000160: c0a7 8c3d 4aec 953d ad9d 4fbd b5c2 24bd
00000170: c9e8 8e3d bafc ddbd b9c4 cc3c 729a 67bd
00000180: a230 353c 4f02 053e d8e3 223e 4e70 3e3d
00000190: 8aaa e33d ae25 623d 7f39 8a3d 0520 a8bd
000001a0: 5adb f13d 0a0e 473d 4e76 16bd 78c0 a43d
000001b0: 3954 173d 7522 a4bc 6d0a f3bc 436d a7bd
000001c0: 6240 c23c f4b8 18bd 0d66 013d 6485 08bd
000001d0: 1d35 9abc dacd 3cbb 105a e63d 56c6 90bd
000001e0: 2cf4 093e ea58 953d d3d9 1cbd f22c b3bc
000001f0: 9b86 a83d f82e 8e3d 3f21 f93d ce7f 9bbd
00000200: 5ef3 cbbc 2723 5a3d b3f5 ce3c a003 bfbb
00000210: be0a bbbd d9a0 ce3c 2055 bb3d 21e5 0a3d
00000220: c46b 8cbc 6de2 dd3d 7b87 b5bc 4f58 cc3d
00000230: 31f5 6e3d edc7 02bd 492e 143b 35ac c13d
00000240: 1ca7 debb ef6a 81bc 9363 873d dc9a e33d
00000250: 77c3 a3bc 1c14 5f3d c833 993c eeab 323d
00000260: b1c2 fe3d 237e 803c feb2 043d 0c4b 113d
00000270: d9af c0bd 2bd7 ea3d 0604 e53d d3df 02bd
00000280: 3c89 053d f4af 783d 25ac 77bd b9d9 84bd
00000290: 35b2 5abd a44b e03c b9e3 4cbd c36f 883d
000002a0: e83f bfbd d92a d13d cce3 b03d 49ae ec3c
000002b0: 6fa9 1a3d cc42 cabc 8cdf ae3c bd94 48bc
000002c0: eadb ee3c 5f56 083a 56ab e43a 4576 a83d
000002d0: 4e23 be3d 7ceb 083e 3b96 09bc 802b 2fbc
000002e0: 1684 2bbc cd3b 66bd 87e7 2c3d ade4 cf3d
000002f0: 2016 1cbd 4ddf 843d 8fd2 69bd ff0f cc3d
00000300: 61cc c43d e153 e73d 1ef8 a8bd 3b8a 5cbc
00000310: d68d 3c3d 1b36 a6bd 2a0d 82bd d2f6 febd
00000320: 2965 e9bd f439 713d 5c5d 593d d2b9 90bc
00000330: 418e 9f3d 4915 18bd 3927 84bb f47a 1b3e
00000340: ab84 893d ef27 c6bd 560c e23c 1a72 b0bd
00000350: 8604 85bd f663 96bd b7d9 49bc 66e5 aabc
00000360: d7c9 0cbc d5d4 813d ed8a d7bc af7e aa3d
00000370: 805a 50bc ea47 4f3d e968 76bc dfa5 93bd
00000380: bc7b ee3d ea13 0ebc 26e5 133e 7fe3 a23c
00000390: ecf7 813d 4979 963d dcfd b53a ef9a df3c
000003a0: 00f7 d83d 9a8f dabd a33e acbd 3852 e2bd
000003b0: acfc 803c 47c7 ef3d 694e 373c a5be b8bc
000003c0: 9d78 a13d 2a88 7c3d 20f9 ba3d 78fe f7bc
000003d0: 8a31 d93d 9ccf ab3c 3c0f 7abd 1f0a ad3d
000003e0: 05bf d23c b6bd e73b 85dc 41bd 11a4 e73c
000003f0: e9a5 8c3c 0977 c8bb d24b 03be 9624 08bd
0.026257243 0.0063415268 0.08846835 0.098239504 0.093226306 -0.018974846 0.06688577 0.07243321
-0.13699695 -0.045563325 -0.13669614 0.12232784 0.12627335 0.024000604 -0.07540123 -0.09962977
-0.10891574 0.0022054384 -0.008943727 -0.06841401 0.09444994 0.10596367 0.0033702662 0.03858272
-0.0735112 0.116756834 0.073024295 -0.034295525 -0.11939835 0.07686843 -0.043762986 0.08596713
-0.030462613 -0.11826627 0.105794504 0.015001737 -0.00327583 0.008784958 0.0705273 -0.11025288
-0.018931232 0.00097645685 -0.030619368 0.02318314 0.063202396 0.046968777 0.036527164 -0.072954044
-0.054614566 0.015534297 0.024679417 -0.040012278 0.11209394 -0.10134364 -0.11740709 0.04549116
-0.13320684 0.028897535 -0.061186895 0.04870101 0.085138716 -0.084442236 -0.09900172 -0.11382457
-0.051327482 0.008310699 -0.02768007 0.1631483 -0.011918785 0.072781235 0.08404001 -0.080811486
-0.0515025 0.12410951 0.09560751 0.07297664 -0.030129172 -0.10414163 0.11841853 0.1183753
0.074850686 0.15100749 0.047855888 0.028810306 -0.0026696327 0.017406264 0.086945 -0.07430295
0.06867933 0.07320459 -0.05068748 -0.04022475 0.06977994 -0.108392194 0.024996148 -0.056543775
0.011058958 0.12989162 0.15907228 0.04649382 0.11116512 0.055211715 0.06749248 -0.08209232
0.11809416 0.048597373 -0.036733918 0.08044523 0.036945555 -0.020035962 -0.029668057 -0.08175137
0.02371234 -0.03728576 0.031591464 -0.033330336 -0.018824155 -0.002880922 0.11247647 -0.070690796
0.1347205 0.0729235 -0.03829367 -0.021872018 0.08228799 0.06942552 0.12164544 -0.07592736
-0.02489632 0.05325618 0.025263643 -0.0058292896 -0.09132908 0.025223183 0.09147096 0.03390992
-0.01714123 0.10834203 -0.022159329 0.09977781 0.0583393 -0.031928945 0.0022610596 0.09456674
-0.0067948233 -0.01579806 0.06610789 0.111135215 -0.019990666 0.054462537 0.018701449 0.043620996
0.12439478 0.015685147 0.032397263 0.03547196 -0.0940854 0.11466821 0.11182408 -0.031951737
0.03260158 0.060714677 -0.060466904 -0.0648684 -0.053392608 0.027379818 -0.05002186 0.06661942
-0.09338361 0.10213251 0.08637199 0.0288917 0.03775924 -0.024690054 0.02134683 -0.012242493
0.029157598 0.00052008586 0.0017446082 0.08225683 0.092840776 0.1337108 -0.008397634 -0.010691524
-0.010468503 -0.056209374 0.04221299 0.10151038 -0.038107038 0.06487904 -0.05708557 0.099639885
0.09609295 0.112952955 -0.082504496 -0.013460691 0.046033703 -0.081157885 -0.06350167 -0.12449421
-0.11396248 0.05889316 0.05306755 -0.017666731 0.07790805 -0.037129674 -0.004032996 0.15183622
0.067147575 -0.096755855 0.027593773 -0.08615513 -0.064950034 -0.07343285 -0.012319974 -0.020861339
-0.008593044 0.063394226 -0.026311362 0.08324944 -0.012716889 0.050605692 -0.015039661 -0.07209372
0.11644694 -0.00867174 0.14442882 0.01988387 0.063461155 0.07347352 0.001388486 0.027295558
0.105939865 -0.10671921 -0.084103845 -0.11050838 0.015745483 0.11707931 0.011188128 -0.022551844
0.07884333 0.061653294 0.09129548 -0.030272707 0.10605152 0.02097302 -0.061049685 0.08449196
0.02572585 0.007072176 -0.047329444 0.028276475 0.017168956 -0.0061177057 -0.12821892 -0.033238016

layers.9.bias f4 [32]
00000000: 6a59 f0bb 3b86 b93e 17d4 10bf 7ed8 bbbc
00000010: 025f 4c3e 1bd3 06be 3dac 873e e089 a33e
00000020: bfab 9a3e e526 1c3e 762d c1bd b909 2c3e
00000030: 4d6f 01bf 9688 8b3e 8b4f ac3e 3e71 073e
00000040: 37ff d83d f824 a43e bba5 a73c 6ccc afbe
00000050: c107 43be 36c6 d8be 9a3e 8e3e 73a1 893e
00000060: c4d4 ad3e 809d bf3e 5ee8 96bd 7b98 053e
00000070: 3744 4f3e 5ae8 11bf 3c4b 6f3e 779d 403e
-0.0073348777 0.36235222 -0.56573623 -0.02293038 0.19958118 -0.13166468 0.26498595 0.31941128
0.30209157 0.15249212 -0.09432499 0.16800584 -0.50560457 0.27252644 0.33654436 0.13226792
0.10595553 0.32059455 0.020464769 -0.3433565 -0.19045927 -0.42338723 0.27782136 0.26880988
0.3395139 0.3742485 -0.07368539 0.13046448 0.20240866 -0.56995165 0.23368543 0.18810068

layers.11.weight f4 [1, 32]
00000000: b79a 903d f44b fb3d 5405 3abe 92bf 843d
00000010: bbbd 92be d7eb b8bd c009 a1be 99aa 4f3e
00000020: 45a7 9d3d fc55 983d d84b 49bd 429d 353e
00000030: 7fc9 69be 7c0f 593e a4c2 ba3d 3332 973d
00000040: b006 28be 8034 0b3e a492 8c3d 205b f5bd
00000050: 557b 1cbc 14e3 95be dc5d 593e f2b2 083e
00000060: 3109 813e b97f 383e f518 72bd 034c c73d
00000070: 5584 443e 6b7b b1be f2e4 f63d 8c0c b5be
0.070607595 0.12270346 -0.18166095 0.06481852 -0.28660378 -0.09029358 -0.3145275 0.20279922
0.0769792 0.07438275 -0.049144596 0.1773577 -0.22830771 0.21197313 0.09119156 0.073826216
-0.16408801 0.13594246 0.06863907 -0.11980271 -0.009550889 -0.2927481 0.21227211 0.13349512
0.25202325 0.18017472 -0.059105832 0.09731295 0.19191106 -0.34664473 0.120553866 -0.35361135
