deep_learning/mlp_model.pt (torch, 38343 bytes, 9 tensors)

layers.0.weight f4 [32, 14]
00000000: 9791 2c3e b2cd 013b 9295 7dbe e765 79be
00000010: 0002 7b38 f266 50ba 5155 44bd e117 e33d
00000020: 9892 e03d fab9 c13d 16f8 c13d 54e7 833b
00000030: cdc6 3cbd fd02 583a 5a2b 923e 325e 873b
00000040: 389d e23e ea74 443c 2696 df3b 54cc 01ba
00000050: 8015 2e3d 5712 1dbe b8c2 33be 7001 96bd
00000060: d80c e8bd 8e2e cabc 5a4a 9abd eb51 0c3c
00000070: f864 953e b1ef b1bb a7dd b63e afad 403c
00000080: e6d8 c33b 5edb 6d3a 0223 533e 9bfe 133e
00000090: c16f 453e 582e 2d3e 08b9 a4bc 0ade ae3c
000000a0: 89d4 80bd 8e08 c13c 77e6 953d feb5 f23b
000000b0: 2732 153c 45a8 a13c 0037 e63b 2306 e63a
000000c0: f1ef 26be c047 6d3d 318a a93d 52fe 153c
000000d0: 6074 ae3c 3766 473e 08e9 2ebe 6ed4 1abe
000000e0: b8e4 c23e 96d4 1e3c afe7 d23b efb9 8c3d
000000f0: fd24 7839 0a87 2b3b f342 4bbd 11ee 4cbc
00000100: 0676 0f3b 4003 10bd 86e5 69bc abe8 693d
00000110: 5ef3 87bb e780 89bc 287e ba3d 6a5a 6a3c
00000120: a401 a63e a170 40b8 5254 b43b 3859 3dbb
00000130: a79f 7e3e acd3 fe3d 55f4 06bf b0d1 793e
00000140: 8e30 5c3e 83e3 403d 46bf 903d deab 2cb9
00000150: bf6a 263e d61e 42ba 6f8d b63d 37f8 cd3b
00000160: 11a2 bbba 4820 5a3a d7bc 00be f547 213e
00000170: 9245 263e d396 0c3e d2cd 033e 3ed5 bd3d
00000180: caba 0fbd 11ef 9c3b 199e 293d 68e5 a6bd
00000190: 0c8d f23e f866 83b9 ddc3 aa3c 7e48 0e3b
000001a0: 4452 803e fb08 fe3d 1c76 8b3d 5954 0a3e
000001b0: 127d f03d d1b0 dcbc 06f3 89bc c176 10bc
000001c0: 3780 8b3d 84d8 7ebe 8314 8e3e 57a4 433c
000001d0: 20eb 3b3b 2d86 03bb 9933 993e b5af 843d
000001e0: f002 a7be c8bc 7d3e b8b4 893e de27 593d
000001f0: 09c0 263e cf4d cc3a 1be2 863e 3d95 00bc
00000200: d5f0 a83e b27b 223c b664 613a 23dc 24bb
00000210: 624f b53d 606d 373d e42d bc3c f26b dfbd
00000220: e14a 803c 5fbb 0dbb d4d1 56bc 3ef4 f8bb
00000230: 54a5 ffbc 7e52 d2bd 6814 413e d159 273b
00000240: ccd7 fe3b 93b0 a63b c80a 0f3d 1d4e adbd
00000250: b2c6 543c dcbf bb3c e7f2 8cbd d35a efbb
00000260: 84ec 243c f30f 5e3d 64df ad3d a375 5bbe
00000270: daca 9f3e 5aa6 cbba de0b 1abb 9fb4 483b
00000280: ef12 a93e 3b82 1e3e 9f78 c7be b04f 833e
00000290: ca37 8e3e df2c ff3c d56b 083e 4404 933b
000002a0: f296 593e 25ce 063c 913b 8e3e 1963 a23b
000002b0: 40f1 293c 1c4f f63a d487 133e cd2d b43d
000002c0: e784 d33c b1b1 10bd 513d 3bbe cf46 9ebb
000002d0: fc44 17bd a7bd 153c 8dce 7e3e 0cfa 4439
000002e0: 6ee6 0a3e caf2 95be 9f67 dfba 3aea 1b3a
000002f0: 4e83 34be 7e2b 9fbd 3bac aebd dbf0 8dbd
00000300: 56c9 95bd 65c6 b03a 6b66 ce3d 9f42 53bb
00000310: f0d3 a83e 2d28 433c 64cd ce3e b94a 2a3c
00000320: 2d46 ce3b 9ddf 62bb 4f3b 123e 75b6 5b3d
00000330: 7ba5 c43c a713 6c3d f31a 323d cf77 53bc
00000340: 9f10 41bd 753c a9bb ef83 cb3e b35c f239
00000350: e6cf f03e 81b1 133c 335d 2a3c 1567 633b
00000360: ea95 533d e644 03be 0d86 24be 51e0 aabd
00000370: 2acd d6bd 97b4 8bbc 3b5c 61bd 5824 7eba
00000380: 2e2b cd3e 0adb 9f3b 6896 023e 8674 ae3b
00000390: a864 10bc b43a b93a dcf4 843c 0238 933d
000003a0: 3310 94bc 8b60 583d 1856 a13c f49c 3fbd
000003b0: ec0f b43d 0059 d13c 8b4b d2be 60e1 8abb
000003c0: e23c 1ebf d824 a1bb d1ef 933b b76b 443b
000003d0: 19f8 343d 4788 a5bd 93af 8ebc 37c8 8ebd
000003e0: 3deb 1cbd 21b5 22bd b5b2 6ebc f217 8b3c
000003f0: a9f8 243e 3c26 ad3a 286d 8b3d d2fc 4c3d
0.16852413 0.0019806442 -0.24764088 -0.24355279 5.9844926e-05 -0.00079499104 -0.047932927 0.11088539
0.109654605 0.094593 0.09471147 0.004025379 -0.04608803 0.00082401914 0.285487 0.004131102
0.44260573 0.011990765 0.006823319 -0.0004951407 0.042500973 -0.15339027 -0.17554748 -0.07324493
-0.11330575 -0.024680402 -0.07533713 0.008564453 0.29178596 -0.005430185 0.35715982 0.011760159
0.005976784 0.0009073521 0.20618823 0.14452593 0.19280912 0.1691221 -0.020107761 0.02134611
-0.06290538 0.02356365 0.07319348 0.007406949 0.0091061955 0.019733557 0.0070255995 0.0017549436
-0.16302468 0.057929754 0.08278311 0.009154873 0.021295726 0.19472586 -0.17081082 -0.15120098
0.38065124 0.009694239 0.0064363102 0.068714015 0.00023664902 0.002617302 -0.049624395 -0.012507931
0.0021890416 -0.03515935 -0.014275914 0.057106655 -0.0041488847 -0.016785098 0.09106094 0.014303783
0.32423127 -4.588126e-05 0.005503216 -0.002889229 0.2486559 0.12442717 -0.5271657 0.24396396
0.21502897 0.047091972 0.070677325 -0.00016467224 0.16251658 -0.00074051076 0.08913695 0.006285693
-0.0014315267 0.00083208503 -0.12572037 0.15750106 0.16237476 0.1372941 0.12871483 0.09269188
-0.035090245 0.004789241 0.04141054 -0.081492245 0.47373235 -0.00025062985 0.020845348 0.002171069
0.25062764 0.12404057 0.06809637 0.13508739 0.11742605 -0.026939781 -0.016839515 -0.008817376
0.068115644 -0.24887282 0.27750024 0.011941037 0.002867408 -0.0020068989 0.29922178 0.06478826
-0.3261943 0.24779046 0.2689569 0.053016536 0.16284193 0.0015587154 0.2634438 -0.007848081
0.3299624 0.009917187 0.0008598076 -0.0025155626 0.08853032 0.044782043 0.022971101 -0.10909261
0.015660705 -0.0021626574 -0.01311155 -0.0075974753 -0.031206764 -0.102696404 0.1885544 0.0025535712
0.00777719 0.0050869673 0.03492239 -0.084621646 0.012986826 0.022918634 -0.068822674 -0.0073045283
0.010066155 0.05421443 0.08489874 -0.21431594 0.3120945 -0.0015537248 -0.0023505609 0.0030625237
0.33022258 0.15479366 -0.38959214 0.25646734 0.2777694 0.031149326 0.13322385 0.0044865925
0.21248987 0.00822786 0.2777982 0.004955661 0.01037246 0.0018791887 0.14407283 0.08797798
0.025820209 -0.03532571 -0.18285109 -0.0048302184 -0.036931023 0.009139455 0.2488348 0.00018785166
0.13564464 -0.29286796 -0.0017044431 0.0005947683 -0.17628214 -0.07771967 -0.08528944 -0.06930705
-0.073137924 0.001348686 0.100781284 -0.0032235754 0.32974195 0.011911434 0.40391076 0.010393792
0.0062949867 -0.0034618147 0.14280437 0.0536408 0.024004688 0.05763593 0.043482732 -0.012906983
-0.04713499 -0.0051646777 0.39749095 0.00046226903 0.47033614 0.009014488 0.010398197 0.0034698893
0.05165664 -0.12819251 -0.16066761 -0.08343566 -0.10488351 -0.017053885 -0.0550196 -0.00096947467
0.40072006 0.0048784064 0.12752688 0.0053239493 -0.008813061 0.0014131875 0.01623004 0.07188417
-0.01807413 0.052826446 0.019694373 -0.04678054 0.08792099 0.025555134 -0.4107326 -0.0042382926
-0.6181165 -0.004917722 0.0045146723 0.002997143 0.044181917 -0.080826335 -0.017417705 -0.06971782
-0.03831028 -0.03972352 -0.014568974 0.016979191 0.16110481 0.0013210247 0.06807929 0.050045796

layers.0.bias f4 [32]
00000000: 94f4 07be b37e 05be 85f2 a9bd a561 00bf
00000010: caf7 3bbe f99f 34bf d833 1cbd efcc a9be
00000020: f534 2dbf a49c 9c3b 1c2c 29be 9a5b 25bf
00000030: fda9 78be 8c80 bbbd fbde bcbc 73c3 0bbd
00000040: 261a 93be eca3 bbbe 18f6 a6bd 45a6 95be
00000050: 366c d8be ae26 5abd 23f0 0bbf b567 fcbe
00000060: f241 00bf 1fa9 27bf 0055 31be 02d4 f63d
00000070: 870d 23bf 8b8e 53be 18b5 c5be 93cd e9be
-0.13276893 -0.13036613 -0.0829821 -0.50148994 -0.18356243 -0.705566 -0.03813538 -0.33164164
-0.6765893 0.004779415 -0.16520733 -0.645929 -0.24283595 -0.09155378 -0.023055544 -0.03412194
-0.28730887 -0.366485 -0.081524074 -0.29228416 -0.42270058 -0.053259544 -0.54663295 -0.49297872
-0.50100625 -0.65492433 -0.17317581 0.12052156 -0.63692516 -0.20659845 -0.38614726 -0.45664653

layers.3.weight f4 [64, 32]
00000000: 0870 f33b 3eaa 9b3d 6a27 d23d 3e47 c43d
00000010: c9da ab3d 46b1 6e3e 9559 323d d84b 2fbc
00000020: 4e1b eb3e 10fa e23d b55a ed3d 01e9 1c3e
00000030: 7351 2c3d b307 853c 76a7 603d ab85 043d
00000040: 54ec 883b 5baf 90bc 998a da3c c257 3cbd
00000050: 97d4 893d e640 8d3d de7e ec3e 98c3 793e
00000060: 487d b13e c8ea 903e 6154 3cbd 49e1 bb3b
00000070: 22a1 eb3e 11a5 013e 2372 69bc 3f69 7d3d
00000080: 8436 2dbe 7d41 e73d b033 febd df55 023e
00000090: 606c d4bd 9aac 6a3e cef1 123e 69ff b0bd
000000a0: ed88 623d ec87 3d3d 1b92 863c 2a6f 243e
000000b0: 5963 043e a977 febb 3101 fd3d d3e5 0b3e
000000c0: 9792 35be 5a11 e2be fd1d 1d3d 75cf a2bc
000000d0: 5297 5ebc ad6d f6bd 5853 ac3e b9a8 0d3c
000000e0: caf8 a03e 3997 433e 455e 233e 55e0 423d
000000f0: 0c7b f33e d931 00be bd7b b9be 28d8 893d
00000100: bb17 383d 1232 f4bc 97f2 693d b734 473e
00000110: d86f 0ebb 5e4d 103e 527a 373d 1507 fb3d
00000120: be94 ad3e 009c 18bd e4cf febd 74c6 573b
00000130: 8ff6 4ebd ce2a c6bc 6684 0f3d 2122 a3bc
00000140: 609e ae3d 8d0f 2fbf c4ad 2c3d 3276 013c
00000150: 9086 83bc 22d1 253d 776d 933d 3a64 aebe
00000160: 4347 923e f889 c33d 0bae d23c 6396 883c
00000170: f3ab f23e 805d 2ebd 2fbe 13bf 1e6f 033e
00000180: 3a04 553d 4ee9 083e a166 6fbe 8805 603d
00000190: c981 e13d 1441 913e 5885 8a3b 87a4 59be
000001a0: 4846 32bc d120 b73d a80b 31bd 8c1a e03d
000001b0: 460e 403c 2d14 3c3c 0642 323e a728 9fbe
000001c0: 1893 5cbe 4692 77bd 29cd d8bc 7fbf eb3d
000001d0: 0983 a23d 717a b63d c7ad fd3d 7b82 0dbd
000001e0: 3528 233e b731 b23e 6c39 08bd 9fbe 903d
000001f0: 9587 723e 8bd6 d93d 9cd5 04bd dbbf b53d
00000200: 67c2 483d bc4d 6d3d 8ba9 a73d df7a 013e
00000210: f694 a03d a1ed 663e 6034 e43d 0fb5 4cbd
00000220: 271e 393e f061 983d 618a 0c3c da38 563e
00000230: 371d f33b 80a0 15be 218e 903d 2512 4fbd
00000240: d430 083e 4040 bdbe 18c4 d9bd 6e50 a23d
00000250: ae2b 203d 549c ac3d 1940 913e 37c4 e93d
00000260: 192b 903e 3a2b bd3e 526f cc3c d4c0 e8bd
00000270: 1516 143f cf38 0a3c 07d0 9dbe d330 333d
00000280: c797 013d e60b 1a3d 98ec 2dbe 08b4 343e
00000290: 1ef7 a43d e434 2f3e d9a3 9d3d d905 b33d
000002a0: 096a b23e 6945 dc3c 0795 943d 6a5d 243e
000002b0: b6d9 06be 9947 9a3c 2a9a e13d d1c8 e93c
000002c0: e7a0 b93d 7f83 abbe 3239 2dbd 834d ffbb
000002d0: a1dc a93d cd24 c53d 54c8 af3e 464c 1abd
000002e0: a547 ce3e 5deb 8a3e cdfd aabd 96ea 9dbd
000002f0: e2c3 793e a5e3 7e3d f200 81be 3905 123e
00000300: f451 81bc a009 31be 472f 4e3e d810 99bd
00000310: 5578 a93d 300c 7d3e c7be 05be 403a 2d3c
00000320: 8f03 bf3d 3818 0fbe 4a30 21be 3c60 4d3d
00000330: 163a 4b3e 93bc ca3c 8fb3 173d 7bb0 aabd
00000340: 7b8f 40bc 07ef d4be 5021 9e3c 5496 333d
00000350: 1dc8 06be 81b7 0e3e 9f53 653e f981 483e
00000360: 1095 f8bc 9dc1 57bd d243 0ebe c56c 0f3d
00000370: 0f78 793e 98ee 5ebe 2b0c afbe 7476 103e
00000380: 3af2 3b3d 32aa b33c e972 dd3d e861 7e3e
00000390: 055d 093c 8456 e23e 11bf d3ba 9351 8b3d
000003a0: f81c a83e a65f 7b3d 0fd1 acbd 9f1e 353e
000003b0: cfde 603d 4a05 683d 1fde a13d 9b8f 3a3d
000003c0: fd70 5cbc 9da6 62bc 2897 053d adf9 ef3d
000003d0: 04ed 46bd 4b49 c5b9 fd57 bc3e ac91 3b3e
000003e0: 52d7 b13e 7553 de3e 18d7 213d 3953 19bd
000003f0: e4b4 f13e eab1 623d d73e c5bb a00e c63c
0.0074291267 0.076008305 0.10261424 0.09583901 0.08391339 0.23309812 0.043542463 -0.010699235
0.4591927 0.11082852 0.115895666 0.15323259 0.042069864 0.016239023 0.054847203 0.03235404
0.004178563 -0.017661741 0.026677417 -0.04598213 0.067300014 0.06897144 0.46190542 0.2439102
0.34665895 0.28304124 -0.045978907 0.005733643 0.46021372 0.12660624 -0.014248404 0.06186795
-0.16915327 0.11291788 -0.12412202 0.1272807 -0.103722334 0.22917405 0.14350054 -0.086424656
0.055306364 0.046272203 0.01642709 0.1605803 0.12928523 -0.0077657294 0.12353743 0.1366189
-0.17731701 -0.44153863 0.038358677 -0.019874314 -0.013585882 -0.12032638 0.33657336 0.008646184
0.3143981 0.19100656 0.1595393 0.04757722 0.47554815 -0.12519015 -0.36227217 0.06730682
0.044944506 -0.029809032 0.057116117 0.19453703 -0.0021734145 0.14092013 0.044794388 0.1225721
0.33902544 -0.03725815 -0.12441996 0.0032924684 -0.050528105 -0.024190333 0.035038374 -0.019913735
0.085263014 -0.68383104 0.042157903 0.007901715 -0.016055375 0.040482648 0.07198613 -0.34060842
0.28569993 0.095478 0.025717756 0.016673272 0.47396812 -0.042569637 -0.5771207 0.12835357
0.052005984 0.13370249 -0.23378994 0.054692775 0.11011083 0.28369963 0.0042273216 -0.21254168
-0.010881014 0.08941806 -0.043224007 0.109425634 0.011722153 0.01147942 0.17407998 -0.31085703
-0.21540487 -0.06044223 -0.026465015 0.11511134 0.07935149 0.089100726 0.12386661 -0.034548264
0.15933307 0.34803554 -0.033257887 0.07067608 0.23684533 0.10636624 -0.032430276 0.08874484
0.04901352 0.05793546 0.08186635 0.12644528 0.07840912 0.22551586 0.11142802 -0.04997736
0.18077908 0.07440555 0.008577914 0.20920125 0.007419254 -0.14612007 0.07058359 -0.050554413
0.13299876 -0.3696308 -0.10633105 0.07925497 0.039104156 0.08428255 0.28369215 0.11414378
0.2815788 0.36947042 0.024955425 -0.11364904 0.57846195 0.008436396 -0.30822775 0.043747734
0.031638887 0.037609003 -0.16984785 0.17646801 0.08054946 0.1711002 0.07697267 0.0874135
0.34846523 0.026888566 0.07254987 0.1605126 -0.13168988 0.018832969 0.110157326 0.02853814
0.09063893 -0.3349876 -0.042290874 -0.0077912225 0.08294035 0.0962616 0.34332526 -0.037670396
0.40289035 0.27132693 -0.0834919 -0.07710759 0.2439113 0.062228817 -0.25196034 0.14259805
-0.015786149 -0.17288828 0.20135222 -0.07473916 0.08274905 0.2471168 -0.13061057 0.01057297
0.093268506 -0.13974082 -0.15741077 0.050140604 0.19846377 0.024748122 0.037036475 -0.08334442
-0.011752958 -0.41588613 0.019302994 0.043844536 -0.13162275 0.13937189 0.2239518 0.1958083
-0.030344516 -0.05267488 -0.13893059 0.03501584 0.24362205 -0.21770704 -0.3418897 0.14107686
0.045885302 0.021931741 0.10812933 0.24842036 0.008383994 0.4420663 -0.0016154965 0.068026684
0.328346 0.061370514 -0.08438312 0.17687462 0.054899987 0.05664567 0.07903694 0.04554711
-0.013454673 -0.013833669 0.032614857 0.11717544 -0.04856588 -0.00037629376 0.3678588 0.18317288
0.3473459 0.43423048 0.03951177 -0.037432883 0.4720832 0.055345453 -0.006019454 0.024176896

layers.3.bias f4 [64]
00000000: 0166 513b 4fcb 38b8 84c9 af3a 205a 3e3b
00000010: 6d0f 01b8 ed0c ac3a a857 dcb8 4f28 5d3a
00000020: 0837 f13a acb1 20ba ebcd 3fb9 ffbc 96b8
00000030: ca31 a03b bcec aa3b df74 afb9 3e7d ac3a
00000040: c529 9cb9 a8f1 2c39 64f0 e236 f165 9ab8
00000050: f367 58b9 b9e5 b13b ec5f 3f3b e67f efb9
00000060: 9e3f 86b9 5564 7d3a 9f90 15bb aeba 4f3b
00000070: 421c f33a 542a e7b9 2ee6 8d3b 5e76 fd39
00000080: 9525 f0b8 4a17 79b9 a302 edb9 2c15 b639
00000090: 5f4b c43a d104 9cba af85 64b9 5870 a6b8
000000a0: 056a b6b9 2efb 3138 2ba8 c33b a5fe 6e3b
000000b0: 63d7 0abb daa8 beba 1d2d cc3a 7d9d 013b
000000c0: d918 16b9 98c7 8b3b 2b39 263a cc45 a93a
000000d0: 0537 8539 c9a5 7fba dc59 88b9 fc2b fdb9
000000e0: b497 a53a 3e16 083b 3193 8ab9 9579 fbb8
000000f0: fed1 3abd 7aa2 f238 3bb6 d339 406f 3eba
0.0031951668 -4.4058364e-05 0.0013411497 0.0029045418 -3.0770363e-05 0.0013126411 -0.00010506745 0.00084364874
0.0018403241 -0.0006129991 -0.0001829189 -7.187761e-05 0.004888748 0.005216209 -0.00033465677 0.0013159884
-0.0002978576 0.00016493222 6.76331e-06 -7.36228e-05 -0.0002063809 0.0054289964 0.002920146 -0.00045680924
-0.0002560587 0.0009666135 -0.0022821797 0.0031696963 0.001854785 -0.0004409129 0.004330418 0.0004834411
-0.00011451092 -0.00023755166 -0.00045206127 0.0003472952 0.0014976076 -0.0011903291 -0.00021793575 -7.9364225e-05
-0.00034792736 4.2434018e-05 0.005970975 0.0036467698 -0.002118551 -0.0014546171 0.001557741 0.0019777708
-0.00014314371 0.004265737 0.0006340916 0.0012914478 0.0002540873 -0.0009752182 -0.00026006892 -0.0004828869
0.0012633712 0.002076521 -0.00026431077 -0.00011991259 -0.04561042 0.00011569723 0.00040380828 -0.00072645023

layers.6.weight f4 [64, 64]
00000000: 499e 0cbc 2412 e33d b06a c33d aa52 143e
00000010: 2378 203b 12b8 eb3c b07f 9b3d f697 d23d
00000020: 4701 9fbd f43d 623e 8da5 cf3c 0204 903e
00000030: d34e 073d 1bcc f83b 07cc a93d f678 e33d
00000040: 643a c63c 80a0 4f3e b6c2 063e 5c0c 173e
00000050: 7afa 963d 2f2e 2cbc fae7 243c b706 0c3d
00000060: 1978 e73d 0224 f93d 4bf8 833d 9cc7 6b3d
00000070: 6bd1 843a 207a d33d 614a 063d 1e55 8a3d
00000080: 850f 1b3e 4e60 943d c62b 9a3d 5ec3 393e
00000090: 01fe 133e d271 5d3e 3d71 d83d 7898 563e
000000a0: 46d2 ea3d 7e06 1d3d c912 213d 6dc7 883c
000000b0: a361 2a3e 9f71 2d3e 2404 42bc ab42 963d
000000c0: 1b56 c23d 4fb9 0b3e 57b0 943d 3953 143c
000000d0: cd28 773d 861e 85bc ae9d 383e a76b 133e
000000e0: 6890 513e 6e3e d63c f77c 853e 2d8a 4f3e
000000f0: a572 ca3e 762d b33b 0ba4 0a3d 0d6c 513e
00000100: 3734 bd3d ca8e 8abd 45dd 703d 81e8 353e
00000110: 066d 093e 8c65 1a3d d96f fb3d f8d4 ee3c
00000120: 5fe7 8a3d 2908 e73d e1db 103e 87ae 763e
00000130: ec9b 83bd 4cfc 663d 7c52 ae3d 0c01 013d
00000140: 38c4 0a3e ca86 923e 21b5 3c3e 1d7b 313e
00000150: d11e b2bc 82a8 75bd 167e 683d ea91 623e
00000160: d9cf d53d cc3d 823c 62c3 2f3d 93a9 f3bb
00000170: 060f fd3d 1bdd 2c3e 002a f63d 1ed5 dd3d
00000180: 484e 413d b237 303e ffa3 b13d cf06 443d
00000190: ffec ab3c a202 813e cae0 12bc 09f1 583e
000001a0: ee9e 963d e1f9 363e 7866 12bd 61ed 753d
000001b0: 2adc 653e b055 213e d77c e93d d212 d13d
000001c0: 37de db3d 8d25 a9bd 5a63 343e 49f1 a63d
000001d0: e369 ad3d fde0 84bc fc7e 1f3e 2f96 ae3d
000001e0: 28c9 4a3d 2991 ed3b 7a44 ed3d 17e5 213e
000001f0: 35b1 dc3e 93b7 9fbd b9b5 293e cad4 503e
00000200: 1f6d 1bbd d0f6 e53c 5988 883d 8c04 933d
00000210: a7aa 0a3e 11b8 fe3b 7173 073e 86fa 8c3d
00000220: e2f2 5fbc 80fe 083e e3f3 c33c 8908 053e
00000230: 579d c43d 3c75 21bd 076c 183e d6eb cb3d
00000240: 06cc 4e3e 43cb 693e 1077 3b3e 301c 0a3e
00000250: a4f4 2d3e a379 e63d 801b 24bc 5f23 5b3e
00000260: f610 6b3d 1c25 f73d 1209 ca3c 1909 94bc
00000270: b008 ac3d a22f ed3d ba87 053d ae76 6f3c
00000280: 8b77 693e bdb2 033d 1096 523e 5934 003e
00000290: 8276 103c 7fd0 173e f4f2 2c3e d8df ee3d
000002a0: 3c2a d83d 8293 fb3d bf50 a83d f040 f73d
000002b0: e995 4a3e 6e7e 8a3e 37f1 cf3c d6e4 5c3d
000002c0: 4b9f 663d f79d 50bb 7784 343d 8c92 1f3e
000002d0: df13 f93d e07c dbbc 56be d03d 7d46 723e
000002e0: 5544 493e a078 be3d a4ce 813d 8654 5d3c
000002f0: f8a3 c83e 5e10 24bd c4d7 363e 1624 2c3e
00000300: 57a8 fd3d 467c 2b3e dc08 873d 4800 653e
00000310: c08e 3c3e 527a 5c3e bee9 7b3e 248b 743d
00000320: bf1a 173e 7dcf 6a3e 203e 6b3d 4686 913e
00000330: 48aa df3b b574 173d de53 493d 2246 2f3d
00000340: 49a8 083e 0b6c 3a3e 6a2f c83d 2bc5 793d
00000350: dfe2 b23d a086 283e 21f1 5b3e a742 d83d
00000360: 7f59 e93d 9410 353e 0613 fc3c 62ec b23d
00000370: 8592 e63d 1d1a 3d3e 3681 2e3e fb59 4a3d
00000380: 686d 743e eacd 853e 1bd1 183e 2889 833d
00000390: 932b e53d 02fd 733e 890b 2e3e 9501 613e
000003a0: 301e dd3d 1a9d 773d 8a77 863c 897b 6c3d
000003b0: d60a 913e dfa8 733e 5dd1 363e c5b2 723d
000003c0: bc5d af3d ad51 483e a10b 0b3d c575 9b3c
000003d0: 32ee 8a3e d083 db3d 3828 433e f8f8 4f3e
000003e0: 0b29 ac3d 8290 803d de5e 053e eb17 a73d
000003f0: f64b c63e b8d9 393c cafb 203e 20db 843e
-0.00858266 0.110874444 0.095418334 0.14484659 0.002448567 0.028774295 0.07592714 0.102828905
-0.077639155 0.22093946 0.025347495 0.28128058 0.033034157 0.0075926906 0.08290868 0.11107056
0.024197765 0.2027607 0.13160214 0.14750808 0.07371993 -0.010509058 0.010065073 0.03418609
0.11302204 0.12165071 0.064438425 0.05756341 0.0010133212 0.10326028 0.032785777 0.06754516
0.15142639 0.07244931 0.0752788 0.18140933 0.14452364 0.2162545 0.105684735 0.209566
0.11465888 0.03833627 0.039324556 0.016696656 0.16638808 0.16937874 -0.0118418075 0.07336935
0.094890796 0.13644908 0.07260197 0.009053045 0.060341645 -0.016249906 0.180289 0.14396535
0.20465243 0.026152816 0.26071903 0.20267554 0.39540592 0.005468066 0.03384785 0.20451374
0.09238475 -0.06765516 0.05880477 0.17764474 0.13420495 0.0376945 0.122771926 0.029154286
0.06782412 0.11280853 0.14146377 0.24090014 -0.06426224 0.056392953 0.085118264 0.03149514
0.13551414 0.2861846 0.1842847 0.1733212 -0.02174321 -0.059975155 0.05676087 0.22125974
0.104400344 0.015898608 0.04291094 -0.0074359863 0.12356381 0.1688122 0.120197296 0.108316645
0.047193795 0.17208746 0.08673858 0.047858056 0.020987032 0.2519732 -0.008964727 0.21185698
0.07354532 0.17868759 -0.035742253 0.060040835 0.22447267 0.15755343 0.114007644 0.10208668
0.107357435 -0.08259115 0.17616025 0.0815149 0.08467462 -0.016220564 0.15575784 0.08524739
0.049508244 0.0072499705 0.115853265 0.15810047 0.43103948 -0.07798686 0.16573228 0.20393673
-0.037945863 0.028071791 0.06666631 0.071786016 0.13541661 0.0077734073 0.13227631 0.06883721
-0.013668748 0.13378334 0.023920005 0.12991537 0.09600323 -0.039418444 0.14884959 0.099570915
0.20195016 0.22831444 0.18307137 0.13487315 0.16987854 0.11253669 -0.010016322 0.21400212
0.057389222 0.12067625 0.024662528 -0.018070744 0.084000945 0.11581351 0.032600142 0.014615698
0.22799508 0.03215288 0.20565057 0.12519969 0.008817317 0.14825629 0.16889554 0.116637886
0.105549306 0.12283994 0.08218526 0.12072933 0.19783749 0.27049583 0.025383575 0.053929172
0.056304257 -0.0031832436 0.04407164 0.15583247 0.12161993 -0.026792943 0.10192554 0.23659702
0.19654973 0.09300351 0.06338242 0.0135089215 0.39187598 -0.04005467 0.17855746 0.1681064
0.12385624 0.16746625 0.06593487 0.22363389 0.1841383 0.21531036 0.24600884 0.059703007
0.14756297 0.22930713 0.057432294 0.28422755 0.006825719 0.036976535 0.049152248 0.042791493
0.13345446 0.18205278 0.097746685 0.06097905 0.087346785 0.16457605 0.21478702 0.10559588
0.11394023 0.17682105 0.03077079 0.08736493 0.11258415 0.18466993 0.17041478 0.04940222
0.2386986 0.26133662 0.14923517 0.06422645 0.11189952 0.23826984 0.16996588 0.2197326
0.107967734 0.060452558 0.016414423 0.057735 0.2832858 0.23794888 0.17853303 0.05925252
0.085628 0.19562407 0.033946637 0.018977055 0.27134854 0.107185006 0.19058311 0.20309818
0.08406266 0.06277563 0.1302447 0.08158859 0.3872983 0.011343412 0.1572105 0.2594843

layers.6.bias f4 [64]
00000000: 00d9 2a3f a726 4a3f 0881 133f 87ac 1dba
00000010: 1c82 2e3f ca47 1f3f 2786 a4ba 486d 0aba
00000020: 4b8d 6e3f 71d5 183e 3eea 2e3f 51c3 4cba
00000030: eeb3 0f3f 267a 173f 4e7d b93e d993 1e3f
00000040: 3e22 bdb9 5759 2c3f 874f 03ba bccf adb9
00000050: cf68 b5b6 42d1 4d3f 534c bf3e 4ab5 0f3f
00000060: 3146 4b3f fa63 bcb9 f0cb 6bb9 ca12 68ba
00000070: 91c7 0a3f d1ec 203f 4918 333f e4f1 e2b8
00000080: 1ab3 413f 3c4f 1dba 7762 503f 51a0 10ba
00000090: e366 dfb9 b9c4 58ba 4b3a 6eba 006c 233f
000000a0: 73e4 34ba c3a4 483f 8720 283f 1cb1 cb3c
000000b0: af8e 78b8 1af2 613f d18d 553f f0eb 4e3f
000000c0: 40a5 503f fd4b 22ba 6491 79b9 e2b2 2e39
000000d0: 4c77 843e 6bfc 32ba 988b b239 a4b2 3e3f
000000e0: c7d7 24ba 8570 283f 8775 8f3e 2fd6 d9b9
000000f0: 4416 543f 626c 143f dff4 c2b8 9fcd aeb9
0.66737366 0.7896523 0.5761876 -0.0006014783 0.6816728 0.62218916 -0.0012552188 -0.00052805664
0.93184346 0.14925171 0.68326175 -0.0007811087 0.56133926 0.5917076 0.36228412 0.6194435
-0.00036074402 0.6732382 -0.0005009104 -0.00033151906 -5.4064217e-06 0.8039743 0.37362918 0.56136
0.7940398 -0.00035932643 -0.00022487319 -0.00088528974 0.54210764 0.62861353 0.6995893 -0.000108215754
0.7566391 -0.00060008815 0.81400245 -0.0005517053 -0.0004261053 -0.000826906 -0.0009087666 0.6383667
-0.00069004967 0.78376406 0.6567463 0.024864726 -5.9260692e-05 0.8826004 0.8341952 0.8082876
0.8150215 -0.00061911327 -0.00023800653 0.00016660572 0.25872266 -0.00068277743 0.0003405481 0.74491334
-0.0006288257 0.6579669 0.28019354 -0.00041549045 0.82846475 0.5797788 -9.296252e-05 -0.00033341066

layers.9.weight f4 [32, 64]
00000000: 86dc 3b3e a5d1 753e 9d81 673e 03aa 0d3e
00000010: 2dd4 7f3e a72b 083e cf75 873d 8c2c 223e
00000020: ab25 343e 6620 edbf 9e63 103e d154 1d3e
00000030: 6cdf 753e bf2b 0d3d c2a5 c53c 53f8 1d3e
00000040: fdad 923c 4d17 003d 2fd1 3c3e 7aef f63d
00000050: 3ec0 773d a400 613e 9b4d ba3d 06e8 a23d
00000060: c637 043e b06c 3b3d cc3e a53d 206b 96bc
00000070: 37fe c33d b252 1d3e 67fa 5b3e c463 093e
00000080: d3da 4e3e f706 9a3d decd 2f3e a3ff 293e
00000090: 87b9 273e 86b3 273e 5319 133c b1d6 b53d
000000a0: 4cdc 203e 5439 663e 59e1 323e 7495 2d3e
000000b0: c865 333d 61c7 4e3e 7749 3b3d eb73 143e
000000c0: 3219 753e dde8 ba3d ef2e f7bc 3f2f 203d
000000d0: a2da 223d b0d7 943d 6a5c a53d fee9 d53d
000000e0: 2244 683d 04cd dc3b db71 033e 72cf fc3c
000000f0: 9e3e 813e d9e5 823d 2473 333d d9ee 553e
00000100: a673 5d3d 0c28 d23d da71 a43d 4bef f03d
00000110: 83b5 f93d fe25 523e 1a44 253e 7ef0 5bbc
00000120: e40f 183e 0364 e0bf 2b50 4e3e 9497 553c
00000130: f020 523e eaaa 633d 4ca5 1c3d b171 c73d
00000140: f931 cc3d 386a 653e c9bd 25bc a58f 2f3e
00000150: add0 bdbc 500a a43e ada1 f43c 8985 013e
00000160: 6fed fb3d 5a57 423e bc87 943d 2c70 d8ba
00000170: 0892 643e a50e 093e 34f1 8e3e a8ab 0c3c
00000180: 28b8 463d 700d ea3d f304 813e 6f6e 8fba
00000190: 2f38 aa3d fbb4 a23d 4ade 193d a02d 773e
000001a0: b436 243d ad35 143e bac4 c63d 498c 043d
000001b0: c667 1c3e dfc1 143e 955e 6a3e 0c13 4f3d
000001c0: dd54 5e3e 9432 4f3e 97d4 963d 54f2 a53d
000001d0: 6aae e13d 6a06 173e 91aa 863e 0e99 5c3e
000001e0: 71ca fc3d 13d1 9c3d 91a7 9a3c a021 1b3d
000001f0: aa6a 343e 347d 7c3e 25a1 bd3d b7fb 393d
00000200: 01fa 8e3e e55a 5f3e 026f 583e efbd 6f3e
00000210: a74a 143e 9cce 503e 0a0d f23b 5a0d 293e
00000220: ee92 043e 6040 fabf 8322 fe3d c7bd ac3d
00000230: 9b0c 253e 0e3f 9d3d 8032 773e 1b9a 823d
00000240: efe2 0b3e 7d12 083e a1bf 953b e91e d73d
00000250: 0e14 4d3c 9454 fa3d aaad 693e 9d08 5a3e
00000260: e062 fd3d b1c4 143e c077 843e a5f3 4cbc
00000270: 54df 053e 2052 d23d bbd1 ee3d 46fd 9a3d
00000280: 50d9 b73d ca4a 1b3e 639d 9b3e 7454 503d
00000290: c641 983d 42b2 0d3e d112 dd3d fb6e 4f3e
000002a0: 9a22 8e3d dcad 8d3e 53d8 8b3e 4713 e63d
000002b0: 709c 473e 8350 773e da32 983e b924 d43d
000002c0: 9be1 0d3e 40c2 1d3e 5462 7e3c a1e9 963d
000002d0: f3d2 823e 775b 5b3e 50e6 493e 09f5 523e
000002e0: 287d ca3c 8250 813d 7bce 023e 7fe3 343e
000002f0: 29ae 143e 17f5 ca3d 6435 093e 4dea 803d
00000300: e2ea 043e ee26 053e 8013 e23d 3363 e53d
00000310: 64d1 ab3d 9928 0b3e 5392 df3d ac23 ab3d
00000320: 4269 9d3d 5ff9 efbf 6257 423d 2c47 25ba
00000330: 8e70 1c3e 3394 1b3d b8e0 123b 6cc1 9d3c
00000340: 63c1 19bd f604 463e 268c 4c3d f30c ef3c
00000350: 9a19 3b3e 6a22 043e a914 c43d e2da c23d
00000360: 599d 263e c7ea c13d 32cb 923d 0bfe 293e
00000370: 1081 663d 03a0 403d 8426 b93d f7c7 b83d
00000380: 69ef 163e bcfd 623d 7de5 f63d 9c6d 043e
00000390: 7144 143e 6724 2a3d 058b b13d 6b19 de3d
000003a0: 3715 2f3e a3b9 fe3d 6c0a 423e c18b 103e
000003b0: 4d3f 7b3d b09b c53d 4f15 4b3e 7c88 c13d
000003c0: 422d b73d 0ff5 f93d 6080 963c 1b13 bf3c
000003d0: 71a1 163e c9ed dbbc 9d36 213e cd64 063d
000003e0: 8011 193d febb 2c3e 172f 8ab9 6c85 893d
000003f0: 7048 523e 220e 723e 57de ea3d bc4d 86bc
0.18345842 0.24005754 0.22608037 0.13834386 0.24983282 0.13297902 0.06614267 0.15837306
0.17592494 -1.8525512 0.14100501 0.15364386 0.2401101 0.034465548 0.024126891 0.1542676
0.01790523 0.03127222 0.18439172 0.12057395 0.06048607 0.219729 0.09096833 0.07954411
0.12911901 0.04575795 0.08068618 -0.018361628 0.09569972 0.15363577 0.2148224 0.13416964
0.20200662 0.0752086 0.17168376 0.16601424 0.16379367 0.16377077 0.008978206 0.0887884
0.15709037 0.22482806 0.17468776 0.16951543 0.043798238 0.20193245 0.04572436 0.14497344
0.23935392 0.091264464 -0.030173747 0.039107557 0.039759286 0.072677016 0.08074267 0.10445021
0.0567056 0.006738307 0.12836401 0.030860636 0.25243086 0.06391496 0.04381098 0.20891894
0.05406537 0.102615446 0.08029528 0.117643915 0.12192824 0.20522305 0.1613926 -0.013424037
0.14849812 -1.7530521 0.20147769 0.013036627 0.20520377 0.05558292 0.038243577 0.09738482
0.09970469 0.224038 -0.010116049 0.1714464 -0.023170793 0.32039118 0.02986225 0.12648596
0.12301146 0.18978634 0.07252452 -0.0016512922 0.22321332 0.13384493 0.27918398 0.008585848
0.04851547 0.11428344 0.25199088 -0.0010942946 0.083114974 0.079446755 0.037565507 0.24138498
0.04009123 0.144736 0.09705491 0.03236035 0.15273961 0.14527081 0.22887643 0.050555274
0.2171206 0.20234138 0.07364767 0.08102861 0.11019595 0.1474854 0.26302007 0.2154276
0.123433 0.07657065 0.01887873 0.037873864 0.17618814 0.24657136 0.092592515 0.04540607
0.27925113 0.21812017 0.21136096 0.23412298 0.14481603 0.20391315 0.0073868083 0.16509
0.12946674 -1.9550896 0.12408926 0.08434635 0.1611809 0.07678042 0.24140358 0.063770495
0.13660787 0.13288303 0.004569963 0.105039425 0.012516988 0.12223163 0.22820154 0.21292348
0.123723745 0.14528157 0.25872612 -0.012509261 0.13073474 0.1026957 0.11661097 0.07567839
0.08976996 0.15165249 0.30393514 0.05086179 0.0743442 0.13837531 0.107946046 0.2025718
0.069401935 0.27671707 0.2731348 0.112341456 0.1949327 0.24151807 0.29726297 0.10358567
0.13855593 0.15406132 0.015526373 0.0736878 0.25551566 0.2142161 0.19716763 0.20601286
0.024717882 0.06314184 0.12774079 0.17664908 0.14519562 0.099100284 0.13399273 0.06294689
0.12980226 0.13003132 0.110388756 0.112005614 0.083895475 0.13589706 0.10916581 0.08356413
0.07686092 -1.8747977 0.047446616 -0.0006304856 0.15277311 0.03798313 0.0022411775 0.01925727
-0.037537944 0.1933783 0.049938343 0.02918098 0.18271485 0.12903753 0.09574253 0.09514405
0.16270961 0.09468608 0.07167663 0.16600816 0.056275427 0.0470276 0.090405494 0.09022515
0.14739765 0.05541776 0.1205549 0.12932438 0.14479233 0.041538622 0.08669094 0.10844692
0.17097937 0.12437751 0.18949288 0.14115812 0.061339665 0.09648836 0.19832347 0.094498605
0.08944179 0.12204944 0.01837176 0.02332454 0.14710023 -0.026846783 0.1574349 0.032810975
0.037370205 0.16868588 -0.00026356496 0.06714901 0.20535445 0.23638204 0.11468189 -0.016394489

layers.9.bias f4 [32]
00000000: 18e6 6440 43e2 5d40 0234 6940 d7fc 6140
00000010: 9151 6140 7f35 5d40 2337 5b40 03b9 5b40
00000020: 69f9 2040 643f 5c40 96b4 6440 d904 5e40
00000030: 451b 31bd d81e 5b40 2ca1 003f 7863 5a40
00000040: da2c 0cbe a373 5940 4f84 1a3f 8963 5f40
00000050: efe0 613f 919f 10be 4dbb 5840 7f4a ba3f
00000060: 22b0 b43f 2608 cebd 2b6c 5c40 4f85 5e40
00000070: 7c5c 5c40 ecef 5a40 ce62 e23b a8d1 2fbe
3.5765438 3.466935 3.6437993 3.5310571 3.5206034 3.4563901 3.4252403 3.4331672
2.5152228 3.441369 3.573522 3.4690459 -0.043238897 3.4237576 0.5024593 3.412321
-0.13688985 3.397683 0.60358137 3.4904501 0.88233846 -0.1412337 3.386432 1.4553984
1.4116251 -0.10060148 3.444102 3.4768865 3.4431448 3.4208937 0.006908751 -0.17169821

layers.11.weight f4 [1, 32]
00000000: ad49 ae3e 7329 ce3e bde1 a83e ad7a 043f
00000010: dc92 023f 7dcd fb3e 974e c03e 31c7 e43e
00000020: edc0 5cc0 4b5c e33e 05a1 db3e e87a b93e
00000030: 664f 5abd 52c8 cb3e b070 1ebf 041c c03e
00000040: 5bc2 11bd c139 fa3e e898 3cbf e0a7 e23e
00000050: 6bfe 18c0 ae4f 82bd 7175 da3e 571d 4e3f
00000060: a47b 41c0 3ff4 bdbd dc64 d53e f9c1 b53e
00000070: 0ea1 e13e 1808 9a3e e683 c1bd 2660 26bd
0.34040585 0.40265998 0.32984725 0.5174969 0.5100534 0.49180213 0.3755996 0.4468322
-3.4492753 0.4440635 0.42896286 0.36226583 -0.053298377 0.3980127 -0.618907 0.37521374
-0.035585742 0.48872188 -0.73670816 0.44268703 -2.3905284 -0.06362854 0.42667726 0.8051352
-3.0231714 -0.09275102 0.41678512 0.35499552 0.44068187 0.300843 -0.09448986 -0.040619038
