deep_learning/trained_models/mlp_model_log_loc_feat_l.pt (torch, 284754 bytes, 15 tensors)

layers.0.weight f4 [128, 132]
000000 88 46 4e ba 07 ad 24 3c 22 e9 1f 3c af 03 5d 3b
       -0.00078687863 0.010051019 0.009760173 0.003372412
000010 4e f4 11 b6 80 5b 37 3b 6b de 70 bb a7 5c 45 bb
       -2.1748888e-06 0.0027978122 -0.0036753665 -0.003011504
000020 5f 04 22 bb bc 17 5a ba a2 c4 bb bb 4b 3f 90 bb
       -0.0024721844 -0.0008319577 -0.0057302276 -0.0044020764
000030 a6 4d 97 ba 1b ba ad 3b 88 5e 95 bb 3c 95 22 bb
       -0.0011543527 0.0053017265 -0.004558388 -0.002480819
000040 46 d7 61 3b 59 7e ec 39 7d 31 22 bb 6a a5 7a b9
       0.0034460588 0.00045107564 -0.0024748736 -0.0002390348
000050 63 9a 74 bb 66 d9 62 bb 4a 46 19 ba ec 88 15 bb
       -0.0037323467 -0.0034614443 -0.00058469607 -0.0022817208
000060 a2 f3 db b8 65 4d 73 b9 92 88 64 3a 80 e7 69 3a
       -0.00010488114 -0.00023203118 0.00087178603 0.0008922741
000070 c7 1f 0d bb df 12 9b ba 53 0b 3a 3a eb 7c ba 3b
       -0.0021533833 -0.0011831186 0.00070970244 0.005691161
000080 5b 98 ed 39 69 70 e4 ba 32 e3 2b ba 90 1f 48 3b
       0.00045317676 -0.001742852 -0.0006556987 0.003053639
000090 2d 16 7a ba ee 36 9e bb f5 fc 5d 3b 4b f8 27 3b
       -0.00095400476 -0.0048283255 0.0033872698 0.0025630172
0000a0 4f b6 cf 39 a5 7f 8d ba 02 63 20 bb f1 ff 41 3b
       0.00039617947 -0.0010795487 -0.0024473076 0.0029602016
0000b0 69 09 aa bb 64 ca 65 b9 bf 1a cb 3b 76 4c e9 39
       -0.00518911 -0.00021914538 0.0061982567 0.0004449819
0000c0 2b e0 b8 3b 14 43 28 3b c8 55 0b 3c 2a 22 76 3b
       0.0056419573 0.0025674747 0.008504339 0.0037556984
0000d0 4e b9 97 3b 49 f8 4b 3b 4e 71 a2 3b 1f 2c a9 ba
       0.0046302443 0.0031123331 0.0049573546 -0.0012906826
0000e0 a9 1c 98 3b 0f ed be 3a 31 53 d9 bb 20 6f 78 3b
       0.0046420884 0.0014566499 -0.0066322316 0.0037908033
0000f0 af 90 25 bc 34 c4 04 bb f0 a6 1f b9 4f 07 16 3c
       -0.010105296 -0.0020258548 -0.0001522561 0.009157016
000100 8e 55 46 bb a9 32 eb 3a 1d a8 7a 3b 29 97 1d bc
       -0.0030263397 0.0017944175 0.0038247176 -0.009618559
000110 2c 6c db ba 43 ce f5 ba b9 0b dc 3b d7 e5 e6 b9
       -0.0016740612 -0.0018753487 0.0067152646 -0.00044040263
000120 4f 3c 71 3b 18 b0 3b 3b 61 ff 8b 3b 74 ca dd b9
       0.0036809628 0.0028638896 0.004272387 -0.00042303244
000130 9a df c5 3b b5 62 78 bb 3d 0b 96 bb d6 37 95 3b
       0.0060386183 -0.003790063 -0.0045789764 0.0045537753
000140 31 1f 05 bc d7 7f d5 3a 9c 1e 9d ba 4c 20 97 ba
       -0.008125112 0.001628871 -0.0011987272 -0.0011530011
000150 1e 9c 8e 3b 61 ef 5b 3b a4 65 4d bb b3 b1 20 39
       0.0043521067 0.003355943 -0.00313411 0.00015324987
000160 7c 01 e6 bb 00 94 a1 ba 1f 4a 9e b9 83 69 1f 3b
       -0.00701922 -0.0012327433 -0.00030191333 0.0024324364
000170 cc 86 95 3b c1 01 be 3b 19 f6 70 3b e4 08 01 bc
       0.004563188 0.005798549 0.003676778 -0.007875655
000180 1e ba 60 3b 36 b4 09 bb 20 43 9c 3b 41 56 82 bb
       0.0034290622 -0.0021011955 0.004768744 -0.0039775674
000190 14 5c ab bb 51 d1 a2 39 11 02 60 bb c1 5f c2 3a
       -0.0052294824 0.00031055 -0.003418092 0.0014829562
0001a0 77 bc ee 3b c6 9e 2c 3b 41 3c b8 3b 00 f5 ef bb
       0.0072856504 0.0026339754 0.005622417 -0.0073229074
0001b0 e5 19 be bb 5e a1 ab 3b 98 89 81 b9 25 86 0a bb
       -0.0058014267 0.0052377423 -0.00024707313 -0.0021137085
0001c0 4e e6 e0 bb 2b fe a6 3a fc ae e2 bb d5 6e cb 3b
       -0.006863392 0.0012740543 -0.0069178324 0.0062082806
0001d0 04 c6 70 3b 23 24 bf bb f7 18 8b 3b 5a f1 58 bb
       0.003673912 -0.0058331653 0.0042449194 -0.003310284
0001e0 d7 dd 31 3b 52 8c c5 bb 40 11 96 3a b4 cc 24 b8
       0.0027140283 -0.0060286904 0.0011449233 -3.929129e-05
0001f0 38 9b 45 bb 3d d2 37 bb 81 a5 24 3d 62 13 0e 3a
       -0.0030152332 -0.0028048896 0.0401969 0.00054197584
000200 99 df 22 bd e0 af f6 3c cf 33 a8 bc d4 68 b6 bb
       -0.03976402 0.03011316 -0.020532517 -0.0055666957
000210 06 0d f6 3a 7d 66 28 bb 02 a6 dc ba 39 ac 62 39
       0.0018772192 -0.0025695853 -0.0016834142 0.00021617197
000220 66 29 cd bb 3b 10 ba b9 a0 8b d1 3b 66 e3 cb 3b
       -0.0062610386 -0.00035488777 0.0063948184 0.0062221764
000230 d7 20 a2 3a c4 1d ea bb d7 e5 68 bb 2a ce 85 38
       0.0012369406 -0.0071446616 -0.0035537386 6.380335e-05
000240 e5 28 11 3b 05 30 3a bb d6 57 b9 ba f5 9f 6f 3a
       0.002214962 -0.002840997 -0.0014140557 0.0009140962
000250 2d 7c ab bb 54 8f 26 3b dd db 0b 3a 36 67 67 3a
       -0.0052333088 0.002541502 0.00053351914 0.00088273303
000260 ec 56 12 bc d6 2b d5 bb bb 12 d0 3a ae 0b c5 ba
       -0.008931857 -0.00650547 0.0015874723 -0.0015033388
000270 fd 7d 2d bb 63 49 61 ba 42 81 d8 bb 9f 4f 0f ba
       -0.00264728 -0.00085940043 -0.0066072056 -0.00054668816
000280 75 e6 fa ba 2e 63 32 3b 9a 06 74 bb cf e5 fa ba
       -0.0019142168 0.002721976 -0.003723538 -0.0019141975
000290 58 e5 a5 3a 16 25 1f bc b8 7f ad 3a 13 a2 02 3b
       0.0012656851 -0.009713432 0.0013236916 0.001993303
0002a0 05 66 73 ba a6 48 d9 bb bb 73 92 3b 40 ba 9d bb
       -0.00092849165 -0.006630975 0.0044693626 -0.0048134625
0002b0 ef a7 a9 bb b8 5d b2 3a 03 92 7d ba 5d b2 02 ba
       -0.00517749 0.0013608253 -0.00096729415 -0.00049856846
0002c0 89 a5 5a bb 47 d3 2d b9 93 cd 32 3b a5 6e 2e 3b
       -0.0033362827 -0.00016577273 0.0027283176 0.0026616242
0002d0 62 10 f4 3b 15 9e b4 3b 69 f1 6b 3b ed 8b 3b 3b
       0.007448242 0.005512009 0.0036002046 0.0028617338
0002e0 4c 47 ae 3b ca c0 c5 3b a9 97 1b b9 71 87 81 bb
       0.005318558 0.006034945 -0.0001483845 -0.0039529135
0002f0 3a df 2b bb 6c d7 a3 38 89 14 f4 ba fb 40 a9 3b
       -0.0026225583 7.812571e-05 -0.0018621843 0.005165217
000300 91 b1 e0 bb d1 1c db bb ee 67 24 bb ff db c9 3b
       -0.006857105 -0.006686785 -0.002508636 0.006160259
000310 25 7a fd ba 96 37 98 3b 57 60 8e ba f9 99 79 bb
       -0.001933877 0.0046452982 -0.0010862452 -0.003808616
000320 52 6e 13 3b 85 ed 99 3b a2 69 57 3b 5d 49 c8 3a
       0.0022496176 0.004697504 0.0032869359 0.0015280653
000330 bd 62 80 bb 12 6f f7 ba 16 b9 26 3b 1b 4f 85 3a
       -0.0039180205 -0.0018877706 0.002543991 0.001017067
000340 06 a0 db ba 63 20 12 bc 57 3c 04 bc 7f ee 2f bb
       -0.0016756065 -0.008918854 -0.008071027 -0.0026845036
000350 38 17 80 bb b6 4b 97 bb 71 2e 2e 3c a4 20 6d 3a
       -0.003909018 -0.0046171797 0.01063119 0.00090456964
000360 05 00 b5 b9 8f ed b6 3a 4d 1c f1 ba 8b 19 c9 3b
       -0.00034523025 0.0013956296 -0.0018395275 0.006137078
000370 cd e6 c8 bb c4 00 00 3b f9 3a 92 bb ed de bd 3a
       -0.006131029 0.0019531706 -0.0044625965 0.0014485993
000380 21 b0 6b 3b 6d be df 3a 48 65 6d 3b ae e0 ac bb
       0.0035963135 0.0017070301 0.0036223698 -0.0052758073
000390 65 6f 02 bb 74 42 8b ba 6f 74 40 3b 76 7a 32 bb
       -0.0019902822 -0.0010624663 0.0029366275 -0.0027233637
0003a0 33 0d 65 bb d8 3c 78 3b 5b 35 d8 ba cb 47 06 bb
       -0.0034950494 0.0037878063 -0.0016495393 -0.002048957
0003b0 cd 71 ee 3b cd a0 4a 39 55 d2 8a 3b ee 60 0d 3a
       0.0072767497 0.00019324124 0.0042364993 0.0005393167
0003c0 35 17 9f ba 04 c4 4f bb 43 54 95 ba c9 ca 37 3b
       -0.0012137654 -0.0031702528 -0.001139291 0.0028044453
0003d0 bc 65 93 3a 15 af 2d 3b 3b b6 41 bb f4 28 f2 ba
       0.0011245529 0.0026502062 -0.002955808 -0.001847534
0003e0 34 7f aa 3b 0f ca 2c ba 07 fa a0 ba 3f e0 60 bb
       0.005203152 -0.00065913884 -0.0012281545 -0.0034313349
0003f0 a0 d1 74 ba 88 48 37 bb 69 31 71 3b 7d cf 0e 3a
       -0.0009339098 -0.0027966816 0.0036803132 0.0005447788

layers.0.bias f4 [128]
000000 63 c8 3d 3c 5b 96 37 3b f7 9d 8f 3b 62 c5 20 ba
       0.01158342 0.0028013203 0.0043828445 -0.0006132928
000010 f1 3d c5 3b c5 f5 97 3c a7 25 21 3b 6f 29 df 39
       0.006019347 0.01854981 0.0024589093 0.00042564745
000020 74 bf b7 3b 39 26 a0 3b 72 65 e4 3b 35 a4 3f 3b
       0.00560754 0.004887369 0.006970101 0.0029242162
000030 22 8a b2 3b 39 ad 56 3b fa 0f c4 3b 25 ab 4b 3a
       0.0054485956 0.0032757057 0.00598335 0.0007769338
000040 79 2e 8e 3a 75 73 eb 3a 84 76 66 3b 1e 8f 93 3b
       0.001084759 0.0017963486 0.0035165856 0.004503145
000050 85 8e a5 3b d5 3a ae 3b 7b 1f fe 3a c9 8a bf 3b
       0.00505239 0.005317072 0.0019388044 0.005845402
000060 ed 30 21 b9 32 6b d4 3b e4 63 d7 3b 5f 4a b2 3b
       -0.00015372383 0.0064825052 0.006573187 0.0054409946
000070 03 e7 99 3b 8c ab ec 3b 74 80 0e 3c fa 04 d6 3b
       0.004696728 0.0072225984 0.008697618 0.006531355
000080 5f 62 a9 3b 16 92 a8 3b d9 de 35 3b 3d d3 f0 3b
       0.0051691975 0.005144368 0.0027751236 0.0073494003
000090 72 ff a2 3a d7 09 77 3c a4 79 24 3b 3b 65 83 3b
       0.0012435748 0.01507803 0.0025096918 0.0040098703
0000a0 3b f8 fe 3b b2 a0 a8 3b c7 09 98 3b 38 cf 52 ba
       0.007781056 0.0051461095 0.0046398374 -0.0008041742
0000b0 3d 89 4e 3a bb 75 6f 3c 61 d4 21 3c 85 3c df ba
       0.00078787265 0.0146154715 0.009877295 -0.0017031586
0000c0 34 ff dd b9 a7 92 74 3a a3 de 00 3c ea 0f 07 3c
       -0.00042342546 0.0009329714 0.007865581 0.00824354
0000d0 90 34 67 3b 16 8d 9c 3b bf 13 42 3c d5 fa 7e 3b
       0.0035279132 0.004777561 0.011845528 0.0038906832
0000e0 4a 79 c5 3b 99 e4 58 3c db 44 7d 3b 7f 2c cd 3b
       0.0060264217 0.013238096 0.0038645777 0.006261408
0000f0 e3 7c 2d 3a fe 15 42 3b 50 8a 85 3c 37 45 81 3b
       0.0006618036 0.002961516 0.016301304 0.0039450186
000100 1e 61 f4 3b fe c2 99 3b 19 1f 7d 3c 2e 20 5e 3b
       0.0074578663 0.0046924343 0.015449309 0.0033893692
000110 04 86 21 3b 8f 37 b4 3b 5e c6 ab 3b 8a d0 31 3b
       0.002464653 0.005499787 0.005242153 0.0027132356
000120 f1 87 ee 3b 05 61 90 3b f8 1a 5a 3c 8d e3 d4 3b
       0.007279389 0.004406097 0.013312094 0.0064968527
000130 83 5e cb 3a 3d 4e a7 3b 5a 0f 94 3b c6 0d 06 3c
       0.0015515838 0.0051057623 0.0045184316 0.008181995
000140 71 c8 c7 3b 84 76 5c 3b 6c fe 50 3c 79 62 3b 3c
       0.0060968925 0.0033639977 0.012755971 0.011437052
000150 62 7a 01 3c eb 55 d2 3a bd 05 3a 3b 06 91 72 3b
       0.0079027135 0.0016047334 0.0028384768 0.003701271
000160 50 ff ce 3b b4 cb f6 3a 71 5d 0d 3b bb 0e 9a 3b
       0.0063170567 0.0018829019 0.0021570588 0.004701463
000170 1e f3 66 3b ce 09 a9 3b b5 00 cb 3a b8 94 ab 3b
       0.0035240124 0.0051586395 0.0015487882 0.0052362345
000180 b9 58 92 3b 03 30 f1 3b d8 ad db 38 75 70 3f 3c
       0.004466143 0.00736046 0.00010475115 0.011684527
000190 ea 87 aa 3b 9e 84 17 3b e7 a1 17 3b 3d 05 1a 3b
       0.0052041905 0.0023119817 0.0023137273 0.0023501657
0001a0 37 fa bd 3b 5a aa 83 3b 8a b0 a7 3b 3a 26 f7 3a
       0.00579765 0.00401811 0.0051174806 0.0018855997
0001b0 13 b0 8e 3c aa cf ba 3a 27 d7 87 3c 2a f0 9f 3b
       0.017417943 0.0014252563 0.016582085 0.0048809247
0001c0 fe 60 f2 3b a4 a0 7e 3c 5f b2 13 3b 1b 26 36 3b
       0.0073968163 0.015541229 0.0022536737 0.0027793709
0001d0 e5 ba 91 3b 10 e8 5f 3b bf 12 37 3a 3f 53 38 3c
       0.0044473284 0.003416542 0.00069836894 0.011250316
0001e0 b1 a6 b1 3b 3f 84 db 3a e9 e4 10 3b 7a 0d 90 ba
       0.0054214825 0.0016747786 0.0022109097 -0.0010990344
0001f0 66 d8 a1 3a 41 9d 60 3c b0 94 69 3b 52 57 b4 3b
       0.0012347817 0.013709367 0.0035641603 0.0055035735

layers.3.weight f4 [256, 128]
000000 bc ce c8 3b e3 a9 8d 3b 4e 20 97 3b df a2 a5 3b
       0.0061281603 0.0043232306 0.0046120053 0.005054816
000010 67 7a 88 3b bc 42 d5 3b 73 2f 3d 3b 10 ed b2 3b
       0.004164982 0.0065081995 0.0028867393 0.005460389
000020 75 fc b0 3b 98 c3 9d 3b b9 b7 94 3b b4 03 29 3b
       0.005401189 0.0048145764 0.004538503 0.002578956
000030 39 a4 a2 3b c5 85 96 3b 8f 1f 93 3b a4 e4 a9 3b
       0.0049634245 0.0045935833 0.004489846 0.005184727
000040 11 d9 b8 3b 65 ba 8b 3b fa 5f c0 3b a7 68 af 3b
       0.0056411107 0.0042641633 0.0058708163 0.0053530517
000050 d4 8a 9c 3b b2 dd 9b 3b a6 28 73 3b 70 2d a5 3b
       0.004777292 0.0047566528 0.0037103086 0.005040817
000060 64 4e 9f 3b 29 fb b2 3b 29 44 c9 3b eb ab bf 3b
       0.00486164 0.0054620695 0.0061421585 0.0058493516
000070 16 62 a1 3b 6a 0e a5 3b af 2d cf 3b b2 24 e1 3b
       0.004925023 0.0050371187 0.0063225846 0.0068708295
000080 ec e7 a5 3b dc 48 77 3b 6b 1b 9e 3b 4c 16 a1 3b
       0.0050630476 0.0037732637 0.004825046 0.004915988
000090 08 84 a7 3b b0 db a4 3b d5 6e a7 3b 6c 8c 86 3b
       0.005112175 0.0050310716 0.0051096478 0.004106095
0000a0 6c 47 e3 3b 26 86 97 3b cb 6b b8 3b 4e 23 b8 3b
       0.0069360044 0.004624146 0.0056280843 0.005619443
0000b0 ae e5 8e 3b d6 c9 c1 3b d3 a1 a7 3b 74 a0 91 3b
       0.004360876 0.0059139533 0.0051157265 0.0044441763
0000c0 44 03 93 3b 7b 4b 6e 3b 5d 9b d9 3b ee 8d 8c 3b
       0.0044864733 0.0036360908 0.006640835 0.0042893803
0000d0 23 17 89 3b 23 3c 58 3b ff 11 bd 3b ee dc db 3b
       0.0041836663 0.0032994829 0.0057699676 0.0067096865
0000e0 f1 70 a0 3b 4b b7 01 3c 40 8a 98 3b 29 52 da 3b
       0.004896276 0.007917236 0.0046551526 0.0066626263
0000f0 2f 03 9b 3b f7 b7 94 3b 36 39 e7 3b ca 19 cf 3b
       0.004730604 0.004538532 0.0070563806 0.006320213
000100 ed e1 dc 3b 42 a0 a7 3b e3 d4 bd 3b c9 7d 89 3b
       0.0067407996 0.0051155398 0.0057932003 0.004195903
000110 48 7c f5 3b a9 5f 9a 3b 20 9e b1 3b 97 df ea 3b
       0.007491622 0.0047111106 0.0054204613 0.0071677673
000120 7d 59 b8 3b 31 1d aa 3b a5 fa d1 3b 12 da a1 3b
       0.005625902 0.005191468 0.006408053 0.004939326
000130 92 ad 99 3b 55 f5 ae 3b 2a bd 47 3b 22 c9 c6 3b
       0.0046898806 0.0053393045 0.003047774 0.0060664574
000140 c9 1c b1 3b 0f a2 97 3b 81 0f ba 3b 56 f8 c4 3b
       0.005405043 0.004627473 0.0056781177 0.0060110493
000150 74 98 de 3b ee 19 b4 3b 2e 1b 9a 3b a1 d5 b6 3b
       0.006793076 0.005496255 0.004702947 0.005579666
000160 de a5 cf 3b f9 d1 a6 3b 81 e3 65 3b 57 18 9b 3b
       0.0063369116 0.0050909487 0.003507823 0.004733126
000170 79 eb 79 3b 59 4f ee 3b b3 03 f0 3b 3e 18 94 3b
       0.0038134737 0.0072726426 0.0073246597 0.0045194915
000180 17 72 72 3b 52 04 b3 3b ff b1 bb 3b 4b 9f 93 3b
       0.0036994272 0.0054631615 0.005728006 0.004505073
000190 3e 3f 66 3b 0a fe f3 3b a7 5a ee 3b ef 0b a8 3b
       0.003513291 0.0074460553 0.00727399 0.0051283757
0001a0 94 1f b7 3b ef 86 f1 3b 1c cd ab 3b 0b 7a 8a 3b
       0.005588481 0.0073708217 0.005242957 0.0042259744
0001b0 48 b8 d1 3b 75 ab a9 3b 8e 0d ae 3b a9 5b 9f 3b
       0.006400142 0.00517791 0.0053116744 0.0048632217
0001c0 74 b6 cc 3b 3e 7e ac 3b bd 9a 83 3b 06 90 ba 3b
       0.006247336 0.0052640727 0.004016249 0.0056934385
0001d0 64 23 ab 3b 10 89 82 3b 7d e3 a0 3b 1b 8a c7 3b
       0.0052227248 0.0039836243 0.004909931 0.0060894615
0001e0 ec 0a 98 3b c7 9a 78 3b 5d d3 92 3b f0 a2 84 3b
       0.004639974 0.0037934051 0.004480763 0.004047744
0001f0 a4 34 ab 3b c1 37 d7 3b f4 07 f7 3b b4 82 9a 3b
       0.005224781 0.0065679257 0.00753879 0.004715288
000200 a7 d0 bf 3b 6b 75 9e 3b 9c 81 9a 3b a4 ed 9f 3b
       0.0058537307 0.0048357747 0.0047151577 0.004880624
000210 2f 3b 85 3b 70 64 dd 3b b4 e1 41 3b c0 f5 aa 3b
       0.004065893 0.006756358 0.0029583992 0.005217284
000220 f0 b6 ad 3b ee 09 9b 3b 26 f4 9b 3b e3 19 15 3b
       0.005301349 0.0047314083 0.0047593294 0.0022751025
000230 88 40 95 3b 1c 3b 9a 3b 24 7a 99 3b f5 a5 9d 3b
       0.004554812 0.0047067534 0.0046837498 0.0048110434
000240 68 65 b8 3b 88 3a 94 3b ea 97 b5 3b 14 d6 ab 3b
       0.005627323 0.004523579 0.005541791 0.005244026
000250 2c ba a1 3b d7 8b 9e 3b 91 fa 7d 3b ad 5d b1 3b
       0.0049355235 0.0048384476 0.0038754086 0.0054127784
000260 e6 93 97 3b 1b 0a b2 3b cd 21 bb 3b c8 87 d8 3b
       0.004625785 0.0054333336 0.0057108165 0.0066079833
000270 17 66 9d 3b 72 8f a9 3b 87 3b cd 3b 42 4e de 3b
       0.00480343 0.0051745707 0.0062631997 0.0067842314
000280 54 d3 a3 3b ca a7 5d 3b e7 5f 99 3b 6f 40 a0 3b
       0.0049995575 0.0033821934 0.004680622 0.0048904936
000290 51 fa a7 3b 37 b7 a8 3b b0 e6 9f 3b b4 16 83 3b
       0.0051262756 0.005148794 0.004879795 0.004000509
0002a0 e9 d5 d3 3b 71 4c a2 3b d8 c6 ba 3b f5 21 ae 3b
       0.006464709 0.00495296 0.0056999736 0.0053141066
0002b0 7c b4 86 3b df f3 b9 3b 74 94 9f 3b 17 53 9d 3b
       0.004110871 0.0056748237 0.004869992 0.004801165
0002c0 54 94 91 3b f0 02 7a 3b d3 fb d5 3b 66 37 82 3b
       0.004442731 0.0038148724 0.006530264 0.003973889
0002d0 03 7f 85 3b b5 99 4c 3b 45 35 be 3b 8a b6 d1 3b
       0.004073979 0.0031219546 0.00580469 0.006399934
0002e0 be 76 a5 3b c3 e7 fb 3b 33 40 94 3b e6 49 c3 3b
       0.0050495556 0.0076875403 0.0045242547 0.005959737
0002f0 f3 f4 a3 3b 0a f0 91 3b 86 7e df 3b d6 84 ac 3b
       0.0050035655 0.0044536637 0.0068205027 0.0052648587
000300 1d fe c1 3b 49 b6 a7 3b 5d da be 3b 94 78 76 3b
       0.0059201852 0.0051181656 0.005824371 0.0037608491
000310 f8 6c fa 3b 20 28 97 3b df 70 a6 3b e9 8d ee 3b
       0.0076423846 0.0046129376 0.0050793733 0.0072801006
000320 2b 93 b4 3b 1e 2c a7 3b 38 fd bf 3b d8 db a1 3b
       0.005510708 0.0051016947 0.0058590434 0.0049395375
000330 8c ef 99 3b 43 cb b7 3b 01 47 4e 3b 17 82 cd 3b
       0.0046977457 0.0056089475 0.0031475427 0.0062716114
000340 69 06 9f 3b 35 86 99 3b 51 16 bd 3b 9d 16 c8 3b
       0.004853059 0.004685188 0.0057704826 0.0061062113
000350 b2 ca d3 3b 44 e2 c5 3b 79 1e 99 3b c5 65 aa 3b
       0.006463372 0.006038936 0.004672822 0.00520012
000360 29 ea bf 3b 20 1a 97 3b 23 d8 59 3b f5 30 95 3b
       0.0058567715 0.0046112686 0.00332404 0.0045529553
000370 4c 37 86 3b 0e 78 ed 3b aa fa ea 3b 61 eb a5 3b
       0.0040959474 0.0072469776 0.0071709948 0.0050634597
000380 8b 64 5d 3b 2d 63 ab 3b 2c 85 aa 3b 1c e5 9d 3b
       0.0033781852 0.0052303285 0.0052038636 0.0048185717
000390 6a 76 53 3b 33 f2 ed 3b 7f d7 ef 3b 9d 93 a3 3b
       0.0032266625 0.0072615384 0.0073193903 0.004991962
0003a0 cd c5 ab 3b e1 48 e5 3b 80 da a2 3b a9 aa 8d 3b
       0.0052420855 0.0069972132 0.004969895 0.004323323
0003b0 e6 6d d7 3b 48 16 9e 3b df c0 b4 3b 3e ee 9d 3b
       0.00657438 0.0048244335 0.005516156 0.0048196604
0003c0 01 b8 cd 3b 33 27 a4 3b 1f 65 91 3b 85 c1 ab 3b
       0.0062780385 0.0050095557 0.0044371034 0.005241575
0003d0 05 b4 9d 3b 50 de 95 3b ef 9f ac 3b 68 69 c6 3b
       0.0048127198 0.004573621 0.005268089 0.006055046
0003e0 9f 52 9a 3b 22 09 7e 3b ce 28 92 3b 91 97 8b 3b
       0.0047095562 0.0038762768 0.0044604307 0.0042600115
0003f0 f1 00 a0 3b 72 84 db 3b 2d ae f6 3b 9a f5 8c 3b
       0.0048829247 0.0066991383 0.0075280876 0.004301739

layers.3.bias f4 [256]
000000 3b 01 91 38 77 73 5c b9 9f 4c 96 b8 9e 1d 19 b8
       6.914368e-05 -0.00021023849 -7.166829e-05 -3.6505626e-05
000010 47 d4 89 b9 cd d0 68 b9 d7 f2 03 b9 da ae ae 38
       -0.00026288835 -0.00022203028 -0.00012583598 8.329535e-05
000020 af 08 41 b9 93 3e a9 b8 93 89 81 b9 04 0a e2 38
       -0.00018409149 -8.070203e-05 -0.00024707298 0.00010778385
000030 8b 9c cb b8 13 1e 4b b9 8f 8b 20 39 e1 a4 c2 b9
       -9.708953e-05 -0.00019370792 0.00015310779 -0.00037125408
000040 75 fc ca 38 e5 80 eb b8 2e fb 85 b8 84 fd 69 37
       9.6791344e-05 -0.00011229682 -6.38872e-05 1.3946908e-05
000050 93 b4 54 b9 ef a0 7d b9 4d 2f bb b8 0f c1 96 b9
       -0.00020285165 -0.00024187913 -8.925665e-05 -0.0002875407
000060 07 71 a4 b9 13 77 13 b9 d7 b6 50 b7 7f d5 b3 37
       -0.0003136473 -0.00014063371 -1.2440337e-05 2.143788e-05
000070 6c 95 fe b8 3b a3 d9 b7 f5 90 3f b9 b5 2d bc b8
       -0.00012139496 -2.5944426e-05 -0.0001826918 -8.973052e-05
000080 64 9e 85 b9 eb 3a 65 b9 d4 31 68 b9 05 c2 72 b9
       -0.00025485747 -0.0002186109 -0.00022143807 -0.00023151196
000090 c4 66 17 b9 16 c3 79 b9 5e 33 3d b9 7c 1e c5 b7
       -0.00014438765 -0.00023819166 -0.0001804358 -2.3498425e-05
0000a0 cc db 41 b8 17 a0 5e b9 3d 48 29 b9 0c a7 03 b9
       -4.6219488e-05 -0.00021231208 -0.00016144007 -0.00012555363
0000b0 e2 3e 0d b9 ed 61 0d b9 81 dc 1a b9 51 d3 db b8
       -0.00013470234 -0.00013483288 -0.00014768729 -0.000104820945
0000c0 af 70 30 b9 80 94 55 b9 60 2c 55 38 f1 fd 85 b9
       -0.00016826646 -0.00020368584 5.0824485e-05 -0.00025556938
0000d0 40 54 c5 39 32 30 3b b9 82 e3 46 b9 7e f6 f3 b8
       0.0003763754 -0.00017851664 -0.00018967505 -0.00011633056
0000e0 20 fa 9a b8 b2 da d7 b8 2d 98 15 b9 0d 03 50 39
       -7.389882e-05 -0.00010292734 -0.00014266437 0.00019837562
0000f0 8c f8 3a b9 6c 20 55 b9 10 89 a9 37 d8 99 51 b9
       -0.00017830933 -0.00020325341 2.0210195e-05 -0.00019989104
000100 05 cc 6d b9 43 2e 84 b9 1e fc 68 b9 f3 f8 08 b9
       -0.00022678084 -0.0002521147 -0.00022219165 -0.00013062712
000110 c6 b0 49 b9 cc 6a a4 39 7f c7 c7 b8 79 d9 8b b9
       -0.00019234707 0.00031360087 -9.5262185e-05 -0.00026674176
000120 54 1d 36 b9 f3 41 5d b8 54 f4 3b b9 ed 0c a4 39
       -0.00017367798 -5.2751926e-05 -0.00017924729 0.00031290148
000130 59 8f 1f b8 d2 c4 1c b7 fc e9 0f b9 fa b8 b2 38
       -3.8042057e-05 -9.34415e-06 -0.00013724709 8.522156e-05
000140 b9 d6 81 38 a4 5e 1e b9 f2 45 bc b9 74 27 38 b9
       6.1911946e-05 -0.0001510331 -0.00035910268 -0.00017562305
000150 59 6a fe b6 49 b9 a9 b8 dc 25 09 b9 65 b0 88 b9
       -7.5821704e-06 -8.09306e-05 -0.00013079442 -0.00026071366
000160 f6 76 02 38 47 9f ed b8 e6 c9 c7 b8 9c c1 42 b9
       3.1105206e-05 -0.000113307084 -9.526666e-05 -0.00018573407
000170 41 87 36 b9 52 bb aa 39 25 7c 28 b9 c1 41 2f 39
       -0.00017407259 0.0003256449 -0.00016067976 0.00016713796
000180 e1 78 1f b9 b5 6b 2f b9 94 37 6f b9 b6 a0 06 80
       -0.00015208453 -0.00016729425 -0.0002281352 -6.08665e-40
000190 01 43 54 39 d8 2c 0d 38 2c c6 6a b9 07 39 d2 37
       0.00020242856 3.3658784e-05 -0.00022389804 2.5060506e-05
0001a0 1c 55 39 b5 dc 3d cf b8 60 48 e7 b8 08 0a 57 b9
       -6.904172e-07 -9.8820514e-05 -0.00011028419 -0.00020507735
0001b0 e7 99 19 b9 53 09 65 39 3f 90 19 b9 bb a0 4a 38
       -0.0001464855 0.00021842615 -0.00014644953 4.8310245e-05
0001c0 06 bd c0 36 1f 57 0e 39 a3 a9 c0 b7 6d 04 b9 b8
       5.744051e-06 0.0001357463 -2.2967177e-05 -8.822312e-05
0001d0 e6 19 93 39 e2 a2 0c b9 85 99 bc b9 2b 8e a7 b8
       0.0002805732 -0.00013412119 -0.00035972535 -7.9896614e-05
0001e0 5e 75 15 b9 54 90 0a b9 fe c4 36 b9 4b 70 50 39
       -0.0001425347 -0.00013214472 -0.00017430258 0.00019878258
0001f0 24 86 63 38 98 0f 88 39 b0 92 82 b9 96 b1 76 38
       5.4245946e-05 0.0002595156 -0.00024904823 5.881636e-05
000200 54 fb 0a b9 e2 1e 19 b8 e9 b6 fa b8 e7 53 93 b8
       -0.00013254333 -3.6506804e-05 -0.000119549986 -7.025134e-05
000210 cc 47 28 b8 40 63 24 b9 13 f2 24 b9 8c 9f ae 38
       -4.0121187e-05 -0.00015677232 -0.00015730438 8.3266845e-05
000220 81 08 d3 b8 f7 f6 f2 b8 52 a7 2f b9 dd f9 9a b9
       -0.00010062848 -0.0001158546 -0.00016751632 -0.00029559332
000230 1b ab a0 b9 51 c0 88 b7 77 bf 0e b9 68 6c ff b8
       -0.00030645062 -1.6302018e-05 -0.00013613502 -0.0001217954
000240 9f f5 2c 39 82 b1 97 37 76 d7 46 b8 9c 8e a6 b7
       0.00016494699 1.8083261e-05 -4.7407542e-05 -1.985515e-05
000250 b7 45 21 37 9e 95 83 b9 85 9a 8d b7 92 1b 21 38
       9.61258e-06 -0.0002509774 -1.6880464e-05 3.8411068e-05
000260 29 94 f7 38 b9 e2 83 b9 b6 db 0a b9 1a 47 a4 b8
       0.00011805475 -0.0002515519 -0.00013242554 -7.833373e-05
000270 c4 e8 2c b9 68 d1 b5 b9 2a 53 9b b9 33 bf 32 b9
       -0.0001648991 -0.0003467903 -0.00029625866 -0.0001704663
000280 c6 8b 09 b8 45 03 a8 b6 a2 9b 48 39 41 94 bd 39
       -3.279352e-05 -5.007171e-06 0.00019131464 0.00036159347
000290 67 96 df 38 e9 c5 70 b9 e7 f8 f2 38 9c 45 8d b9
       0.00010661483 -0.00022961911 0.00011585821 -0.0002694548
0002a0 59 61 86 b9 64 74 82 b9 60 ff 49 b9 4c 4a 2f b9
       -0.00025631 -0.0002488225 -0.00019263988 -0.00016716978
0002b0 5a 29 ea b8 b2 1c 5d 39 54 10 45 39 16 af c2 b8
       -0.00011165692 0.00021086892 0.00018793467 -9.283253e-05
0002c0 10 67 a5 38 ef 3f e1 b6 5e de cd b8 58 59 10 b9
       7.88701e-05 -6.7129654e-06 -9.816581e-05 -0.00013766193
0002d0 cb 0f 2f b9 85 b2 95 b9 db 4c 45 b9 94 5b 8a 39
       -0.00016695184 -0.00028552502 -0.00018816015 0.00026389642
0002e0 25 5f 1c 39 dd 83 4e b9 32 d8 4d b9 4b 6a fc b8
       0.00014912763 -0.00019694814 -0.00019630863 -0.00012036095
0002f0 9c e1 1f b9 b6 e7 85 b9 72 9a 4d b9 8e be 91 38
       -0.00015247468 -0.00025540375 -0.00019607859 6.9496324e-05
000300 37 b5 b8 b7 22 3d 11 b8 17 50 5b b9 c3 59 a7 39
       -2.2018894e-05 -3.462763e-05 -0.00020915303 0.000319196
000310 52 3d 3a 39 d9 d9 0a b9 48 9b 00 b8 e6 16 00 80
       0.00017761186 -0.0001324186 -3.0662195e-05 -8.214e-42
000320 19 13 9f 39 2d ee 43 b9 05 aa 87 37 d7 8d 6c 37
       0.00030341072 -0.00018685377 1.6172426e-05 1.4099721e-05
000330 a5 04 49 b9 75 05 8d b7 46 d2 93 b8 42 df 04 80
       -0.00019170584 -1.6811051e-05 -7.048673e-05 -4.47432e-40
000340 83 fe 92 b8 4b 9d 0c 38 b0 a2 32 38 25 4f 09 38
       -7.009229e-05 3.352509e-05 4.259002e-05 3.2737054e-05
000350 03 ad 11 b9 50 38 d5 38 55 ca 2b 3a b6 df b0 b8
       -0.0001389273 0.000101671205 0.0006553282 -8.4340034e-05
000360 d3 c0 78 b9 95 6f 68 b9 2a 16 f6 b8 89 de b9 b9
       -0.00023722956 -0.00022166812 -0.000117343225 -0.0003545175
000370 fd 12 79 b9 6d 4e 6d b8 41 59 43 b7 6f d4 80 b9
       -0.00023753564 -5.6578243e-05 -1.1643687e-05 -0.00024572338
000380 5a 25 81 b9 19 b7 b4 b7 3c 74 cc b7 3c 4a 4b b9
       -0.00024632626 -2.1542934e-05 -2.4372821e-05 -0.00019387243
000390 d7 d2 29 b8 ba d0 1e b9 7f f8 3d b9 f8 26 55 b9
       -4.04891e-05 -0.00015145811 -0.00018117017 -0.0002032778
0003a0 b5 ae ec b8 53 a7 08 37 dd 35 1b 37 cb 7a af b9
       -0.00011285899 8.14519e-06 9.251261e-06 -0.0003347009
0003b0 da a2 b5 b9 42 5e 88 b9 4e ef e0 b8 eb 86 32 b9
       -0.00034644344 -0.0002601017 -0.00010725726 -0.00017025664
0003c0 d2 a9 08 b8 b9 be 99 b9 21 b6 5e 39 6c db 3e b9
       -3.2583084e-05 -0.00029324534 0.00021239418 -0.00018201553
0003d0 31 34 20 b9 6c 2d 31 b8 b5 c7 05 b9 3c 37 1e b8
       -0.00015278232 -4.224239e-05 -0.00012758265 -3.7721577e-05
0003e0 72 90 80 b9 fd 6e ef b8 cd 2d 9e b7 11 0b fe b8
       -0.00024521683 -0.00011417081 -1.8856395e-05 -0.00012113725
0003f0 53 b0 33 b9 90 f2 bd b8 5d b3 27 b9 30 1f 56 39
       -0.00017136456 -9.057403e-05 -0.00015993179 0.00020420249

layers.6.weight f4 [64, 256]
000000 cb 1d f3 3b 91 b0 ea 3b 81 60 ce 3b d9 6a dd 3b
       0.007419323 0.0071621616 0.0062981253 0.006757122
000010 14 6d 01 3c f7 d7 dd 3b e4 cd cb 3b e1 c6 e3 3b
       0.007899541 0.00677013 0.0062196124 0.0069511984
000020 24 cb d6 3b 04 79 d7 3b 3b da 00 3c c4 77 01 3c
       0.006554978 0.0065757055 0.00786453 0.0079020895
000030 b8 a7 da 3b d1 17 d2 3b f4 1a be 3b b5 c9 02 3c
       0.0066728257 0.0064115305 0.005801553 0.007982661
000040 02 f8 e3 3b 09 34 fb 3b d4 26 f1 3b 4d d7 fa 3b
       0.006957055 0.007666115 0.007359365 0.0076550604
000050 70 0d c2 3b eb 0e ef 3b 75 d8 f5 3b d1 22 fc 3b
       0.005922012 0.0072954795 0.0075026103 0.00769458
000060 9a 3e c2 3b b2 65 ea 3b c0 c6 ce 3b 5c fb b3 3b
       0.005927873 0.0071532363 0.006310314 0.005492611
000070 fa 89 d2 3b 82 70 e0 3b 2b 31 f2 3b e0 01 cb 3b
       0.0064251395 0.0068493495 0.007391115 0.006195292
000080 d6 a3 f7 3b e2 72 d6 3b a8 c0 05 3c ad e7 ef 3b
       0.0075573726 0.006544457 0.008163609 0.007321319
000090 b1 18 d2 3b e2 1f e7 3b fd 2b 02 3c 08 fb e5 3b
       0.006411635 0.0070533613 0.007945058 0.0070184506
0000a0 5e 37 0a 3c 18 e7 e8 3b ec 80 fe 3b 49 c1 d1 3b
       0.008436052 0.0071076266 0.0077668335 0.006401215
0000b0 05 d0 c3 3b d7 a2 e1 3b e4 6e d7 3b 68 07 da 3b
       0.0059757256 0.006885867 0.0065744985 0.006653715
0000c0 e1 94 ca 3b 5e 2b df 3b fe 3c d2 3b 3c 82 c2 3b
       0.0061822985 0.0068105897 0.0064159622 0.0059359353
0000d0 58 67 03 3c 0f 13 d8 3b 61 65 d5 3b 85 40 c7 3b
       0.008020245 0.006594069 0.0065123294 0.0060806894
0000e0 75 0c cf 3b fc 0f e7 3b c6 ba d3 3b 99 ae d6 3b
       0.0063186237 0.007051466 0.006461474 0.0065515754
0000f0 4b ed d3 3b e1 1e d2 3b 1d 3e aa 3b 58 d6 e3 3b
       0.0064674965 0.0064123725 0.0051953928 0.006953042
000100 1b 0f d5 3b 1e 5f d7 3b 92 48 d9 3b c2 bd c3 3b
       0.006502045 0.006572618 0.0066309655 0.0059735486
000110 16 9c c9 3b 32 54 cb 3b fe 72 ed 3b cf db d2 3b
       0.00615264 0.006205105 0.007246374 0.0064348946
000120 37 30 fd 3b 60 f9 f4 3b ba 84 df 3b 6c 3a ef 3b
       0.007726695 0.007476017 0.006821242 0.0073006656
000130 60 41 dd 3b 3a 30 0f 3c 21 60 f8 3b 45 30 10 3c
       0.006752178 0.008739525 0.007579819 0.008800571
000140 c6 7c fd 3b 92 6b db 3b 71 75 d9 3b 55 99 e7 3b
       0.0077358214 0.006696173 0.0066363146 0.007067839
000150 25 e2 fc 3b 8c f6 de 3b 34 1e fc 3b c3 0b bb 3b
       0.007717388 0.006804293 0.00769403 0.005708189
000160 31 99 e6 3b 94 01 d9 3b d7 ec d2 3b 7d ee 07 3c
       0.007037305 0.0066225026 0.006436925 0.008296606
000170 8c 7d c9 3b 54 41 ba 3b a9 f3 f2 3b fe df e7 3b
       0.0061489996 0.0056840573 0.0074143005 0.0070762625
000180 bf b4 cf 3b ab 50 ca 3b df eb ef 3b 81 20 02 00
       0.0063386853 0.006174167 0.007321819 1.95331e-40
000190 3d 57 f2 3b f6 c3 e7 3b 33 35 e5 3b 8d 9b d8 3b
       0.0073956535 0.007072921 0.006994867 0.00661034
0001a0 aa 26 d2 3b c7 b4 fe 3b b9 58 e4 3b dd d0 ee 3b
       0.0064133005 0.007773015 0.0069685844 0.007288082
0001b0 85 7b e8 3b 02 55 d8 3b 5f 38 b7 3b 88 eb f7 3b
       0.007094803 0.0066019306 0.0055914368 0.0075659193
0001c0 6b ca bf 3b 3d a8 f4 3b 87 ef fd 3b dc a8 f1 3b
       0.0058529875 0.0074663446 0.007749501 0.007374866
0001d0 c5 e4 d9 3b d4 15 fd 3b 34 a9 06 3c fa 0c e6 3b
       0.006649586 0.0077235494 0.008219052 0.00702059
0001e0 fa 3e fc 3b 6f 00 d2 3b 08 b8 fc 3b ff 2f f2 3b
       0.007697937 0.006408743 0.007712368 0.0073909755
0001f0 0e 55 f5 3b d7 ac b2 3b 5d 5a f9 3b bd b7 f3 3b
       0.007486946 0.005452733 0.007609649 0.007437675
000200 a3 c1 dd 3b b0 20 c8 3b 8d 39 ea 3b 48 83 fe 3b
       0.006767468 0.0061074123 0.007147974 0.007767115
000210 ce a8 da 3b 8d 70 0f 3c 92 f4 f7 3b 99 dc 0f 3c
       0.006672955 0.008754862 0.007566997 0.008780622
000220 ce c1 bb 3b 13 38 f7 3b 12 d7 b3 3b 1d a0 10 3c
       0.0057298904 0.0075445264 0.005488285 0.0088272365
000230 f3 a8 fa 3b b1 b1 02 3c 1c ad e7 3b ad 2c fb 3b
       0.007649535 0.007976935 0.007070197 0.007665238
000240 60 4e cf 3b b2 02 d9 3b 12 1a 03 3c d8 15 bc 3b
       0.0063264817 0.0066226358 0.008001821 0.0057399087
000250 28 d1 b5 3b ba 8a e0 3b a6 4b 01 3c d1 2a df 3b
       0.005548615 0.006852475 0.007891571 0.006810524
000260 b6 1c fc 3b 5f 62 eb 3b 3b f0 c8 3b 9d 9a ab 3b
       0.0076938523 0.0071833576 0.0061321533 0.005236937
000270 ea 28 dd 3b f0 a5 01 3c 68 ae 15 3c 0e e2 ee 3b
       0.006749262 0.007913098 0.00913582 0.0072901314
000280 13 a9 e7 3b ea 8c 09 3c 5a 19 b0 3b 99 e1 f6 3b
       0.0070697158 0.008395413 0.005374116 0.0075342176
000290 ef 2b e5 3b 89 8b e6 3b ff 8c dd 3b 90 7b e9 3b
       0.0069937627 0.007035677 0.006761193 0.0071253255
0002a0 f4 57 05 3c 14 ba d4 3b 4d a5 dd 3b 62 7a e5 3b
       0.008138645 0.006491909 0.00676409 0.0070031146
0002b0 9f 1a 00 3c 0b 88 06 3c ae 16 bc 3b 5b c5 e5 3b
       0.007818847 0.008211146 0.0057400083 0.007012052
0002c0 65 d8 e3 3b a2 18 e6 3b 2e 6a fe 3b 78 0e f2 3b
       0.0069532865 0.0070219794 0.0077641224 0.0073869787
0002d0 9c 98 dd 3b 55 08 f7 3b 35 f6 03 3c 85 e9 f8 3b
       0.006762577 0.007538835 0.008054306 0.007596197
0002e0 b0 32 f8 3b e9 1d bb 3b ba ea 00 3c 9c 62 da 3b
       0.007574402 0.0057103527 0.007868463 0.006664587
0002f0 5b d0 df 3b 4f 50 da 3b 6c 63 e8 3b 35 c9 ba 3b
       0.006830258 0.0066624056 0.00709193 0.0057002553
000300 23 28 e7 3b 89 4e ed 3b 1b 3a f6 3b 79 c7 12 3c
       0.007054345 0.007242028 0.007514251 0.008958691
000310 b1 d0 cc 3b c5 62 cd 3b 8c 0a e2 3b 7f 48 07 00
       0.006250464 0.0062678778 0.00689823 6.68855e-40
000320 bc 89 cc 3b 69 8e dc 3b 0f ac e2 3b 82 a2 01 3c
       0.006242005 0.006730844 0.0069174836 0.00791228
000330 d2 91 ec 3b 97 45 0e 3c 70 91 d4 3b 35 09 00 80
       0.0072195316 0.008683584 0.006487064 -3.303e-42
000340 c0 91 bb 3b c3 f5 da 3b 4d 00 dc 3b da b8 01 3c
       0.005724162 0.006682129 0.006713903 0.007917607
000350 d5 4f ad 3b b5 cf e7 3b a4 39 1d 3c d5 c0 d2 3b
       0.0052890577 0.007074321 0.009596262 0.006431679
000360 58 44 e4 3b 65 41 f1 3b 86 76 c2 3b 05 14 e8 3b
       0.006966155 0.007362532 0.0059345393 0.0070824646
000370 75 a2 de 3b 2c 60 05 3c 99 89 fe 3b b4 f6 e1 3b
       0.0067942687 0.008140605 0.0077678678 0.0068958644
000380 f9 8e df 3b 17 94 f6 3b 7b ff f7 3b ac 83 dd 3b
       0.0068224636 0.007524978 0.0075682974 0.0067600813
000390 7b 23 e8 3b cb 65 e6 3b df 43 ed 3b e6 0d 08 3c
       0.0070843077 0.0070311776 0.007240757 0.008304095
0003a0 90 b6 e2 3b 45 5d 02 3c da cd d9 3b 70 3b 02 3c
       0.006918736 0.0079568075 0.006646854 0.007948741
0003b0 6d ed 14 3c 6f 6c 0c 3c 61 7b e2 3b 1e e2 e6 3b
       0.00908981 0.008570774 0.0069116806 0.0070459982
0003c0 2e c1 00 3c 32 fd f1 3b b7 22 e0 3b 4f 3e f7 3b
       0.007858558 0.0073849196 0.006840076 0.0075452696
0003d0 db 70 ae 3b 39 8e f1 3b 52 e3 e9 3b 1a a6 c8 3b
       0.005323512 0.0073716906 0.0071376944 0.0061233165
0003e0 3b 77 09 3c 88 a4 d6 3b 3c 6a b3 3b 64 1c e5 3b
       0.008390243 0.0065503754 0.0054753106 0.00699191
0003f0 88 d5 09 3c ca a8 03 3c 9b bd c2 3b e7 58 cb 3b
       0.008412726 0.008035848 0.005943013 0.0062056663

layers.6.bias f4 [64]
000000 b9 10 11 b9 0a 1e 17 b9 35 3e 9c b9 9c e4 90 b8
       -0.00013834507 -0.00014411673 -0.00029800987 -6.909037e-05
000010 6e 38 7a b9 4e 7c 3f b9 00 2e e8 33 f3 f8 2b b9
       -0.0002386288 -0.00018261487 1.0811709e-07 -0.00016400572
000020 bb 84 6c b9 c5 bd 04 b9 3f 5f 95 b9 b6 f7 4c b8
       -0.0002255616 -0.00012659196 -0.00028490458 -4.886809e-05
000030 8c 04 73 b8 18 b2 8a b9 af b5 0a b8 28 a5 a9 b9
       -5.793995e-05 -0.000264541 -3.307097e-05 -0.00032357243
000040 f5 79 98 b9 00 fb 3a b9 73 2e 50 b9 2c b9 8b b8
       -0.00029082564 -0.00017831847 -0.0001985373 -6.6625274e-05
000050 27 33 75 b9 d1 4e bd b8 12 db 30 b9 28 0f e7 b8
       -0.00023384076 -9.026903e-05 -0.00016866278 -0.000110177614
000060 f5 a7 13 38 6b a4 c6 b8 20 eb 44 b9 ca 32 f3 b8
       3.5203953e-05 -9.472001e-05 -0.00018779607 -0.00011596603
000070 04 59 77 b9 97 fe 34 b9 6e b3 62 b9 85 33 b8 b8
       -0.00023588917 -0.0001726098 -0.00021619882 -8.7834e-05
000080 5d cf 92 b9 26 47 56 b9 51 7b 13 b9 47 88 e5 b8
       -0.00028001788 -0.00020435135 -0.00014064951 -0.000109449546
000090 58 15 43 b9 b2 93 3d b8 10 48 00 b9 7f 58 6c b9
       -0.000186046 -4.5198663e-05 -0.00012233877 -0.00022539681
0000a0 1a cd 10 b9 ac 09 13 b9 ad ec 3f b9 d1 c6 85 b9
       -0.00013809316 -0.00014022616 -0.00018303348 -0.00025515867
0000b0 53 c5 2b b9 2c 92 55 b9 a3 42 31 b9 34 76 2a b9
       -0.0001638134 -0.00020367716 -0.0001690486 -0.00016256497
0000c0 2e 0c c9 b8 16 13 33 b9 c9 3f 84 b9 2b 96 5b b9
       -9.5866955e-05 -0.0001707788 -0.00025224526 -0.0002094141
0000d0 49 89 3c b9 f9 4e 93 b9 65 b1 9e b7 84 44 74 b8
       -0.0001798022 -0.00028096864 -1.8917674e-05 -5.8237943e-05
0000e0 a5 35 93 b9 45 3e 3c b9 73 e8 78 b9 82 c7 af b9
       -0.00028077993 -0.00017952274 -0.00023737717 -0.00033527246
0000f0 fe cd aa b8 cb c3 e7 b8 08 81 a5 b9 33 56 45 b8
       -8.144601e-05 -0.00011051408 -0.00031567388 -4.704874e-05

layers.9.weight f4 [32, 64]
000000 39 8b a2 3c d9 8b a8 3c 02 c7 b1 3c ab 39 a3 3c
       0.019841777 0.020574497 0.02170134 0.01992496
000010 38 fd a9 3c c0 b9 9c 3c 5b c2 9a 3c 2c 62 a0 3c
       0.020750627 0.019131541 0.018891504 0.019578062
000020 45 d2 a7 3c cf 08 ac 3c a6 08 a7 3c 5c c5 aa 3c
       0.020486007 0.021000294 0.020389866 0.020846061
000030 bb 37 a8 3c bb 9b ab 3c c2 fa a9 3c 32 03 a7 3c
       0.020534387 0.020948282 0.020749453 0.020387266
000040 7c d7 ac 3c 2b 21 ab 3c 0a 42 b1 3c f5 80 a9 3c
       0.021098845 0.02088984 0.021637935 0.020691374
000050 b2 47 aa 3c 03 86 b0 3c c3 82 b1 3c 70 1b 9e 3c
       0.02078614 0.021548277 0.021668797 0.019300193
000060 1c 93 a9 3c 12 41 b7 3c a4 ab a7 3c 37 fd a1 3c
       0.02070003 0.022369895 0.020467587 0.019774063
000070 de 7d aa 3c 2b 90 af 3c f1 f8 9d 3c b6 70 af 3c
       0.020811971 0.02143105 0.019283744 0.02141605
000080 3c 7f a6 3c 4d a3 a0 3c 1c 00 ab 3c 0e 57 aa 3c
       0.020324342 0.019609118 0.020874076 0.020793464
000090 f2 1f ab 3c 16 20 ac 3c 9e 76 ae 3c 9d 1a b1 3c
       0.020889256 0.021011394 0.021296795 0.021619136
0000a0 2e 00 a8 3c f9 5b af 3c 11 a8 a6 3c e6 94 aa 3c
       0.020507898 0.02140616 0.020343812 0.020822953
0000b0 fb ed ad 3c b0 0c a8 3c 90 48 9e 3c a8 31 a1 3c
       0.021231642 0.020513862 0.01932171 0.019676998
0000c0 26 6c a2 3c f8 35 b4 3c 2c de a6 3c b5 7b af 3c
       0.01982696 0.02199839 0.020369612 0.021421293
0000d0 99 99 a1 3c f8 98 ab 3c 67 04 a6 3c 69 4b b1 3c
       0.019726561 0.020946965 0.020265771 0.021642404
0000e0 f6 f7 af 3c bb 7c a7 3c 11 5e b0 3c 77 f2 b2 3c
       0.021480542 0.020445218 0.02152923 0.021844132
0000f0 a4 43 b1 3c 2d a1 a9 3c 42 73 a2 3c fa b8 ad 3c
       0.021638699 0.020706737 0.01983035 0.021206368
000100 28 b3 9c 3c 7c 16 a5 3c b5 e7 aa 3c 88 fc a2 3c
       0.019128397 0.020152323 0.02086244 0.019895807
000110 9a b2 9f 3c 43 a7 a0 3c 0c 00 97 3c cb 71 9f 3c
       0.019494344 0.019611007 0.01843264 0.01946344
000120 77 5a 9d 3c e8 fc a4 3c 66 99 a7 3c 91 06 a1 3c
       0.019208176 0.020140126 0.020458888 0.019656451
000130 c2 c7 a6 3c 5d b9 a5 3c c7 0d a5 3c 6f 4d a5 3c
       0.020358924 0.02022999 0.020148171 0.020178525
000140 e9 85 ad 3c a6 96 a7 3c 7d 53 a3 3c 70 ca 9d 3c
       0.021182017 0.020457577 0.019937271 0.019261569
000150 87 82 a5 3c d1 71 aa 3c a3 82 ae 3c 9e a8 99 3c
       0.020203842 0.020806225 0.021302527 0.01875716
000160 d7 29 a4 3c bd 8a af 3c 44 0c a6 3c 49 4c 98 3c
       0.020039482 0.02142846 0.02026952 0.018591063
000170 42 2e a8 3c b7 3e ad 3c 9b c4 9a 3c 83 1a a5 3c
       0.02052987 0.021148069 0.018892577 0.020154243
000180 f9 c1 a2 3c 6a b5 9b 3c ff ec aa 3c a0 42 9f 3c
       0.019867884 0.019007403 0.020864962 0.019440949
000190 b0 a6 a1 3c 3f 93 b3 3c 21 3a aa 3c 96 82 a4 3c
       0.019732803 0.021920798 0.020779671 0.0200818
0001a0 4e 7a 9f 3c 3e 73 a6 3c e2 a2 9c 3c 24 7c ab 3c
       0.0194675 0.020318624 0.019120637 0.020933218
0001b0 c9 47 a1 3c d9 6b a3 3c df 9f 9c 3c a0 bc 9c 3c
       0.01968755 0.019948887 0.019119201 0.019132912
0001c0 4e ce a3 3c d1 95 ac 3c 44 27 a6 3c 56 e6 a4 3c
       0.019995835 0.021067532 0.020282395 0.020129364
0001d0 7e 08 a1 3c 36 33 ad 3c 0d cd a5 3c d8 0e a8 3c
       0.01965737 0.021142583 0.020239377 0.02051489
0001e0 af 0f ac 3c 6c 71 a1 3c 92 46 aa 3c 8b b6 b3 3c
       0.021003572 0.019707404 0.020785604 0.02193763
0001f0 1b c3 ab 3c c2 82 a2 3c 2b 4e a1 3c f6 c9 ab 3c
       0.020967057 0.01983774 0.019690594 0.020970326
000200 0c 66 9f 3c 9b 4e a6 3c fc 15 ae 3c 30 b9 a6 3c
       0.01945784 0.020301154 0.021250717 0.020351976
000210 5e e8 a4 3c 75 49 a6 3c 43 f7 9d 3c f6 f3 a2 3c
       0.020130333 0.020298699 0.019282943 0.01989172
000220 8a 5b a4 3c 7d 6d a5 3c cc 7d ac 3c 26 8d a8 3c
       0.02006318 0.02019381 0.021056078 0.020575117
000230 ec 3f ab 3c db 79 ab 3c 6f e2 ab 3c da b4 a8 3c
       0.020904504 0.020932129 0.020981995 0.02059405
000240 5d b9 b0 3c a0 f6 ac 3c 61 6e af 3c 9e 85 aa 3c
       0.021572763 0.021113694 0.021414937 0.020815667
000250 f6 b1 aa 3c b3 f3 b2 3c 49 d2 aa 3c aa 8c a2 3c
       0.020836812 0.02184472 0.020852225 0.019842464
000260 70 71 a1 3c e6 59 b4 3c 99 59 a7 3c 2b 17 9d 3c
       0.019707412 0.022015523 0.020428466 0.019176086
000270 1b c8 a7 3c 95 94 a8 3c 06 65 9d 3c 9a ef a9 3c
       0.02048116 0.020578662 0.01921321 0.020744134
000280 cf b8 a3 3c 89 43 a4 3c 14 eb b4 3c 13 3f aa 3c
       0.019985585 0.020051735 0.02208475 0.02078203
000290 ed 8c a7 3c 8b 6b b1 3c 52 ec b3 3c f6 b0 ab 3c
       0.02045294 0.021657726 0.021963272 0.020958405
0002a0 eb 23 a7 3c f6 0f af 3c d9 a4 9b 3c 3c 49 b0 3c
       0.02040287 0.021369915 0.018999504 0.021519296
0002b0 59 f0 b0 3c 7e df a2 3c 24 96 a3 3c e3 10 a7 3c
       0.021598982 0.01988196 0.019969054 0.020393794
0002c0 2e 56 a0 3c bd 9d b0 3c 33 9e aa 3c d9 10 aa 3c
       0.019572344 0.02155959 0.020827388 0.020759987
0002d0 05 43 a5 3c f0 b8 b3 3c 16 28 ae 3c ae 1a ad 3c
       0.020173559 0.021938771 0.021259349 0.021130886
0002e0 66 58 b4 3c 0c d1 a7 3c 23 4e b2 3c 8d 20 b8 3c
       0.022014808 0.020485424 0.021765774 0.022476459
0002f0 51 e6 af 3c 1c 23 a3 3c a2 a8 a7 3c 8e 94 a8 3c
       0.021472128 0.019914202 0.020466153 0.020578649
000300 ad 36 a3 3c 44 2f 9f 3c 12 a6 a6 3c a8 7c 9c 3c
       0.019923532 0.019431718 0.02034286 0.01910241
000310 d5 3b a6 3c f7 92 9c 3c fc b9 95 3c 41 b8 9d 3c
       0.020292202 0.019113047 0.01827716 0.019252898
000320 1a a9 9b 3c b2 76 a4 3c b6 ad a8 3c 09 f7 a2 3c
       0.019001532 0.02007613 0.020590644 0.019893186
000330 09 bb a6 3c 9e 81 a3 3c f3 c4 a2 3c ca a6 a3 3c
       0.020352857 0.019959267 0.019869303 0.019976992
000340 a4 50 a7 3c 11 ad a5 3c 06 07 a8 3c 87 95 a1 3c
       0.020424195 0.020224126 0.020511162 0.01972462
000350 64 6a a7 3c 37 8b aa 3c c2 10 ab 3c 8a 92 98 3c
       0.020436473 0.020818336 0.020882014 0.018624563
000360 47 3d 9f 3c c7 7b b4 3c 4b 2f 9b 3c 08 a6 97 3c
       0.019438399 0.022031678 0.01894345 0.018511787
000370 47 3f a6 3c a7 8c a8 3c 09 ec 98 3c 6d 4b a2 3c
       0.020293845 0.02057488 0.018667238 0.019811356
000380 ac fa 9f 3c 06 02 9c 3c a9 50 a6 3c 76 7e a4 3c
       0.01952871 0.019043934 0.020302134 0.020079833
000390 70 3d 9e 3c ab 9d af 3c 6a f5 af 3c f0 3d a6 3c
       0.019316405 0.021437487 0.021479327 0.020293206
0003a0 4c 34 a5 3c 8d 8a a6 3c 3e ea 9e 3c db 58 a8 3c
       0.020166539 0.020329738 0.019398805 0.020550182
0003b0 43 87 a9 3c d9 dc 9c 3c 90 2b 9c 3c 87 d9 9e 3c
       0.02069438 0.019148277 0.019063741 0.019390834
0003c0 2e be 9f 3c bb ee aa 3c ae 1a a7 3c 69 17 a1 3c
       0.019499864 0.020865789 0.020398464 0.019664483
0003d0 8c 74 9f 3c 5b ac ac 3c f3 de a7 3c ff 51 a6 3c
       0.019464754 0.02107828 0.020492053 0.02030277
0003e0 c8 a0 a8 3c 82 9b a8 3c 23 51 a3 3c 67 ba af 3c
       0.020584479 0.020581964 0.01993615 0.021451188
0003f0 e9 85 a4 3c a0 a8 a3 3c ee 5e a0 3c 8f 4d a2 3c
       0.020083385 0.019977868 0.019576516 0.019812373

layers.9.bias f4 [32]
000000 0a 99 ac b7 75 9d 30 38 63 78 ba 37 0a 24 33 38
       -2.0575262e-05 4.2108313e-05 2.2228987e-05 4.271049e-05
000010 b9 44 d9 b6 98 58 ae 35 b2 b9 11 b8 b0 34 d9 b7
       -6.4751043e-06 1.2989794e-06 -3.4743636e-05 -2.589295e-05
000020 d3 0d 8e b8 6c 14 00 b8 32 64 b0 b7 18 68 cb b7
       -6.7736626e-05 -3.0536597e-05 -2.1027492e-05 -2.4247958e-05
000030 d7 73 11 37 de 62 8a b7 c7 8c 61 b8 7c 40 f2 35
       8.669645e-06 -1.649692e-05 -5.377529e-05 1.8049172e-06
000040 17 3d 1a 37 16 d6 6c 38 fb d8 e0 b7 d8 ed a4 b7
       9.193339e-06 5.6466168e-05 -2.680392e-05 -1.9661078e-05
000050 aa fe 34 b8 46 31 53 b7 53 c3 0c 36 72 e3 93 37
       -4.315252e-05 -1.2588052e-05 2.097532e-06 1.7629678e-05
000060 12 50 8c b7 af 6b 2b 39 e6 25 14 38 5c 55 01 38
       -1.6726586e-05 0.00016347946 3.5321245e-05 3.0835494e-05
000070 54 b9 a6 37 36 1a 62 b6 b9 1e 43 b8 94 4f ae b7
       1.9875042e-05 -3.369188e-06 -4.6520236e-05 -2.0779473e-05

layers.12.weight f4 [16, 32]
000000 29 4d 27 3d ac ed 25 3d 17 5f 27 3d 24 e9 27 3d
       0.04084507 0.040509865 0.04086217 0.040993825
000010 26 50 27 3d 2d 55 29 3d b5 cf 27 3d 69 7c 27 3d
       0.04084792 0.041340996 0.04096957 0.04089013
000020 32 67 23 3d 7e 5b 23 3d f5 c0 29 3d a8 09 21 3d
       0.039893337 0.039882176 0.041443784 0.03931585
000030 dc 00 2d 3d b5 9e 27 3d 59 f2 24 3d d0 64 34 3d
       0.042237148 0.04092284 0.040270183 0.044041455
000040 41 fe 29 3d fc b4 22 3d 4e 54 2a 3d e4 9d 20 3d
       0.04150224 0.03972338 0.041584305 0.039213076
000050 a3 21 26 3d cd e3 2b 3d e2 1e 23 3d e8 d4 28 3d
       0.040559422 0.041965295 0.039824374 0.04121867
000060 1e f2 1f 3d d3 ea 29 3d 78 8e 26 3d 4b 4f 28 3d
       0.03904926 0.04148371 0.040663213 0.041091245
000070 0a ae 21 3d d6 4b 20 3d 52 5a 26 3d ec 2b 24 3d
       0.039472617 0.039134823 0.04061348 0.04008095
000080 97 fe 27 3d 24 09 27 3d a7 10 28 3d e8 b8 26 3d
       0.04101428 0.0407802 0.041031506 0.040703684
000090 31 54 28 3d a7 59 2b 3d 8b b6 25 3d 8a a5 29 3d
       0.041095916 0.041833546 0.04045729 0.041417636
0000a0 2b e5 25 3d 58 b3 26 3d 72 a1 2b 3d c2 6d 26 3d
       0.040501755 0.04069838 0.041902013 0.040632017
0000b0 3d d1 26 3d 5a 06 27 3d b1 be 26 3d 18 d9 30 3d
       0.04072689 0.04077754 0.0407092 0.043175787
0000c0 e8 cd 26 3d 2a c1 25 3d b1 20 2a 3d 70 9a 21 3d
       0.04072371 0.04046742 0.041535083 0.039453924
0000d0 d2 b5 28 3d 25 3a 29 3d d6 86 23 3d fb 79 2a 3d
       0.041189022 0.041315217 0.03992351 0.041620236
0000e0 7c fc 23 3d 9e d4 26 3d 9d 32 29 3d 16 6a 2a 3d
       0.04003571 0.04073011 0.041308034 0.041605078
0000f0 c1 91 25 3d 9a c0 20 3d a8 24 25 3d 89 65 21 3d
       0.040422205 0.03924618 0.04031816 0.039403472
000100 e6 a8 28 3d 5a 57 21 3d c1 57 25 3d 2b bf 25 3d
       0.0411767 0.039389946 0.04036689 0.040465515
000110 a4 d2 23 3d b8 30 28 3d 50 36 26 3d 0f 63 25 3d
       0.039995804 0.041062087 0.04057914 0.040377673
000120 a7 0f 22 3d 22 e9 25 3d 36 16 2b 3d 02 4c 23 3d
       0.03956571 0.040505536 0.04176923 0.03986741
000130 77 55 28 3d 76 95 24 3d 72 8d 27 3d 23 88 2b 3d
       0.04109713 0.0401816 0.040906377 0.041877877
000140 1c e7 2a 3d e7 ce 22 3d 2f 3e 26 3d f3 37 21 3d
       0.04172431 0.0397481 0.040586647 0.039359998
000150 f8 d7 23 3d c4 1a 2d 3d fb 93 24 3d 68 d6 2a 3d
       0.040000886 0.042261854 0.040180188 0.04170838
000160 68 13 1d 3d f3 ec 23 3d bc f1 24 3d 3e 59 26 3d
       0.038348585 0.040020894 0.0402696 0.04061245
000170 2f 1c 1f 3d 91 72 20 3d de a4 26 3d 79 41 21 3d
       0.038845237 0.03917176 0.040684573 0.03936908
000180 6a 2d 28 3d a9 9a 25 3d 27 0d 29 3d 38 45 26 3d
       0.041058935 0.0404307 0.04127231 0.040593356
000190 3e 59 28 3d 81 26 29 3d 4c 0c 26 3d d0 37 29 3d
       0.041100733 0.041296486 0.04053907 0.041312993
0001a0 23 30 27 3d f0 b3 26 3d 3a 7b 2b 3d 2a fb 24 3d
       0.04081739 0.040698946 0.041865565 0.04027859
0001b0 5f 4e 27 3d 68 e4 25 3d bd c1 28 3d c9 c2 2f 3d
       0.040846225 0.04050103 0.04120039 0.04291037
0001c0 49 93 2a 3d f1 b4 28 3d e8 d4 27 3d 08 ae 25 3d
       0.04164437 0.041188184 0.040974528 0.040449172
0001d0 98 d2 25 3d d3 5a 2b 3d 2c 5f 24 3d 1d 1c 28 3d
       0.04048404 0.041834664 0.040129825 0.041042436
0001e0 e1 fa 22 3d ee 4d 25 3d 6e 27 29 3d 04 2e 27 3d
       0.039790038 0.040357523 0.04129737 0.04081537
0001f0 85 89 21 3d 72 80 21 3d ea 53 23 3d 39 20 25 3d
       0.03943779 0.039429136 0.03987495 0.040313933
000200 00 43 24 3d 11 34 1f 3d 63 2d 22 3d 72 5c 1f 3d
       0.04010296 0.038868014 0.039594065 0.038906522
000210 f9 00 26 3d f8 35 22 3d 94 9d 24 3d a5 55 23 3d
       0.04052827 0.03960225 0.04018934 0.0398766
000220 b4 02 25 3d 9f 11 21 3d 09 47 27 3d 6b 36 1d 3d
       0.04028578 0.039323445 0.04083923 0.038381975
000230 58 8c 28 3d 43 b9 21 3d a0 ba 21 3d 87 ef 2d 3d
       0.041149467 0.03948332 0.03948462 0.04246476
000240 ea e8 24 3d 30 30 22 3d 86 cf 23 3d 34 af 1a 3d
       0.040261187 0.039596736 0.03999283 0.037764743
000250 53 2a 22 3d 60 5a 27 3d 99 d5 22 3d 2e 4c 22 3d
       0.039591145 0.040857673 0.039754484 0.03962343
000260 ba 65 1e 3d 71 74 21 3d cb fc 22 3d ce 0f 24 3d
       0.038671233 0.039417688 0.039791863 0.040054135
000270 b9 90 20 3d 81 39 1f 3d 60 ff 22 3d e7 74 21 3d
       0.03920052 0.0388732 0.039794326 0.039418127
000280 9a 0c 2a 3d 5a 44 26 3d 54 24 29 3d 13 57 28 3d
       0.041515924 0.04059253 0.04129441 0.041098665
000290 41 3f 2b 3d c9 42 29 3d b9 0f 2d 3d 58 75 2c 3d
       0.04180837 0.041323457 0.042251322 0.042104095
0002a0 ca fe 26 3d d1 b4 28 3d 03 00 2c 3d 17 e8 22 3d
       0.04077033 0.041188065 0.0419922 0.03977212
0002b0 5f 30 2f 3d e8 ab 28 3d 3b f1 29 3d 8f fe 30 3d
       0.04277074 0.041179568 0.04148982 0.043211516
0002c0 aa ad 28 3d 5b c5 29 3d 82 8b 2d 3d dc ed 27 3d
       0.041181244 0.04144798 0.042369373 0.040998325
0002d0 16 ef 27 3d 76 fc 2c 3d 7a 34 27 3d ed 3f 28 3d
       0.040999494 0.042232953 0.04082153 0.04107659
0002e0 e0 fc 21 3d 63 9e 27 3d 5b ee 2c 3d d8 7a 2b 3d
       0.0395478 0.040922534 0.0422195 0.0418652
0002f0 cb 58 24 3d 0b 15 27 3d 3b 96 26 3d c3 75 26 3d
       0.040123742 0.040791553 0.040670615 0.04063965
000300 ac 26 27 3d 0e 9e 22 3d c6 26 29 3d 70 e4 20 3d
       0.040808365 0.039701514 0.041296743 0.039280355
000310 8b 1f 24 3d 6a e0 26 3d 82 cf 2c 3d 94 26 26 3d
       0.040069144 0.04074136 0.042190082 0.040564135
000320 7e 89 22 3d ea 5f 23 3d 76 cf 26 3d 43 bf 26 3d
       0.039681904 0.039886393 0.040725194 0.040709745
000330 42 98 2a 3d ec 6c 29 3d c3 e0 27 3d bf df 2c 3d
       0.04164911 0.04136364 0.040985834 0.04220557
000340 8f 25 29 3d 40 1f 28 3d ae b7 2a 3d 36 1d 24 3d
       0.041295584 0.041045427 0.041679077 0.04006692
000350 5c ca 23 3d f0 8f 2a 3d 03 4d 26 3d 46 ad 27 3d
       0.039987907 0.041641176 0.040600788 0.04093673
000360 2c 3b 21 3d d7 ff 25 3d a1 58 27 3d 31 2c 28 3d
       0.03936307 0.04052719 0.040856007 0.04105777
000370 70 1e 25 3d 07 d3 24 3d 5e 42 27 3d 5e 61 23 3d
       0.04031223 0.040240314 0.040834777 0.03988778
000380 1e ba 2c 3d e9 13 24 3d 3b 8f 2a 3d 1d 8f 25 3d
       0.042169683 0.04005805 0.0416405 0.040419687
000390 5a c9 28 3d a0 b1 2b 3d 5c 60 2a 3d 5c 04 2d 3d
       0.04120765 0.041917443 0.0415958 0.042240486
0003a0 71 97 28 3d a7 72 28 3d 37 84 2b 3d 0a f9 26 3d
       0.04116005 0.041124966 0.041874137 0.040764846
0003b0 d1 c3 2b 3d 07 27 2a 3d 6e 9d 27 3d e8 c3 32 3d
       0.041934792 0.041541126 0.04092162 0.043643862
0003c0 81 10 27 3d 85 30 2c 3d fa 1f 29 3d f9 67 22 3d
       0.040787224 0.04203846 0.04129026 0.039649937
0003d0 3c 4f 26 3d 7c 19 2e 3d eb c0 26 3d 43 ac 2a 3d
       0.040602908 0.042504773 0.040711325 0.041668188
0003e0 0e 87 22 3d a4 6a 26 3d 90 6a 2c 3d 3c 3e 29 3d
       0.03967958 0.040629044 0.042093813 0.041319117
0003f0 06 11 24 3d 0c 84 22 3d 32 31 29 3d db f5 25 3d
       0.040055297 0.03967671 0.041306682 0.04051767
